results/Heartbeat_SegRNN_sl_96/3/checkpoint.pth (torch, 488931 bytes, 12 tensors)

pos_emb f4 [4, 64]
00000000: 210f 1d3f 9496 a43f 0aec 98bf e244 333e
00000010: 862b 863e 864a 9bbf 2033 58bf 4d81 333e
00000020: 78d2 55be 7eb2 103f 76c7 3e3f d9da 0ebf
00000030: a908 373f e245 f4bf b964 0e3c e9d1 8fbf
00000040: ba11 673f ac96 583f 340a e33d cd75 e53f
00000050: 6b9e 893f f984 ac3e 7b9b 11bf fb44 50bf
00000060: 68ee 67bf 7f62 6b3f 20b4 19bf f982 5c3f
00000070: b0c6 ed3e c80c 11bf 7db0 01bf d9ae e33f
00000080: 3556 b13f 70d7 a8be 2f7f d03d 2fde 973e
00000090: 7d74 32bd be78 c83f b489 f53e 4358 a7bf
000000a0: f1b8 4b3e 397a 763f 96dc 403f f6df a1bf
000000b0: d88a dcbf 6325 0c3f fa9e 55bf 60ab ca3f
000000c0: 91ea bbbd 5786 4fbf 0a6a 53be ed72 a0bd
000000d0: 7d1f cfbe 89a9 d2bf 2dfd 233e a238 8dbf
000000e0: 1e7d 9a3f 76af 85be 3777 cfbf 7432 ab3f
000000f0: eee3 413f 47ed 55be 306f a03e e28b c7bd
00000100: 1bc7 b03f 6f5f e53f b78c 7e3e aea6 113f
00000110: 6c21 633e 15d5 563f 25c4 7cbf c160 243f
00000120: 8aeb 1ebe 7fb6 263f 5607 253f 6134 b2be
00000130: 9355 86be e9a7 4fbf cf3e a3be 12b8 22bf
00000140: fe6d a7bf 8d66 bc3f 9b48 8e3f 2124 72be
00000150: 8078 9dbf 64e3 bbbe 2aac 0c40 09f2 953f
00000160: 482b 94be 3a29 0c3e eefc ae3e 000c 9bbf
00000170: e8be 0abf 3c11 04bc d0d3 833d f9de fa3e
00000180: 7da2 6fbf 0368 76bf 2291 cd3e aa88 fabd
00000190: 1a30 3f3d b782 05bf 11b4 cabd 9521 b53e
000001a0: e33c dfbe 71ac ae3d 6ec8 6b3f c1ad 9ebf
000001b0: 164d 8dbf 985f 96bf f070 1040 c5df 803f
000001c0: 6798 8d3f 13cc 7f3c b2bc b23f b82c a5be
000001d0: b29a dd3e c917 453f fb86 f73e 7619 8fbf
000001e0: 55f9 733e e35a 213c edec 1cbf 3b61 acbf
000001f0: 4b13 71be 8264 36bf 38a6 e5be 7651 f6bb
00000200: a043 b5be eb6d 22bf 7a5e 333f 1f66 1e3d
00000210: 65f5 6ebf 1993 413f 8484 273f 7151 923f
00000220: 7e30 3b3f 6959 48bf 1fcc b53f a8e6 463e
00000230: 26e8 03bf d17b 1cc0 688a ecbf 2d14 cc3e
00000240: 89a9 483f de72 80bf 9019 e43e 3e30 c73f
00000250: 3fc3 bd3f 2de6 8abf 4100 703e 6d17 06bf
00000260: 24c0 8dbd f28b 20be 6313 dfbf 48b2 673f
00000270: 3efd 1e3f 0099 67bd cbd6 8dbf dea3 b93f
00000280: c8e4 fd3d 0b91 8ebd 4054 893e d2ed bc3e
00000290: e8a9 5cbf b5e7 de3e 4247 063f b292 a03f
000002a0: b9e2 b23f db7e 6a3f fc23 33bf f815 35bf
000002b0: df03 0fbf 9bf0 b23f d459 1abe 9ac5 cbbf
000002c0: 3a90 6e3d 5bf2 b53f 121e 8ebf e2ba d1bf
000002d0: 5402 e2bf 7edb 92be 0f5b 1e3f 6480 c9be
000002e0: b0c2 dbbe e34e e5bf b6d2 8ebf d4c9 5d3f
000002f0: a6bf f33f 9e51 a33f 12e4 cc3f b28a d1be
00000300: 17ca bb3f 5f1d 2f3e d0e2 df3e 7933 e9bf
00000310: 87cf abbb 5299 443e 7210 f03e 3547 583e
00000320: 11c1 9a3f 1b2d ba3f d065 9bbe 4a8f 863f
00000330: d9e5 b83e 40ec 013f 94a9 d33e efd6 da3e
00000340: 57cb 75be 405d b2be 1ba8 8dbf bef8 053f
00000350: 2ca1 e23f 5231 9f3f ba96 32be 8b63 9fbf
00000360: 8500 62be 2370 01bf e30f 89bf d83c b6be
00000370: 2a01 303f 2fd7 483e c5c2 b5be 258c acbe
00000380: 47b6 5fbf 2061 eabe e5e1 a1be c34f 3ebf
00000390: 04c9 403f 33df 3dbf 957b e6bf 8c01 823f
000003a0: d07e 433d 24b6 7e3e 6f94 5bbf 1e27 443d
000003b0: a35f 96bf 4f76 a6be d64e 0ec0 4422 a2be
000003c0: a6d2 db3f 3289 1d40 b6bb b73f ac1f 9c3f
000003d0: 6bda febe 52c9 a6bf 5204 3cbf e155 f43f
000003e0: 5bb2 b33e a25c 823d 25bd c43f 59b9 b2be
000003f0: a536 4e3f cfc6 4cbf b78f 69bf 9c63 383f
0.6135121 1.2858453 -1.1947033 0.17506745 0.2620508 -1.2132118 -0.8445301 0.17529793
-0.20881069 0.5652236 0.74523103 -0.55802685 0.7149759 -1.9083827 0.008691006 -1.1235934
0.90261424 0.8460491 0.110859305 1.7926575 1.075147 0.336952 -0.5687787 -0.81355256
-0.90598154 0.9194717 -0.60040474 0.8613735 0.4644065 -0.5666013 -0.50659925 1.7787734
1.3854433 -0.32976866 0.10180508 0.296617 -0.043568123 1.5661848 0.47956622 -1.307381
0.19894768 0.96280247 0.7533659 -1.2646472 -1.7229872 0.5474455 -0.83445704 1.583355
-0.09175599 -0.8106436 -0.2064592 -0.0783442 -0.4045371 -1.6457988 0.16014548 -1.1032908
1.2069433 -0.2611043 -1.6208256 1.3374772 0.7573842 -0.20891295 0.3133483 -0.097434774
1.3810762 1.7919749 0.24858366 0.5689496 0.22180718 0.8391889 -0.9873679 0.64210135
-0.15519539 0.65122217 0.6446432 -0.34805587 -0.26237163 -0.81115586 -0.31883857 -0.6356212
-1.3080442 1.4718796 1.1115907 -0.23646595 -1.2302399 -0.36696923 2.198008 1.1714488
-0.2893927 0.13687602 0.34177345 -1.2113037 -0.5419755 -0.00806075 0.064368844 0.4899824
-0.9360731 -0.9625246 0.4014979 -0.12233098 0.046676733 -0.5215258 -0.09897626 0.35377184
-0.4360114 0.08528984 0.92102706 -1.2396775 -1.103915 -1.1747923 2.2568932 1.0068289
1.1062135 0.01561262 1.3963835 -0.3226068 0.43282086 0.7698942 0.4834517 -1.1179645
0.23825581 0.009848329 -0.6129902 -1.3467172 -0.23542516 -0.7124711 -0.44853377 -0.007517035
-0.35403156 -0.6344897 0.70066035 0.03867161 -0.9334319 0.7561508 0.6543658 1.1431104
0.7312087 -0.7826143 1.4202918 0.19423926 -0.51526105 -2.4450572 -1.8479738 0.39859143
0.7838369 -1.0035055 0.44550753 1.5561597 1.4825209 -1.0851494 0.23437597 -0.52379495
-0.069214135 -0.15678385 -1.7427791 0.9050641 0.62105167 -0.056542397 -1.1081175 1.4503133
0.12397152 -0.069612585 0.2682209 0.36900192 -0.86196756 0.43536153 0.5245248 1.2544768
1.397544 0.91599816 -0.6997678 -0.70736647 -0.5586528 1.3979677 -0.15073329 -1.5919678
0.058243014 1.4214586 -1.1102927 -1.6385157 -1.765696 -0.28683084 0.61857694 -0.39355767
-0.42921972 -1.7914699 -1.1158054 0.8663609 1.9042861 1.2759283 1.6007102 -0.4092613
1.4671048 0.17101048 0.43727732 -1.8218833 -0.005243245 0.19199112 0.46887547 0.21120913
1.2090169 1.4545015 -0.30351114 1.0512478 0.3611286 0.50751114 0.41340315 0.42742106
-0.24003349 -0.3483677 -1.1066927 0.52332675 1.7705436 1.2436926 -0.1744031 -1.2452253
-0.2207051 -0.5056173 -1.0707973 -0.35593295 0.68751776 0.19613336 -0.3550016 -0.33700672
-0.8738751 -0.45777225 -0.31617656 -0.74340457 0.75306726 -0.741687 -1.8006464 1.0156722
0.04772836 0.24874169 -0.85773367 0.047888868 -1.1747936 -0.32512137 -2.2235618 -0.31666768
1.717366 2.4614987 1.435416 1.2197165 -0.49776015 -1.3030188 -0.7344409 1.9088708
0.35097012 0.063653246 1.5370222 -0.34907034 0.8055213 -0.7999086 -0.91234916 0.7202699

channel_emb f4 [61, 64]
00000000: 2c8e d63e 2c06 9dbd 0f54 863e 67db 0bbf
00000010: 448f ebbf f741 84bf 4c64 ad3d 8a2b 0b3f
00000020: 220c 683f 2ad8 9a3c 7bb8 7a3f 591b 82be
00000030: 2e77 37be ce33 a63f 5bb3 d6bd 89c0 67bf
00000040: f6d6 a2bf 1bbd 8b3e 98cb 61bf 6ddf e93f
00000050: f260 943f 6510 f03e 3dbd eabe 1064 8dbf
00000060: a859 b6be d54d bb3d 6559 31be 35af ae3d
00000070: 8d7b 36bf d541 9a3d b808 acbf db5b 22be
00000080: c1a5 abbf fb26 96bd 5812 713f 2183 45be
00000090: a7d8 95bf 7739 2c40 5acb 86be 51b8 bdbf
000000a0: fd04 2a3f 33dd b4be 44fe fabd 44fc 20bf
000000b0: 5a68 94bf b2ea 233f 6d95 c93f dcbe 903f
000000c0: 2f0b b2be 2953 3bbf 05ca 3d3f 619f 17bd
000000d0: 57c2 3e3e ab8e 8ebe 1849 da3f 13ce 27be
000000e0: 9720 883e cb52 1bbe 5ee1 0fbe cb3e 4c3e
000000f0: 836b 533f d54f 33bf 3297 453d 4d22 0140
00000100: 6981 953f 8b1a 62bf d05c 77bf 7830 10bf
00000110: a47b 8cbf 3abd aa3f 9d52 94bf 1487 113d
00000120: 5f97 ef3f 7507 d23d f37c 9fbf 9ee6 c03f
00000130: 4c75 93bf 40d0 b03f 825c da3d 69f6 22bf
00000140: 117a 19bf 54c2 f83d 4afd 613f 96d1 3b40
00000150: 116e 84be 98cf 3dbc 2c3f ebbe fd4e c5be
00000160: 672a 823f e6b7 f3bd 3591 483f 24c8 09bf
00000170: 6a2c 0bbe 719e 4ebc 94d5 dcbe af71 2fbf
00000180: 15f8 dcbf 9de2 323f 9427 50bf b0d4 0bbf
00000190: 09fe f3be 7e47 f63e 8f43 d03f 17ef 3e3f
000001a0: 0bc1 793f 4988 f6bd a108 273f 9dd6 2a3f
000001b0: bbfb b53e 534f 9c3f 0a08 813f 3aff 253f
000001c0: fcce 1cbd 9666 cc3f f92a 6e3f 6c38 4fbd
000001d0: 5409 26bf 6a64 04bf 2a3f 9a3f 99e7 38bf
000001e0: 1256 b4be 16e1 a73f d59f bc3f e26a 5fbf
000001f0: 55fd 693f e046 7bbf 7096 3c3f 4286 6f3d
00000200: 08c5 b8bf d7fe 213f 33f1 933f 1e58 12bf
00000210: b504 a63f 41c4 2a3f 60d4 d43d a9c7 cb3f
00000220: 9b79 3bbf ea00 863f 1cfd eebe ff7f 873f
00000230: 59de 94bd 87f3 febe 88e5 59be e4d0 55bf
00000240: 5bc4 9a3f dd08 67bf 2821 fdbd 88a2 a83f
00000250: 0f45 6cbe a1ac cbbc efab b6bf f684 61bf
00000260: 98bc e03f d24c 2abf 9f89 e13f e614 88bf
00000270: 9abe 7fbf 36c5 f03d b363 1cbf 93d1 473f
00000280: d9b7 d53f 21e6 c6bf 6110 573e 6d9a eb3f
00000290: 8189 fb3e f82d 8bbf 9c41 c33e 6554 1dbf
000002a0: 5996 543f 6f44 e73b cd68 a23f 1d93 04bf
000002b0: 5d01 b7be 4745 933f dab8 903f 0059 13be
000002c0: 4a9e b2be e26b a53f ff25 b8bf 24e1 c53f
000002d0: bb2b 403f 8616 0740 6663 1140 96c3 bbbf
000002e0: d9db af3e ffe3 6ebf 3cc5 86bf df8e 4d40
000002f0: c4d3 a83f 578b ad3f 9d33 f5be cb12 c73f
00000300: 7451 193f 6263 e53e 059f fcbe 5ba7 4ebf
00000310: de3c 823f 61bb 5bbe 31a7 e3bf 5d61 87be
00000320: 4af5 1d3f cf00 2bbf c38f 71bf 589e 873d
00000330: e497 8a3e f06f 823e 5ea0 95be d5ae 6fbe
00000340: 972d 6bbf 64a6 663e c267 da3e cf73 44bf
00000350: 3aca 76be 2a2e 1c3f 5ab2 74be 726b bd3f
00000360: 8176 b4bf 4f47 e5bd b77e f03c 96c0 febe
00000370: 1511 b7be 80a7 cc3f 543e 233f 2a86 dbbf
00000380: f07b 0b3f 5c0d 0c3f 3103 26bf 0421 733d
00000390: fc3d 3f40 cf1e ddbf c264 793f a9ec 1740
000003a0: 6e56 f93d 98a1 f2bd b0da 44bf 8656 0e3e
000003b0: 124d 94be 6a29 19bf 2c6a 27c0 11be 95bd
000003c0: 0530 babe de2e ddbe 4485 4e3e 10eb 8d3d
000003d0: 602a 833f e72f 7c3e 0ba1 893e 4298 033f
000003e0: 5bf3 1d40 b69d b6bf 6692 71be 5893 7abf
000003f0: bf39 d23e 9083 1bbf 519f e7bf e7c9 373f
0.41905344 -0.07667193 0.26236007 -0.54631656 -1.8403096 -1.0332631 0.08466396 0.5436331
0.90643513 0.018901903 0.97937745 -0.2541149 -0.17916557 1.298456 -0.10483428 -0.9052816
-1.2721851 0.27292714 -0.88201284 1.8271309 1.1592085 0.46887508 -0.45847502 -1.1046162
-0.35615277 0.09145705 -0.17319258 0.08529512 -0.71282274 0.07532088 -1.3440161 -0.15855353
-1.3409959 -0.07331654 0.94168615 -0.19288303 -1.1706742 2.6910074 -0.2632702 -1.4821874
0.6641386 -0.35325012 -0.122555286 -0.62884927 -1.1594346 0.6402999 1.5748726 1.1308246
-0.34774157 -0.7317377 0.7413638 -0.03701723 0.18628822 -0.27843222 1.7053556 -0.16387205
0.26587364 -0.15168302 -0.14050815 0.19945829 0.82585925 -0.7004369 0.048239894 2.0177186
1.1680118 -0.8832175 -0.96625996 -0.5632396 -1.0975232 1.3338997 -1.1587712 0.03552921
1.871807 0.102553286 -1.2460006 1.5070379 -1.1520171 1.3813553 0.10662176 -0.6365724
-0.59951884 0.1214644 0.88277113 2.934667 -0.25865224 -0.011585139 -0.45946634 -0.38536826
1.016919 -0.1190031 0.7834657 -0.53821015 -0.13591161 -0.012611018 -0.43131697 -0.6853284
-1.7263209 0.69877034 -0.8131039 -0.5462141 -0.4765475 0.4810142 1.6270617 0.7458357
0.97560185 -0.12037713 0.6524754 0.66733724 0.35543618 1.2211708 1.0080578 0.6484257
-0.038283333 1.5968807 0.9303432 -0.050590917 -0.64857984 -0.5171572 1.2050526 -0.7222839
-0.35221916 1.3115566 1.4736277 -0.87272465 0.9140218 -0.9815502 0.7366705 0.058477648
-1.4435129 0.6327948 1.1557983 -0.57165706 1.2970186 0.6670571 0.1039207 1.5920306
-0.7323243 1.0469029 -0.46677482 1.0585936 -0.07268972 -0.49795172 -0.21278965 -0.83521867
1.2091173 -0.902479 -0.1235984 1.3174601 -0.23073219 -0.02486259 -1.427122 -0.8809351
1.7557554 -0.6652347 1.7620124 -1.0631378 -0.9990021 0.11756365 -0.6108963 0.7805416
1.6696731 -1.553898 0.21002342 1.8406502 0.49128345 -1.0873404 0.38135993 -0.614569
0.8304191 0.0070577185 1.2688233 -0.5178698 -0.35743228 1.1505517 1.1306412 -0.1438942
-0.3488639 1.2923548 -1.4386595 1.5459332 0.7506673 2.1107497 2.2716918 -1.4669063
0.34347418 -0.93316644 -1.0528941 3.2118452 1.3189626 1.3558148 -0.4789094 1.555261
0.5988991 0.44802386 -0.49340072 -0.80724114 1.0174825 -0.21458198 -1.7785398 -0.2644147
0.61702406 -0.6679811 -0.9435999 0.066219985 0.27069008 0.25476027 -0.29223913 -0.23406537
-0.9186644 0.2252441 0.42657286 -0.7673921 -0.24100581 0.6100794 -0.2389616 1.4798415
-1.4098665 -0.11195242 0.029357297 -0.49756306 -0.3575522 1.5988617 0.6376698 -1.7150319
0.5448599 0.54707885 -0.6484862 0.059357658 2.9881582 -1.7275027 0.9741937 2.3738196
0.12174688 -0.11847228 -0.7689619 0.13900194 -0.2896505 -0.5982882 -2.6158552 -0.07311643
-0.3636476 -0.4319982 0.20168024 0.069296 1.0247307 0.24627648 0.2688068 0.514042
2.4679782 -1.426688 -0.23591003 -0.9788108 0.41059682 -0.60747623 -1.8095495 0.71792454

valueEmbedding.0.weight f4 [128, 24]
00000000: 661c 0d3e 6611 c43d b0e1 a0bd 219a 06bd
00000010: 2357 eabd e8f7 2c3d a0b6 453e e007 a13c
00000020: 6995 a6bd 9cee 1bbe 7ff9 f63d d74c 293d
00000030: 0cc5 3d3c be57 023e c4d7 f8bd 74a9 163e
00000040: 0660 32be e89b c23d 5019 fd3d dd3d 69bc
00000050: d76e 2cbe 5b81 09be 953b c53d 6de3 0a3e
00000060: 95f8 88bd 5b31 263e b075 3f3e 1d62 d2bc
00000070: c6a9 933d be42 c8bd ac02 213c 32d1 b7bd
00000080: 51f2 013e 03f4 46be b3d8 f6bd 8e52 ee3c
00000090: 657f 31be f616 a23d 93c0 e3bd f3f6 a0bd
000000a0: 3f36 bb3d a752 ad3c 13e0 04bd d416 db3c
000000b0: a0ed f7bd 3eb1 51bd 3ca5 833d f362 4cbe
000000c0: 317e e5bb 8658 eebb b8bf ce3d 8317 4a3e
000000d0: 1144 29bc 0a30 083d 331e 01be d15b 413d
000000e0: 00ef dcbd 4425 753d 6ea7 a3bd 2a65 f23d
000000f0: f4f9 233e cc14 d13d 7780 1abd 6d5b 953d
00000100: 95d3 d0bd 59f5 37be e82d bfbd a666 54be
00000110: 7184 493e 9169 463e 5c09 423e 92a6 7dbd
00000120: 4f4c 283e 6273 263d b414 edbd d36a b8bd
00000130: 6e47 093e 7ed2 153d f789 cabd 9f22 4fbe
00000140: 8555 38bd 5f5a 00be c484 453e 1b25 383e
00000150: 6ad2 c7bd 84da f1bb 33c5 3c3d 69e3 083e
00000160: 0154 0abe 40d0 4e3e 583f 953d 30c0 b1bb
00000170: 2986 a0bd 42ac ff3d f0a0 ee3c 8016 063c
00000180: b1f2 afbd 4b39 fc3c f3db 32be c8c6 423e
00000190: 43b0 763c fd3f bd3d a633 423e 2c5a f1bd
000001a0: 67fd 073e 1250 45bc 35b9 813c 4026 363e
000001b0: 1e28 0fbe 9df6 3ebe 698a cc3d 8a7e 05bd
000001c0: 2972 2a3e bc79 bfbd b705 87bc ab65 67bd
000001d0: 93ae 713d 538f 883c 0189 02be 963c 813d
000001e0: bdae 0fbe 69e2 16be 9338 ff3c dd8a 1fbe
000001f0: d579 97bd 0208 293e c00d 2c3e bee6 483d
00000200: 81d4 2a3e a872 273e 9a03 1abe f6a0 ebbd
00000210: e925 ee3b ce36 48be 4573 2ebc f9c7 123e
00000220: fedc d83c 577e 4fbe 12b7 14be 3b67 98bd
00000230: 52d4 7ebd 664c 64bc 24b7 48be f933 4e3d
00000240: 4a8e d0bd e988 fe3d 1446 b2bd 177e d1bd
00000250: 29c1 683b 4d9d 9dbd 2f7f 99bd d338 54be
00000260: ca0f 1c3e f10c 0a3e 96d9 b6bd a9ff ff3d
00000270: 3249 32bd 263b 67bd 106f 1bbe 9da3 6f3c
00000280: 4247 19be 4071 28be 3f9f 15be 4fc2 0fbe
00000290: ea40 eabd 57ec ef3d 7531 16be bc46 58bc
000002a0: b4cc aabd cccc 09be 0f7a 20bc 482c 07be
000002b0: 699b a03d 18a5 4fbd b3db b63d f5f6 debc
000002c0: 2088 33be ac58 0bbe 702e 243e b4bf 483e
000002d0: 64cb b3bc 36cd d33d 70f5 d6bc a6ce f3bd
000002e0: a364 42bc 2f7c 44be 9c86 84bd 6f38 503b
000002f0: d433 4bbe 6f38 0bbe f1a6 9ebd ab63 803c
00000300: b713 3e3e ff85 b73c 57f2 6bbd 81c9 51be
00000310: e3a6 a4bd e9b1 d03d 2a0e 0c3e c285 c0bd
00000320: 8278 ac3c 5678 b9bc 680a 38bd 965c 66bb
00000330: 28ab 4e3d b9b5 53bd 8fae d63d 2bed 8abd
00000340: c242 44be b69b 02be d66f 003e 2ab4 fdbc
00000350: bd1c 10be 230d 9dbd 41a1 ff3d 8746 a23c
00000360: e5ce 813d bd41 003c 9ea8 dbbd 0d9b 21be
00000370: c6f2 00be 6226 43be 3914 873d ae08 56be
00000380: 30e9 ef3d 81bf fdbc 427d 263e fa51 ec3d
00000390: fdf8 8f3d acd2 22be b60c e13d 3b70 303d
000003a0: 01fc 08bd db92 46be b46b a23c 983d 39be
000003b0: 08fa e43d 7ffb 18be bfa4 9c3d da33 9cbd
000003c0: 79f1 ebbd 06c3 ac3d 74fc 2ebc f618 ea3c
000003d0: a204 d2bd a045 833d 7a18 eabc 0840 043e
000003e0: dbe3 4f3e 1eeb bbbc 0e40 4ebd 0d88 88bc
000003f0: 56ef d33d 29eb 01be ee50 483e 92c8 983d
0.13780364 0.09573631 -0.078555465 -0.032861833 -0.11442401 0.04222861 0.19307947 0.019657075
-0.081339665 -0.15227741 0.12059306 0.041333046 0.011582624 0.12728783 -0.12150529 0.14713079
-0.17419443 0.09502393 0.123583436 -0.014235941 -0.16839157 -0.13428251 0.09630505 0.13563319
-0.06688038 0.16229765 0.18697238 -0.02568155 0.07210116 -0.09778355 0.009827297 -0.08975448
0.12690093 -0.1942902 -0.12053051 0.0290921 -0.17333753 0.07914536 -0.11120715 -0.07859602
0.09141206 0.021157576 -0.032440256 0.026744284 -0.1210587 -0.051194422 0.06428 -0.19959621
-0.0070035686 -0.0072737364 0.10095161 0.19735532 -0.01033117 0.03324894 -0.12609176 0.047206704
-0.10787773 0.059849992 -0.07990919 0.11835702 0.16013318 0.10209045 -0.03772017 0.07292829
-0.10196606 -0.17964686 -0.09334928 -0.20742282 0.19679429 0.19376208 0.18948883 -0.061926432
0.1643536 0.04063738 -0.115762144 -0.0900475 0.13406155 0.036577694 -0.09889596 -0.2022805
-0.045003433 -0.12534474 0.19288927 0.17982905 -0.0975693 -0.0073807854 0.0460865 0.13368
-0.13508607 0.20196629 0.072874725 -0.005424522 -0.07838089 0.124840274 0.029129475 0.008184075
-0.085912116 0.030789038 -0.17466716 0.19021142 0.0150566725 0.092407204 0.18965015 -0.11784777
0.13280259 -0.012043016 0.015835384 0.17788029 -0.13980147 -0.18648763 0.09987337 -0.03259138
0.16645111 -0.09349391 -0.016482217 -0.056493443 0.059004378 0.016669905 -0.12747575 0.06310384
-0.14031501 -0.14734806 0.031154906 -0.15580316 -0.073962845 0.16506961 0.1680212 0.049048178
0.16682626 0.16352332 -0.15040436 -0.1150531 0.007267703 -0.19552156 -0.0106476 0.14334096
0.026472565 -0.20263039 -0.14522961 -0.07441565 -0.062214203 -0.01393423 -0.19601113 0.050342534
-0.101833895 0.12428457 -0.087047726 -0.10229128 0.0035515523 -0.07696018 -0.074949615 -0.20724802
0.15240398 0.13481499 -0.0892822 0.12499935 -0.043526836 -0.056452893 -0.15179086 0.014626411
-0.14968589 -0.16449451 -0.14611529 -0.14038967 -0.114381626 0.11715 -0.14667304 -0.013200458
-0.08339825 -0.1345703 -0.009794726 -0.13200486 0.07842142 -0.050694555 0.08928623 -0.027217368
-0.17532396 -0.13608044 0.1603334 0.19604379 -0.02194757 0.10341875 -0.02624008 -0.119046494
-0.011864814 -0.19187997 -0.06470987 0.0031771918 -0.1984399 -0.13595746 -0.07746685 0.015672525
0.18562208 0.022402762 -0.05760416 -0.20487024 -0.080396436 0.10190184 0.13677278 -0.09400512
0.021053556 -0.022640388 -0.0449318 -0.00351504 0.050456196 -0.051686976 0.10482513 -0.067835175
-0.19166091 -0.12754712 0.12542662 -0.030969698 -0.14073463 -0.07668521 0.124819286 0.01980902
0.0633829 0.007828173 -0.107255206 -0.15781803 -0.1259261 -0.1905761 0.06595654 -0.20901749
0.11714399 -0.030975105 0.1625872 0.11539073 0.070299126 -0.15900677 0.109887525 0.04307578
-0.033443455 -0.19391958 0.019826747 -0.18089902 0.11180502 -0.14939688 0.0764861 -0.076270774
-0.11520667 0.08435635 -0.010680307 0.028576355 -0.1025479 0.06409764 -0.028576124 0.12915051
0.20301764 -0.022939261 -0.050354056 -0.016666437 0.10348384 -0.12687363 0.19562122 0.07460131

valueEmbedding.0.bias f4 [128]
00000000: 073f 323e 9375 b8bd 4296 543d c685 bc3c
00000010: 0cc6 bf3c a78c f1bd 3622 083e b696 3e3c
00000020: 0895 90bd 95ff 45be 0a5e 1d3d 75a6 4f3d
00000030: 6050 563d 1206 f33c a249 7bbd bcd2 083e
00000040: 1ccf 48be e761 003e d0d5 893d 0e3d 8dbd
00000050: 2343 9f3c f272 b7bd 5496 193a 8864 3bbe
00000060: ea92 d8bc 7857 043d a95e 21bc 1f03 44be
00000070: 0d9e aebd 8c47 403e cf51 5bbc af03 9fbd
00000080: 22f4 d13c c7f1 58bd 6890 783c b3a3 f73c
00000090: 9190 e53d 73c5 8cbd fe4e bc3d c896 42be
000000a0: ef05 0fbd 882a ac3d dfea e6bd 7c0c adbd
000000b0: 7a8a 8dbd b94a 1e3e ab70 54bd 4af7 24be
000000c0: 744b b4bd 8b0e 083e 1b15 e3bd fbcf 3dbd
000000d0: f48e 103e 4d0f cb3c 06d4 c2bc e207 adbd
000000e0: 8d63 133d 5bde f8bb ebb5 80bc 23ed 083d
000000f0: 3f53 f9bd 1c24 56bd 59fd d93d 1099 163d
00000100: e752 37be 131a 8a3d 1a3e 1bbe 43f7 7fbd
00000110: 46e5 8f3d a0f8 b6bd c702 d23d 4579 10be
00000120: 754f 2d3e 139b bbb9 41b1 18be 7ced 9cbd
00000130: 646a adbd 2112 57bd 7469 39be 3b87 d23d
00000140: f151 2ebd e8d0 d8bd 4967 adbd d21e 573d
00000150: a9c0 07be 1e63 393e 18e9 acbd 9efa 973c
00000160: 8dae 033e 4871 33be 517b a1bd d171 c5bd
00000170: f6b0 16bd 52a4 ccbd 9c03 84bd 0e80 89bd
00000180: 3238 723c e2e4 4a3e 7b1e 353e 6987 06be
00000190: 9ce9 3a3d 5530 27be 32e1 323e cf2d 24be
000001a0: a0fb d9bd bfee 3ebd eeb1 bc3c 76f8 ff3d
000001b0: 1a8c c23d 7502 a03c 430c 20be 246d 21be
000001c0: 5624 9dbd f67e b73d 90cd 193e 78a7 d83d
000001d0: 1b70 733d 015d 183e f0bf 3e3e 6e49 483e
000001e0: c271 59be 391f 20bb d7cd 3abe 01a3 4a3d
000001f0: 0310 0ebd b78d fe3d d84d bd3d 33c3 57bd
0.17406856 -0.090068005 0.05190111 0.023013007 0.023409866 -0.117944054 0.132943 0.011632612
-0.070596755 -0.19335778 0.03841976 0.050695855 0.052322745 0.02966598 -0.06134952 0.13361639
-0.19610256 0.12537347 0.067302346 -0.06896411 0.019441193 -0.08957471 0.00058588875 -0.18300068
-0.026437242 0.03230998 -0.009849229 -0.19141816 -0.085262395 0.18777293 -0.013386204 -0.077643745
0.025629107 -0.05296495 0.015171148 0.030229425 0.112092145 -0.06873598 0.09194754 -0.19002831
-0.034917768 0.0840655 -0.11275267 -0.08449647 -0.06911178 0.15458192 -0.05186526 -0.16109958
-0.08803454 0.13286798 -0.1108801 -0.046340924 0.14117032 0.02478757 -0.023782741 -0.08448769
0.03598361 -0.007594866 -0.015711745 0.033429276 -0.12174081 -0.05228053 0.10644025 0.036767066
-0.17902718 0.067432545 -0.15160409 -0.062491667 0.07026152 -0.0893414 0.10254436 -0.1410876
0.16924842 -0.0003578296 -0.14911367 -0.07662484 -0.08467558 -0.052507523 -0.18106633 0.102796994
-0.042558614 -0.10586721 -0.08466966 0.052519627 -0.13257088 0.18104216 -0.084428966 0.01855212
0.12859555 -0.17523682 -0.07884849 -0.096408494 -0.036789857 -0.09992279 -0.06446001 -0.067138776
0.014783906 0.19813874 0.17687409 -0.13137592 0.045632944 -0.16327031 0.17468718 -0.160331
-0.10643697 -0.046614405 0.023034062 0.12498562 0.094993785 0.019532422 -0.15629677 -0.1576429
-0.07672946 0.08959763 0.15019822 0.10578817 0.059433084 0.14879228 0.18627906 0.19559261
-0.21234801 -0.0024432673 -0.18242584 0.04947186 -0.03468324 0.12429374 0.09243363 -0.05267639

rnn.weight_ih_l0 f4 [384, 128]
00000000: a639 db3c bf93 a1bd bfc4 453d 5aa2 a4bd
00000010: fd62 92bd 884e 17bc c6c7 6cbd 5d33 a9bd
00000020: b9b2 863d fd91 883d 5140 7bbc 3333 bebc
00000030: b9ac aabc f8db 523c 1522 863d 19b2 a2bc
00000040: a7fc 54bd 9458 103d 40d5 b0bd bca4 37bd
00000050: 715a 223d d7db 283d fb6a 6ebd 73ee 2f3c
00000060: 2a31 1b3d 8327 10bd c92f 97bd 68cf 4e3d
00000070: 1c42 0c3d 5505 193d 16c5 c4bc 7420 23bd
00000080: 42b5 b0bc 28a0 4d3d 7c39 34bd 2ce0 66bd
00000090: 4bc0 51bd ab10 2dba 283b 1fbd 5ce7 80bd
000000a0: a14e 8c3c 02e9 a23d f441 373d 0eef 67bd
000000b0: 808b e3bc 7688 9ebd d007 b7bc 9010 d33c
000000c0: 964b 91bd ea04 7f3d b036 bfbc 1558 5fbd
000000d0: 2647 53bd fb24 423c 7013 3ebd dece 61bd
000000e0: adba 21bd 92bc bd3b bcd5 b83b 08f1 833d
000000f0: ac1e b6bd ff83 593c 85bb 61bc 5cdc 86ba
00000100: a62e 4dbd ab0f 29bd 87ca f6bc ff32 a1bc
00000110: 315a 413c 9994 8bbd 60b4 243d 2100 87bd
00000120: 5684 aabc 8103 b13d 4eda f0bc a831 3b3d
00000130: 692a 74bd 8a41 6fbd d126 ac3c 9df0 4fbd
00000140: 2366 6c3d 5525 88bc 2180 8abd 2a5a 9a3d
00000150: 8ed0 8abb 5ff7 96bc e65a 1f3d 204d 98bc
00000160: 5998 193c 52ae 343c c7ed 3cbb 9da3 04bd
00000170: 1a5f 9d3d 77f6 94bd da1a 8bbd 451f 5fbd
00000180: 90c9 8dbb 3e2e 13bd 9226 d1bc a038 e43b
00000190: 0eeb ccbc b90c 053d d355 d1bc 2756 40bd
000001a0: 13b7 69bd 31cf 413d f91b 80bd 655b 99bd
000001b0: 6ba8 953d c0a1 b0bb 518e 5c3d 3882 5c3d
000001c0: d043 b8bd b4ee c2ba 50cb 6b3d e837 45bc
000001d0: 2ef4 733c 7ebc ae3c ff83 5dbd cdd1 6ebd
000001e0: 5208 db3c d249 69bc 57c3 883c 8fa5 1cbd
000001f0: f3c0 fdbc d811 f13c 3176 73bd b04c 4e3c
00000200: 629d a8bd 366b f33c 7f04 24bd 001c 083d
00000210: 9bf9 863c 9028 4fbc 5692 fe3c 8a89 443d
00000220: 67ef 7a3d 63ef a7bc c342 0dbd bf6a 953d
00000230: 8612 06bc 7491 003c bb0d b03d 1f82 f9bc
00000240: af3f d63b c0aa 9a3d 74eb 873d 0b96 6fbd
00000250: 60bb abbd 114e a5bd 6856 c2bc ae2a 823d
00000260: a0db 403d 3ce4 0bbc 8615 5c3d 062f 9cbd
00000270: 5825 b4bd 865f 8abd 1495 7abd c4db a4ba
00000280: d888 5a3d aa36 fa3c 7db9 bd3c 3cb0 2f3b
00000290: 09b8 d2bc 146c 05bd 96b2 5e3d a50c 953d
000002a0: d488 12bb de17 36bc be6a 3bbd 1d85 133d
000002b0: 41f7 70bd 98ff 3bbd ff8b 95bd 802e 6c3c
000002c0: 642f fc3c 75d2 803d 422a 9fbc 81c4 7a3d
000002d0: 8abe 3a3d c092 813d 592d 2f3d 8393 1dbd
000002e0: a3e0 5a3d 6f5d 2f3d 3d9d 4f3d bfb4 973d
000002f0: 0de2 c1bb 5987 0b3d 197c 8f3d 1f16 a5bd
00000300: 6945 b4bd 0217 b0bd 87bd 953c d799 7dbd
00000310: 622c 8fbd 5735 843d 04d0 58bd 6ad5 df3b
00000320: 214a 543d f92e 9abd 31d6 30bd d9cd 693d
00000330: af92 47bd 9cb2 823c f4b8 4ebd 136d 973d
00000340: e166 593d 6507 8d3d 97d1 773d bdf7 8b3d
00000350: f649 00bb 9e11 ebbc 0d11 943d b83f df3c
00000360: 984f abbd 1932 45bb 4818 403c 6cca 2dbd
00000370: 5e91 1d3d 31fb b93d d1cd c93c 0929 81bd
00000380: 98d5 fd3c f74c 7d3a c396 e13c c345 d23c
00000390: 6ddf 23bd fcae ac3c f43f 8c3d f530 3bbd
000003a0: db32 26bd 4f45 b23d c68d 9a3c afa3 debc
000003b0: 40fd 76bd a825 9cbd befc d539 20e1 903c
000003c0: e907 c0bc dd97 903d 71dc 323c 8b66 a73d
000003d0: 835b 53bd 804b 4a3d b867 283d bfb8 113b
000003e0: 53df 81bd d5e0 3fbc ef10 b23c 53f3 233d
000003f0: 7df6 a0bd f9c8 243d d128 82bd 41d1 34b8
0.026760887 -0.078895085 0.048283335 -0.080387786 -0.07147787 -0.009235032 -0.057807706 -0.0826175
0.065770574 0.0666847 -0.015335158 -0.023217773 -0.020834314 0.012869827 0.065494694 -0.019860314
-0.05199876 0.035240725 -0.08634424 -0.044834837 0.039637033 0.04122528 -0.058207493 0.010738003
0.037888683 -0.03519393 -0.07382161 0.050490767 0.034242734 0.0373586 -0.02401976 -0.03982587
-0.021570805 0.050201565 -0.044000134 -0.05636613 -0.051208775 -0.000660191 -0.038874775 -0.06294128
0.017127337 0.07954599 0.044740632 -0.056624465 -0.02777648 -0.077408716 -0.022342592 0.025764734
-0.07094495 0.062260546 -0.023341507 -0.05452736 -0.051581524 0.011849637 -0.046405256 -0.055128925
-0.03948467 0.0057903016 0.0056407135 0.064424574 -0.08892569 0.013276099 -0.013777618 -0.0010289061
-0.050093316 -0.041274708 -0.03012587 -0.019677637 0.011801288 -0.06815452 0.04021108 -0.065918215
-0.020815056 0.086432464 -0.02940097 0.045701653 -0.059610758 -0.058412112 0.021014603 -0.050766576
0.057714593 -0.016619364 -0.0676272 0.07536729 -0.0042362874 -0.018428503 0.038905047 -0.018591464
0.009374701 0.011027889 -0.002882825 -0.032382596 0.07684155 -0.07273572 -0.06792231 -0.05447318
-0.0043270066 -0.03593277 -0.025531087 0.006964758 -0.025014427 0.032482836 -0.02555362 -0.04695716
-0.05705936 0.047316734 -0.06255335 -0.07488135 0.07307514 -0.005390376 0.05384666 0.053835124
-0.08997309 -0.0014872164 0.05756694 -0.012037255 0.01488976 0.021330114 -0.05408096 -0.05830555
0.026737366 -0.014238792 0.016694708 -0.038243826 -0.030975794 0.029427454 -0.059438888 0.012591526
-0.082331434 0.029714208 -0.04004335 0.033229828 0.016476443 -0.012643948 0.031075638 0.04798273
0.061263468 -0.02049989 -0.034487497 0.07295751 -0.008183127 0.007847179 0.08596369 -0.030457554
0.0065383534 0.07552099 0.06636706 -0.0584927 -0.08385348 -0.080715306 -0.023722842 0.06355797
0.04708445 -0.008538302 0.053731464 -0.076261565 -0.08796185 -0.06756501 -0.06117733 -0.0012577702
0.05335316 0.030543644 0.023159737 0.0026807925 -0.02572252 -0.032573774 0.05436953 0.072778024
-0.0022359388 -0.011114089 -0.045756094 0.03601562 -0.05882955 -0.04589805 -0.07302093 0.014415383
0.030784316 0.062901415 -0.01942933 0.061222557 0.04559187 0.063268185 0.042767856 -0.038470756
0.053436887 0.042813715 0.050687063 0.074075215 -0.00591684 0.034064624 0.070060916 -0.0806086
-0.088023014 -0.085981384 0.01827885 -0.06191429 -0.06990887 0.06455486 -0.052932754 0.006830861
0.051828507 -0.075284906 -0.04317302 0.057081077 -0.048723873 0.015954308 -0.050469354 0.07393851
0.05307663 0.06886176 0.060502615 0.06834362 -0.0019575334 -0.028694924 0.07229815 0.027252063
-0.08364791 -0.0030089675 0.011724539 -0.042429373 0.03846871 0.09081114 0.024634274 -0.06306655
0.030985638 0.0009662653 0.02753771 0.02566803 -0.040007997 0.021079533 0.068481356 -0.045700986
-0.040575843 0.08704626 0.018866431 -0.02717766 -0.06030011 -0.0762437 0.00040814833 0.017685473
-0.023441272 0.070602156 0.010916815 0.081738554 -0.051600944 0.04938841 0.04111454 0.0022235361
-0.06341424 -0.011711319 0.02173659 0.040026974 -0.07859514 0.040230725 -0.06355441 -4.3110227e-05

rnn.weight_hh_l0 f4 [384, 128]
00000000: cef1 90bd 60eb 123d bc93 9cbd a2a9 fb3b
00000010: 3b03 4a3a 58d7 08bd 637d b3bc bfa2 9e3d
00000020: ad88 883d ec0d 813d 8c88 ec3c ddd6 cc3d
00000030: 1d8c 1f3d 9eb2 343d b32e 90bc 53b0 37bd
00000040: 6075 8abd 3cd6 4cbd b88f 40bd cf72 2bbd
00000050: 2fcd bc3d 0632 0e3d 7e94 f93c fd58 d53c
00000060: d226 943d 0fef 993d 56eb 48bd a27e 2dbd
00000070: 8d6d 853c 0259 1fbd 6e30 68bd 5680 a93d
00000080: 86f4 723d 9e19 aa3d e8ed 4ebc efcf 403d
00000090: 483e 53bd 398b 62bd 6337 acbd 233a 5fbd
000000a0: 4d49 a63d 447a 86bd 4f95 133b 1d24 a5bd
000000b0: a63c a73d 2233 10bd 5309 1fbd a028 1ebb
000000c0: 781d 293d 0042 8ebd fb20 81bc 8df1 7cbd
000000d0: b168 9a3d 2d4b 81bd 8025 a63d 043d a5bd
000000e0: 3b72 c6bc 1161 33bd bc5b 883c c1b4 8dbc
000000f0: 0a0f 3c3d 505e b5bd e51e 9cbd 3ca4 a13b
00000100: 32bd a1bd a06d 1f3c 6412 87bc 631b 1e3d
00000110: 3cbf 67bd 2174 9b3d 105b cfbc aa33 4cbd
00000120: 5538 bfbc 073a a8bc c25d b6bd 700c b33c
00000130: 1758 3f3d 214a 24bd 35b1 2f3d c6dd 2ebd
00000140: 580a 923c db19 4e3d 5efd a5bd c302 84bc
00000150: a43d c2bd 3417 04bd c8d1 863b 9471 95ba
00000160: 9c37 573d 853d 51bd 960a bc3a ece6 923d
00000170: 6673 723d 2844 19bd d3af 893d c92c 8b3c
00000180: 580f 6fbb 3128 793d 9d5a 86bd 5710 803d
00000190: 2e36 2d3c ef27 0bbd f3f0 a43d 4ddd d1bc
000001a0: 1403 653d a6b9 af3d 906f a1bd cc74 b2bd
000001b0: 1ccd 4ebb 5d22 b0bb 5300 99bd dee4 803d
000001c0: 6856 813d 451e a03d 7044 6b3d ed82 ca3d
000001d0: e80a 70bb 4d7d 3f3d fbf9 a2bd cbc1 40bd
000001e0: 6603 ba3d cb7c 3fbd d122 9d3d d527 693d
000001f0: 7196 7cbd b944 3d3d 5b15 983c fb9d 23bc
00000200: 0471 96ba 903c 9c3d 1827 95bd 6107 a43b
00000210: aaad 5d3d 387d a7bb 1b71 08bd 9342 72bd
00000220: b90f fe3c c4f5 97bd c894 883d c827 ad3d
00000230: b715 75bd ca2b 863d c932 243d c382 a1bd
00000240: c327 6d3d 03e4 573d 8f57 aa3c 4399 713d
00000250: 3218 0f3c ee5d 503d ef18 353d de6b a83d
00000260: 10fc 31bd eea8 ae3d 1933 7b3b 06c5 85bd
00000270: 4252 e33c e976 943c e7f2 22bd 0e38 8a3d
00000280: 0e81 e4bc bf53 cc3c c6ae 27bd 1425 5f3d
00000290: 09b4 9cbd 4aa5 533c 2f13 363d 4b08 093d
000002a0: 3500 a0bc 71e4 81bd 1d8a 823d b9f3 d1bd
000002b0: 5eec 59bd 969d babc 3b59 3c3c 3b3e 543d
000002c0: f112 9d3c 050e 633d d6fb d2bd 9a79 c1bc
000002d0: 23d0 03ba 4d00 ec3c 915c d63c c6e4 79bd
000002e0: 2af5 a5bd 3cac 733d 19dd 473c 9d81 6a3b
000002f0: bf80 673d 7367 c43d 52a6 f8bc b342 2d3d
00000300: 47ba 8a3d 0fa8 853b 2b2e b5bd 6f8c afbd
00000310: b85d e23b ef9a cb3d a248 cfbb 3134 30bc
00000320: 4bc1 78bd f312 13bd 0e6c 6c3d 9944 febc
00000330: e090 8b3d 24a0 98bd c03d 08bc 6bfc e23b
00000340: 7cfe 083c a2f4 81bd e5cf 2cbd fd99 1bbd
00000350: 558a 59bd ce77 32bd 51a0 5c3d f6ef 60bd
00000360: 370e 93bd 7287 d13c 8d32 8bbd c5e1 babd
00000370: 975c cc3b 16e0 3abd cfa2 183c d75c 803d
00000380: ce72 bcbd 5fb6 923d 10ec 5f3d 35b4 b8bd
00000390: 40fa c03a b0d1 ec3b 0875 8cbd 37ea ec3c
000003a0: 2e7d 9dbd f3f8 86bd 6abb 6fbd c3f3 9bbd
000003b0: 32aa 7c3b 55ab 0e3a ad40 2bbc 0427 b0bc
000003c0: ba48 113d de7f 863d 1b41 913b e163 67bc
000003d0: 7463 b8bd 02d1 5dbd cb47 303d 795a 8fbd
000003e0: dedb 563c e51b 96bd fead be3d 5f54 343d
000003f0: ede8 953d f3a5 7c3c dcb4 9e3d 7c58 8cbd
-0.070773706 0.035869002 -0.076453656 0.007680134 0.000770617 -0.033408493 -0.021910375 0.07745885
0.06666694 0.063014835 0.028873704 0.100019194 0.03895198 0.044115655 -0.017600393 -0.04484589
-0.06760669 -0.050008997 -0.04701206 -0.041857537 0.09218823 0.034715675 0.030466314 0.02604341
0.07233967 0.075163 -0.04905256 -0.042357095 0.01628759 -0.038903244 -0.05668681 0.08276431
0.059315227 0.08305667 -0.012629963 0.0470733 -0.051573068 -0.055308554 -0.08409002 -0.054498803
0.0811945 -0.06566289 0.0022519415 -0.08063529 0.08165865 -0.035205014 -0.03882725 -0.00241331
0.04128787 -0.06946182 -0.015762797 -0.0617538 0.075394996 -0.06313167 0.08112621 -0.080682784
-0.024224391 -0.04379374 0.016645305 -0.017298104 0.04591278 -0.08855879 -0.0762308 0.0049329083
-0.07897414 0.0097307265 -0.016488262 0.038600337 -0.05657886 0.07590509 -0.025311977 -0.04985396
-0.02334229 -0.020535482 -0.08904602 0.021856517 0.04671487 -0.040109757 0.042893607 -0.04269197
0.017827198 0.050317626 -0.081049666 -0.016114598 -0.09484413 -0.03224869 0.0041143633 -0.0011401647
0.052543268 -0.05108406 0.0014346417 0.07172951 0.059192084 -0.037418514 0.06722989 0.016989129
-0.0036477651 0.060829345 -0.06560252 0.062531166 0.0105719995 -0.03397363 0.0805377 -0.02561822
0.05591114 0.085803315 -0.07882607 -0.087136835 -0.003155536 -0.00537519 -0.07470765 0.06293653
0.06315309 0.078182735 0.057438314 0.09888253 -0.0036627594 0.046750356 -0.07957836 -0.047059815
0.090826795 -0.04674987 0.07672656 0.056922752 -0.06166691 0.046208117 0.01856487 -0.009986396
-0.0011477773 0.07628739 -0.07282847 0.0050057624 0.054120697 -0.005111363 -0.03331099 -0.05914552
0.031013357 -0.07419923 0.06669003 0.08454853 -0.059835162 0.06551321 0.040087495 -0.07886269
0.057899248 0.052707683 0.020793704 0.058984052 0.008733796 0.05087083 0.04421323 0.08223699
-0.043453276 0.085283145 0.0038330017 -0.0653172 0.027749185 0.018123107 -0.03978243 0.06748973
-0.02789357 0.024942277 -0.04093816 0.05447872 -0.076515265 0.012917826 0.04445189 0.033455174
-0.019531349 -0.063424 0.06373999 -0.102515645 -0.053203933 -0.022780221 0.011495884 0.05181716
0.019174071 0.055433292 -0.1030194 -0.023617554 -0.0005028268 0.028808737 0.026167186 -0.06100919
-0.08103402 0.059490427 0.01219871 0.0035782822 0.056519266 0.09590044 -0.030352745 0.042299937
0.06773811 0.004078872 -0.088466965 -0.085717075 0.006908145 0.099416606 -0.006325797 -0.010754631
-0.060731214 -0.035906743 0.057720236 -0.03103857 0.06814742 -0.074524194 -0.008315504 0.006927063
0.008361455 -0.06345488 -0.04219045 -0.03798865 -0.05311044 -0.043571286 0.053863827 -0.054916345
-0.07180446 0.02557728 -0.06796751 -0.09125093 0.0062366235 -0.04562386 0.00931616 0.06267708
-0.09201585 0.07163691 0.054668486 -0.09018747 0.0014723018 0.007227145 -0.068582594 0.028920276
-0.07689892 -0.06590452 -0.05852834 -0.07614853 0.0038553593 0.00054424006 -0.010452432 -0.02150298
0.035469748 0.065673575 0.00443281 -0.014122934 -0.09003344 -0.054154404 0.043037217 -0.06999678
0.013113944 -0.07329539 0.0931053 0.044025775 0.07319818 0.015420425 0.0774934 -0.068528146

rnn.bias_ih_l0 f4 [384]
00000000: 49f2 e83c 109a 6fbd 6486 3bbc 91a2 57bd
00000010: 761d c6bd 3206 9fbd 23b5 2d3d 3208 4b3d
00000020: 2ca0 5bbd 90fa 793d 5a5c 263d c4c8 36bd
00000030: a1b4 d43a 567e 883c 228a 1f3d 2708 033c
00000040: 9856 c7bd 4799 2d3d 29ea 543d c261 7d3d
00000050: 8bb4 1cbd 935d a63c 6efa 103d 083e ce3c
00000060: 2529 ae3c f296 093c 8644 8fbd d677 cc3c
00000070: 51fa e43c 9302 ae3d 3612 0f3c 5c6d 32bd
00000080: 781c 833d 650d c43c b16f a93c dd0f ba3b
00000090: 8654 0a3c f9fb 18bd 315a 86bd 2b56 b9bd
000000a0: f20e 1dbd 3682 be3d 37f2 88bc b475 813d
000000b0: a0ca 923d 28bd 98bd 0008 a73c eb73 8e3d
000000c0: a981 abbc d2f6 8ebd 5d27 053c bae2 8fbd
000000d0: 57db c8bc 7972 dcbc eb1a 54bd 7aa6 4cbc
000000e0: 0992 713d 3c42 bebd 268e 55bc 7f76 0dbd
000000f0: e835 11bd 21eb 1a3d 8027 dbbc 233a 483c
00000100: a38b 8e3c eb1d 64bc ec0c abbd 1423 8f3d
00000110: b477 a33d 361d d3bc d680 0b3d bcef 813d
00000120: 5c9c 1fbd 798d 863c 11c7 29bd fd96 553c
00000130: 6836 28ba c5ef a8bd 4d60 f43b d312 ef3c
00000140: 72f6 98bd 0fdf ad3d 862d 9b3c 8ea2 4c3c
00000150: bcce 97bd 642b 2a3d 4982 283c 04ae 373d
00000160: 7a2b 35bc 21bd bcbd 3919 d0bc 716d 89bc
00000170: 451d e83c 5401 c1bd bb2a 27bc 9769 3bbd
00000180: 70fd 7b3d 12e4 1c3d 8c90 85bd d59b a53d
00000190: 9eb9 0ebd 453e 67bd 08bb b1bd 239b dc3c
000001a0: 5435 67bb 3eda 223c 468d a73d 0f41 fc3c
000001b0: 89b6 ebbc b355 b1bd 86a4 cd3c 04e3 4cbd
000001c0: 3b59 e13a e414 c8bb a5a3 563d c8c9 813d
000001d0: f77a 31bd a33f c3bc fbc2 72bd aea5 163d
000001e0: 4b28 263d 4ef5 793d ed56 88bd dc89 e1bc
000001f0: ef3b 51bd 0764 44bd c85a f2bc 6cc8 77bd
00000200: 2745 8fbc 60a0 47bd c095 273d 30a7 2bbd
00000210: 54af 2a3d a948 59bc 8d45 e53c 5859 993d
00000220: d9f5 863d e744 823d 7019 a23d a251 35bd
00000230: 5d49 863d aeab 9bbd 678a a23d 3273 853d
00000240: 3d67 863d 4489 04bd 65c5 90bd 7866 683d
00000250: 1041 503d 4395 643d ea11 5d3c a878 55bd
00000260: 195d 103d 7e0d 003c 08a6 c7bc 6650 023d
00000270: 0b23 47bd c232 a0bc e639 a23d eb3b ad3d
00000280: ca38 10bd 0ab7 a2bd 736d 7abd 8be4 983d
00000290: 7c97 833d 5b26 223d 448e 363d a9d1 1e3d
000002a0: 0ed2 033d 0af8 9cbd 56ec 7f3d 33ff 743d
000002b0: 73d7 cc3c adc8 8dbd 9003 c03d ce38 9f3d
000002c0: fd5f a93d 1a7c 973b 93a5 f8bb 98b6 c73d
000002d0: ac9f 83bc c7e3 bfbc 00ed 6b3d 3790 d1bc
000002e0: d231 143d d1e9 273d 48b3 c03d 9c59 5cbc
000002f0: 6840 283d 7beb 9cbd 5faf 8dbd 99aa bb3d
00000300: ec02 a83b efad 87bd a387 cfba 5078 863c
00000310: 8f48 a93d b9f5 933d f17e 0abd d84c a7bc
00000320: 6025 08bd d153 57bc b1dd c8ba 298a e63c
00000330: 0208 b33d b621 debc 1eb1 6cbb 6dfc 5dbd
00000340: bc78 423d 1d69 e53c a139 863d fb52 603b
00000350: 550c 7bbd e9ad a13d e9ea aabd 1b02 44bc
00000360: 8855 553d 8597 15bd 798e ea3c ddda 88bc
00000370: 05e1 a03d c840 c23c 3abc 88bd 6697 ae3d
00000380: 9acb 453b 5ce1 eebc 061a b13d 13b7 923c
00000390: 0ad2 27bd d39c 983c 7acf dcbc 71b9 8dbd
000003a0: cb3f 5f3d 083a c8bc 1230 0dbd 75a6 8d3d
000003b0: 232b a13d 1f32 043c 2b3b 943d 82ee 7bbd
000003c0: 55bf 56bc ac08 c23d 2cd5 c63d e468 9fbd
000003d0: 55e5 eabc c80a a9bd fce5 56bd 28aa e63c
000003e0: 3869 3e3d 97ab 11bc 0c3f 3dbd 5a6c 65bd
000003f0: 2cb6 f9bb e7e1 8cbc 39a9 b1bb 746e c63c
0.028435843 -0.058496535 -0.011445615 -0.05264527 -0.09673588 -0.077648535 0.042409074 0.049568363
-0.05361955 0.06102997 0.040615417 -0.04462506 0.0016228148 0.016661804 0.038950093 0.007997549
-0.09733313 0.042382505 0.051981125 0.061860807 -0.038258117 0.020308292 0.03539508 0.025176063
0.021259854 0.008397805 -0.06995492 0.024959486 0.027951391 0.08496585 0.008732369 -0.043561324
0.06401914 0.023932168 0.020683141 0.0056781606 0.0084430035 -0.037349675 -0.065601714 -0.09049638
-0.03834433 0.093021795 -0.01671706 0.06321278 0.07167554 -0.07457954 0.020389557 0.06955703
-0.02093585 -0.06980671 0.008127061 -0.070256665 -0.024518652 -0.026910054 -0.051783483 -0.012490863
0.05897716 -0.09289977 -0.013034379 -0.034536835 -0.0354518 0.037821893 -0.026752234 0.012220892
0.017400568 -0.013923149 -0.08352074 0.069891125 0.07981816 -0.025770765 0.034058414 0.06344554
-0.038967475 0.016424881 -0.04144961 0.013036487 -0.00064167986 -0.082488574 0.007457769 0.02918378
-0.07468881 0.08489811 0.018942606 0.012489928 -0.07412478 0.041545287 0.010284969 0.04484369
-0.011057729 -0.09215761 -0.025402652 -0.016775819 0.02833427 -0.094240814 -0.010203059 -0.045754995
0.061520994 0.038303442 -0.06521711 0.08086363 -0.034844987 -0.05645587 -0.086782515 0.026929444
-0.0035279589 0.009939728 0.08181243 0.030792741 -0.028773563 -0.08658924 0.025102865 -0.050021186
0.001719273 -0.006106006 0.052402157 0.06337315 -0.04333016 -0.023834055 -0.05926798 0.0367791
0.04056577 0.061024956 -0.06657205 -0.027531557 -0.051082548 -0.047946956 -0.029584303 -0.06049387
-0.01748903 -0.04873693 0.040914297 -0.04190749 0.041671112 -0.013261952 0.027987266 0.07487744
0.065898605 0.06360798 0.07915008 -0.044267304 0.06556962 -0.07601105 0.079365544 0.065161124
0.0656266 -0.03235747 -0.070689 0.056738347 0.0508433 0.05580641 0.013493041 -0.05211702
0.035245035 0.007815717 -0.024371162 0.031814955 -0.048617404 -0.019555453 0.079211995 0.08458694
-0.03521041 -0.07945068 -0.061139535 0.07465466 0.06425378 0.03958736 0.04456927 0.038774166
0.032182746 -0.07664497 0.062481247 0.05981369 0.025005078 -0.069230415 0.093756795 0.077745065
0.082702614 0.0046229484 -0.0075880974 0.09751624 -0.016067348 -0.023424042 0.057599068 -0.025581462
0.036180325 0.04099447 0.09409195 -0.013449099 0.041077048 -0.07662102 -0.06918215 0.09163398
0.0051273014 -0.06624972 -0.001583327 0.016414791 0.082657926 0.07224602 -0.033812467 -0.020422384
-0.03323877 -0.013142542 -0.0015324858 0.028142052 0.08741762 -0.027115684 -0.0036116312 -0.05419581
0.047478423 0.028004223 0.065539606 0.0034229148 -0.061291058 0.07894499 -0.08345587 -0.011963393
0.052083522 -0.036521453 0.02863239 -0.016705925 0.07855419 0.02371253 -0.06676526 0.08524971
0.003018117 -0.029160194 0.08647542 0.017909562 -0.040971793 0.018629467 -0.026954401 -0.06920136
0.054504197 -0.024441734 -0.03446967 0.06916515 0.07869556 0.00806859 0.07237848 -0.061506756
-0.013107141 0.0947431 0.09708628 -0.07783678 -0.028673807 -0.082540095 -0.052465424 0.028157309
0.046487063 -0.008891008 -0.046202704 -0.056011535 -0.0076205935 -0.017197562 -0.0054217842 0.02422259

rnn.bias_hh_l0 f4 [384]
00000000: a0cf 96bc 989b 8dbd fb95 4b3d cec9 9b3d
00000010: fcd4 0f3d 1101 f3bc 64d0 143d 444d 06bc
00000020: d0f2 853d d8d0 8e3c 404c 03bd 28d0 b73c
00000030: dac7 2abd 52b6 113d 625c 193d 9085 283d
00000040: 73ab 9cbb eba9 6d3d 15b6 613c c79e 62bd
00000050: 1c7c 31bd e5d4 a5bd 496d ce3c da6b 93bd
00000060: 0ba6 8bbd 8427 8e38 350f 9dbd 7596 823d
00000070: 6348 6bbd cab0 82bd e683 ab3c e6d4 9cbd
00000080: 6484 953d 585f 62bd ecda b5bd 83aa e0bc
00000090: ed51 2abd 4618 fd3c e60c 463d 7b3f 82bd
000000a0: ae6b a0bd 5a90 bfbc d392 aa3c 46ca 373b
000000b0: 0db9 c73c 342f 45bd 5413 e33c 7cb9 4dbd
000000c0: 88c1 273b 4838 8e3d 131d 94bd 0636 4abb
000000d0: 5253 7f3d f590 6dbd 3777 e8bc 16a9 23bd
000000e0: 53da 803c 2194 9cbd f9dd 343d 1c72 423c
000000f0: 0245 20bd 1acd a4bd e3c1 45bd d9be 073d
00000100: c1b4 8f3c ab2d 15bb 2ce3 51bd aec7 663d
00000110: 24be 4abd f6e0 83bd d83b 05bd b421 723d
00000120: f744 863d d7e6 523d 5dcf c4bd 7b6a 1abc
00000130: 8167 cabb 679c 0b3b 4f1d 643d 7cfd 70bd
00000140: 5e2a 003d 539c b73d ff67 a83d 23d2 96bd
00000150: 792d 2c3c 664c a13b c883 9fbd 7d7f 383c
00000160: f305 d23c e01e 56bd 4135 abbc 5a4c 8dbd
00000170: 44bd 17bd dec9 7cbd 72c4 b3bd 9437 6dbd
00000180: ef06 b03d c093 abba 39a9 9ebc e121 09bd
00000190: f322 acbd b72a 5dbc e1f5 43bd a707 483d
000001a0: 3e44 b0bd cfcb 1cbd db1a aebd 3724 20bd
000001b0: fbb9 33bc cb2a 30bd b206 86bd 5d24 71bd
000001c0: fd33 33bc 3b17 d5ba 4455 823d 52bf bfbc
000001d0: 2af7 4a3c a92f da3c 65eb d53b 5d09 ea3c
000001e0: 5b22 85bd e249 88bb 3f4c fabc c719 8cbd
000001f0: 6d6b 8e3d 7f73 de3b 2ebf 3ebd f3f8 1c3c
00000200: 92d1 bbbc 0a27 4b3d befd 50bd 9759 213d
00000210: 57b0 413c c0e7 c83c e719 973c d6b0 40bd
00000220: d969 853d 8872 4cbd 32b7 c53d 7143 753d
00000230: 7806 9dbd e5a9 0d3d 00ba a83d 8eed 073c
00000240: 5fa1 1f3d 2c01 a63d 0571 8b3d d22a e53a
00000250: b993 a6bc 15e3 0b3c f3d1 73bd e656 bc3c
00000260: 4acc 44bd 5074 a53d 1b37 b13d 7998 fd39
00000270: 5fd9 e2bc 642c 75bd 4c6f ce3c e782 f6bc
00000280: 63ca 8f3d 56e9 8dbc 2313 c4bc 437e 993d
00000290: 401c 20bd 30d2 1cbd 33e1 853d c2d3 983d
000002a0: 248e 87bd 2621 17bd 1a3a 34bd 720c 36bd
000002b0: f5b3 b03c 73dd 09bd 21bb 8cbd 205d a7bd
000002c0: 6a25 b23d dfe0 063d e31b d53c ec5f 3d3d
000002d0: 0fbb 043d 4c63 a63d 68c3 31bd b59b b33d
000002e0: 781c 183c 9f25 8dbd ac89 193d f671 7b3d
000002f0: 14d9 283c c088 b0b9 55b6 5c3d cb1c e2bc
00000300: 7d0b 85bc c5a8 113d bf01 18bd b2e9 133b
00000310: bea9 0f3c 9bce fcba 979b 833d 1fc9 45bd
00000320: 2450 613d f0a2 b33d 21fe 83bc ed06 073d
00000330: 00ba 9fbc 2bd0 113d c1bb 9abd 3353 8c3d
00000340: 5b0c 443c cebd 443d abcd 12bd 9870 983d
00000350: d4e3 a73d 1369 ee3b b342 3a3d 1214 eb3a
00000360: b5f4 113d 47df 853d 3a96 da3c 7e35 103d
00000370: 0819 88bc 1d02 8c3d 8243 713d 29ad c33d
00000380: a18a 223d ecd1 89bc fcf8 7a3d fea5 003d
00000390: 0caa 0c3d 10b5 21bc 748c 86bd 7e7b 213d
000003a0: 8a83 10bd e944 4cbd 0cf9 9abd 0f98 c93c
000003b0: bd21 843d 2aae 983d c75d e3bc 3c6c 7fbd
000003c0: 49b6 a23d 25fb 383c 4653 ba3d 3939 cc3b
000003d0: 64fb a13d 7667 da3a bff8 17bd 6758 ac3d
000003e0: 9b4a 133d 30a8 a43d 6196 593d 80d2 903d
000003f0: f49e 13bd 25cc 32bb a0de c4bb 7864 81bc
-0.01840955 -0.06914443 0.04970358 0.076068506 0.035115227 -0.029663594 0.03633155 -0.0081971325
0.065404534 0.017433569 -0.03205514 0.022438124 -0.0416945 0.035574265 0.03744162 0.041143
-0.0047811805 0.058023375 0.013776322 -0.055327203 -0.04333125 -0.08097247 0.025198596 -0.071983054
-0.068187796 6.778448e-05 -0.07668916 0.06376354 -0.05744208 -0.06381376 0.020936918 -0.07657795
0.07300642 -0.055266708 -0.08879647 -0.027425056 -0.041582037 0.030895364 0.048352145 -0.06359764
-0.07833038 -0.023384262 0.020821964 0.0028044148 0.024380231 -0.04814072 0.027719177 -0.05022572
0.0025597531 0.069443285 -0.07232108 -0.0030854954 0.06233532 -0.05799957 -0.028377159 -0.039956175
0.015729105 -0.07645441 0.044157002 0.011868026 -0.03912831 -0.080469325 -0.048280608 0.03314099
0.017542245 -0.0022762816 -0.05124204 0.056342773 -0.04949774 -0.06439392 -0.032527775 0.059114173
0.06556123 0.051489677 -0.09609864 -0.009424801 -0.0061768894 0.002130294 0.055692013 -0.05883549
0.031290404 0.08965363 0.08222961 -0.07364299 0.010508888 0.0049224375 -0.07788807 0.011260864
0.025637602 -0.05227554 -0.020899417 -0.068993285 -0.037045732 -0.061715953 -0.08777703 -0.05791433
0.085950725 -0.0013090298 -0.019367801 -0.033479575 -0.084051035 -0.013498954 -0.04784191 0.048835423
-0.08606766 -0.038280305 -0.08501216 -0.039097037 -0.010969634 -0.04300956 -0.06544246 -0.05887257
-0.010937688 -0.0016257534 0.063639194 -0.023406658 0.01238803 0.026634054 0.0065283054 0.028568918
-0.065006934 -0.004159198 -0.030553935 -0.06840854 0.069540836 0.0067886706 -0.046569042 0.0095808385
-0.02292708 0.049597777 -0.051023237 0.03939208 0.011821828 0.02452457 0.018444968 -0.047043644
0.065143295 -0.049913913 0.09654082 0.05987877 -0.076672494 0.034585852 0.08238602 0.008296384
0.038972255 0.08105692 0.06808666 0.0017484075 -0.020334112 0.008538027 -0.059526395 0.022990655
-0.048046388 0.080788255 0.08653089 0.0004836952 -0.027691541 -0.059856787 0.025199555 -0.030091716
0.07021024 -0.017323177 -0.023934906 0.07494786 -0.03908944 -0.038286388 0.06537094 0.074622646
-0.06618908 -0.036896847 -0.044000722 -0.044445463 0.021570185 -0.033658456 -0.068716295 -0.08172059
0.086985424 0.032929298 0.026014274 0.046234056 0.032404955 0.08124408 -0.043399245 0.08769933
0.009284131 -0.06891941 0.03748481 0.06138798 0.010305662 -0.00033671223 0.053884823 -0.02760162
-0.01624083 0.03556134 -0.03711104 0.0022569713 0.008768497 -0.0019287647 0.06426161 -0.048287507
0.05500807 0.08771312 -0.016112389 0.03296559 -0.019497871 0.035598915 -0.075553425 0.068518065
0.011965836 0.048032574 -0.03584067 0.074433506 0.08197752 0.0072757094 0.045473766 0.0017935059
0.03563376 0.065367274 0.026682962 0.035207264 -0.016613498 0.068363406 0.05890227 0.09554512
0.039682988 -0.016823731 0.061272606 0.031408302 0.034341857 -0.009869829 -0.06569758 0.039424412
-0.035281695 -0.049870405 -0.07567033 0.02460864 0.064517476 0.07455094 -0.027754677 -0.06235908
0.079449244 0.011290346 0.090979144 0.0062324074 0.07909277 0.0016662914 -0.037102457 0.08415299
0.03595982 0.08039892 0.053121928 0.070714 -0.03604026 -0.0027282324 -0.0060079843 -0.015794978
