results/Heartbeat_DLinear_sl_96/2/checkpoint.pth (torch, 124198 bytes, 6 tensors)

Linear_Seasonal.weight f4 [96, 96]
0.01402713 0.0209166 0.022526706 0.0077997036 0.002475425 0.0065271147 0.00285452 0.0044380417
0.010675401 0.017575733 0.021500105 0.021525683 0.0151318535 0.010749252 0.008505746 0.011587305
0.008142705 0.0053339046 0.002535287 0.0047384403 0.006008159 0.012320285 0.018492559 0.01424956
0.011083197 0.01112293 0.009664132 0.008731493 0.00928674 0.018127153 0.017686523 0.015759405
0.018653005 0.018839063 0.013320559 0.010863582 0.01052454 0.011284811 0.012707893 0.008739559
0.0057661976 0.0070974147 0.004950727 0.0041086525 0.005159604 0.004692317 0.015448357 0.006149724
0.001418579 0.011942107 0.005838836 0.0107813785 0.014563227 0.010533198 0.012359257 0.015632538
0.015057063 0.014217863 0.013959627 0.014347997 0.014053829 0.016378691 0.01813257 0.012762035
0.014859328 0.018540772 0.018427536 0.006981748 -0.0034769275 -0.0020082905 0.0008707446 0.0032315147
0.008978971 0.013057928 0.01316551 0.012556679 0.009333824 0.007420084 0.017240359 0.022166431
0.0019551727 0.015891619 0.013039033 0.011777891 0.014866627 0.017518602 0.011877222 0.013280363
0.018131845 0.016965093 0.018364191 0.014718508 0.006769517 -0.0036345746 0.0052097454 0.0057483343
0.005384168 0.0028306749 0.008034265 0.0106049 0.015655855 0.01876343 0.016335752 0.01521945
0.012037493 0.011691157 0.018598564 0.01869874 0.017559461 0.009680912 0.0103221 0.0014013135
0.0071379677 0.004610935 0.0018717567 0.0041633393 0.011446054 0.013529549 0.008167207 0.0074915243
0.018658528 0.0176115 0.01588617 0.018242221 0.022929117 0.014688512 0.013443496 0.011609493
0.013449581 0.0116155315 0.015037857 0.014211162 0.014032187 0.0098057715 0.007997873 0.0066657583
0.0029172625 0.0076037515 0.0038216903 0.003648844 0.007947765 0.00971526 0.016695421 0.011519723
0.002435353 0.0065514054 0.004292028 0.01315223 0.022892106 0.017723525 0.010963449 0.0125136
0.015807686 0.014627798 0.025322981 0.016708583 0.014275147 0.0083094025 0.019556224 0.019534584
0.00668608 0.010997695 0.008834336 0.008863159 0.019140676 0.012696375 0.0041810563 0.0039691157
0.00038917526 0.008317983 0.009942382 0.010122485 0.0142786205 0.014528134 0.0139446035 0.019008284
0.011390822 0.007559108 0.0064116907 0.00881479 0.02174029 0.02081104 0.008535264 0.011767665
0.01497532 0.013044546 0.012534831 0.015300816 0.0106086945 0.0050171707 0.009361004 0.0122607965
0.0089742495 0.025155805 0.019422857 0.017834945 0.012432601 0.009647056 0.009856066 0.007435613
0.0074115563 0.013007011 0.01773247 0.017207785 0.008551304 0.00153767 -0.0013563425 0.0017939488
0.0027626853 0.0085335905 0.013347462 0.0125355255 0.009694933 0.008899204 0.019515956 0.02091697
0.023331963 0.016406795 0.012334259 0.010661451 0.013283933 0.012360635 0.014757659 0.011927517
0.016879361 0.015581052 0.010952537 0.006071207 0.0076018833 0.009092409 0.014927146 0.022073852
0.023484537 0.013731616 0.006078585 0.0020969273 0.0011082807 -0.0010987261 0.009160349 0.02062798
0.020136489 0.024298327 0.02309232 0.023882763 0.023337359 0.021214804 0.018420327 0.018473627
0.0058602337 0.0070674326 0.0029291017 0.0034195688 0.00023062024 0.0016937159 0.0014683473 0.0013735343
00000000: 0cd2 653c 4a59 ab3c ed89 b83c a894 ff3b
00000010: bd3a 223b 68e1 d53b e612 3b3b fe6c 913b
00000020: e1e7 2e3c fcfa 8f3c fd20 b03c a156 b03c
00000030: 98eb 773c a11d 303c af5b 0b3c aed8 3d3c
00000040: fb68 053c 09c8 ae3b 0f27 263b eb44 9b3b
00000050: 17e0 c43b 05db 493c b57d 973c fd76 693c
00000060: 4c96 353c f33c 363c 4f56 1e3c 890e 0f3c
00000070: 6927 183c 657f 943c 54e3 903c de19 813c
00000080: 30ce 983c 6154 9a3c 793e 5a3c 2afd 313c
00000090: 1f6f 2c3c eee3 383c c434 503c 5e30 0f3c
000000a0: 5ff2 bc3b 6e91 e83b b539 a23b e0a1 863b
000000b0: e511 a93b 02c2 993b 1b1b 7d3c a083 c93b
000000c0: 9def b93a d4a8 433c b553 bf3b 61a4 303c
000000d0: 9a9a 6e3c 6f93 2c3c 7b7e 4a3c cf0f 803c
000000e0: e6b1 763c 0af2 683c ebb6 643c dc13 6b3c
000000f0: 0842 663c 9b2c 863c c18a 943c db17 513c
00000100: 8a74 733c d1e2 973c 58f5 963c 26c7 e43b
00000110: 2add 63bb 869d 03bb ae42 643a d2c7 533b
00000120: 891c 133c ebf0 553c 27b4 573c 87ba 4d3c
00000130: e5ec 183c 2d24 f33b a73b 8d3c 6096 b53c
00000140: 5b22 003b 242f 823c aba1 553c 0ef8 403c
00000150: 2793 733c 2c83 8f3c ae98 423c e195 593c
00000160: 3c89 943c 61fa 8a3c 8070 963c e625 713c
00000170: d3d2 dd3b 0b32 6ebb 83b6 aa3b 865c bc3b
00000180: ad6d b03b d882 393b 26a2 033c 2dc0 2d3c
00000190: b540 803c c4b5 993c 8ed2 853c 005b 793c
000001a0: e838 453c 448c 3f3c 045c 983c 1a2e 993c
000001b0: dcd8 8f3c b09c 1e3c 061e 293c 47ac b73a
000001c0: 9de5 e93b 5417 973b bc55 f53a 9f6c 883b
000001d0: 3b88 3b3c 0bab 5d3c c0cf 053c 767b f53b
000001e0: c5d9 983c fe45 903c b723 823c b670 953c
000001f0: d8d5 bb3c 16a8 703c 1c42 5c3c be35 3e3c
00000200: a25b 5c3c 124f 3e3c 5861 763c efd5 683c
00000210: 42e7 653c 63a8 203c 8309 033c 6f6c da3b
00000220: 8b2f 3f3b e428 f93b 5375 7a3b 7221 6f3b
00000230: 5837 023c c12c 1f3c d6c4 883c 38bd 3c3c
00000240: 719a 1f3b 2cad d63b 24a4 8c3b 737c 573c
00000250: 3a88 bb3c ed30 913c 0aa0 333c d805 4d3c
00000260: 1f7f 813c 6fa9 6f3c 2472 cf3c 70e0 883c
00000270: 4ee2 693c 2924 083c 6034 a03c fe06 a03c
00000280: e716 db3b ad2f 343c e4bd 103c c936 113c
00000290: e8cc 9c3c 7504 503c 3e01 893b 5b0f 823b
000002a0: 380a cc39 2648 083c 5fe5 223c c8d8 253c
000002b0: e0f0 693c 6907 6e3c e877 643c 43b7 9b3c
000002c0: 92a0 3a3c 65b2 f73b 2919 d23b e96b 103c
000002d0: b118 b23c ea7b aa3c 7ed7 0b3c 2acd 403c
000002e0: 0b5b 753c cbb8 553c e45e 4d3c 46b0 7a3c
000002f0: 17d0 2d3c 1467 a43b e65e 193c 82e1 483c
00000300: bb08 133c 8c13 ce3c af1c 9f3c 971a 923c
00000310: 1cb2 4b3c b00e 1e3c 567b 213c 71a6 f33b
00000320: a4dc f23b 5c1b 553c af43 913c 57f7 8c3c
00000330: c51a 0c3c a58b c93a 4dc7 b1ba ef22 eb3a
00000340: 2b0e 353b 79d0 0b3c 50af 5a3c ce61 4d3c
00000350: 7fd7 1e3c f8cd 113c eddf 9f3c 115a ab3c
00000360: ac22 bf3c 8b67 863c a215 4a3c 5ead 2e3c
00000370: daa4 593c 4384 4a3c 1cca 713c a26b 433c
00000380: 9646 8a3c ab47 7f3c 4572 333c faf0 c63b
00000390: 3819 f93b 54f8 143c fd90 743c 39d4 b43c
000003a0: a562 c03c 92fa 603c de2e c73b 9a6c 093b
000003b0: bb43 913a 2103 90ba 4a15 163c 02fc a83c
000003c0: 47f5 a43c 490d c73c 1b2c bd3c c9a5 c33c
000003d0: fd2d bf3c abca ad3c 3ae6 963c 0156 973c
000003e0: 3407 c03b ec95 e73b 2cf6 3f3b d81a 603b
000003f0: a6d2 7139 adff dd3a 8f75 c03a 2a08 b43a

Linear_Seasonal.bias f4 [96]
-0.057615977 0.09598473 -0.05651728 0.043412175 0.0443434 -0.00053346646 -0.08114484 0.1022123
-0.07037543 -0.09232937 0.021030342 -0.016045187 -0.098101474 0.065757625 0.054531537 -0.09533448
0.014345767 -0.0035938239 -0.012408356 0.05386712 -0.076617785 0.050379176 -0.037096236 -0.083917886
-0.06474555 -0.078939885 0.0659023 0.0044097984 0.0564939 0.013242084 0.0069625727 0.08362256
-0.055826448 0.014325818 -0.06616553 -0.035995595 -0.07078623 -0.024318617 -0.08353196 0.0797945
-0.027556812 0.0017028566 -0.029320385 0.021304661 -0.08685219 -0.024347428 0.034680583 -0.07829876
0.10265634 0.015295821 0.07394204 -0.049456768 -0.028912324 0.0057786293 -0.05831727 0.0758506
0.048781134 -0.077963896 -0.08285244 -0.07756584 0.06711367 0.041664347 0.015356678 -0.051460944
0.038515396 0.047149412 0.10372225 0.07030606 -0.009659695 -0.10153537 0.051978346 -0.04201969
-0.005934688 -0.037444737 -0.07382633 0.039851334 -0.08818423 0.022821434 -0.040067594 -0.088334
-0.03670503 -0.079271734 -0.095842764 -0.031363044 -0.07904119 -0.01768678 0.06688675 0.07695221
0.06739507 -0.047425754 0.022048736 0.0035544964 0.0012803314 -0.07170237 -0.08969857 -0.055179913
00000000: bbfe 6bbd a493 c43d aa7e 67bd f7d0 313d
00000010: 6da1 353d 54d8 0bba 442f a6bd af54 d13d
00000020: fe20 90bd 2e17 bdbd d347 ac3c 3271 83bc
00000030: 6de9 c8bd efab 863d 765c 5f3d b93e c3bd
00000040: 820a 6b3c 5c86 6bbb 6b4c 4bbc c5a3 5c3d
00000050: c9e9 9cbd 655a 4e3d 39f2 17bd 24dd abbd
00000060: 5199 84bd 3cab a1bd c9f7 863d 1280 903b
00000070: 2666 673d 53f5 583c 4b26 e43b 4e42 ab3d
00000080: 46aa 64bd d6b6 6a3c cb81 87bd 1e70 13bd
00000090: 5ff8 90bd d637 c7bc ce12 abbd 4c6b a33d
000000a0: d3be e1bc 6332 df3a 4e31 f0bc 1d87 ae3c
000000b0: 90df b1bd 4274 c7bc 3a0d 0e3d 1a5b a0bd
000000c0: 7d3d d23d 539b 7a3c ed6e 973d 2e93 4abd
000000d0: 8ad9 ecbc a85a bd3b 17de 6ebd 8f57 9b3d
000000e0: bace 473d 89ab 9fbd 8aae a9bd d7da 9ebd
000000f0: e472 893d 3ca8 2a3d 939a 7b3c b6c8 52bd
00000100: 52c2 1d3d be1f 413d 556c d43d a0fc 8f3d
00000110: b343 1ebc c7f1 cfbd 3fe7 543d d71c 2cbd
00000120: c577 c2bb a75f 19bd 4232 97bd 273b 233d
00000130: ef99 b4bd 04f4 ba3c eb1d 24bd 75e8 b4bd
00000140: 0358 16bd 3859 a2bd 3649 c4bd 8976 00bd
00000150: 59e0 a1bd dee3 90bc ecfb 883d 1f99 9d3d
00000160: 6d06 8a3d 8241 42bd 8d9f b43c 8ef2 683b
00000170: cbd0 a73a b1d8 92bd e2b3 b7bd 5504 62bd

Linear_Trend.weight f4 [96, 96]
0.0012228657 0.000987037 0.00069329096 0.00035194476 3.2657576e-05 -0.0003983792 -0.0010495087 -0.0017670554
-0.0023513336 -0.0027167287 -0.0030046478 -0.0034775638 -0.0037470425 -0.0035450668 -0.0030819816 -0.0028870644
-0.0027421112 -0.0024477812 -0.0022146888 -0.0017159252 -0.0012551903 -0.0010115176 -0.0010553255 -0.0009391863
-0.000569704 -0.00031059628 -0.0002997438 -0.00043015386 -0.00059953233 -0.00048651826 -0.0003502871 -0.00015959665
-2.2992546e-05 0.00012628853 0.00021439763 0.00015301278 9.7522214e-05 2.7515005e-05 -0.00037924305 -0.00093929184
-0.0013950402 -0.0016115666 -0.0016580827 -0.0016003513 -0.0015086797 -0.0015827337 -0.0017144565 -0.0017416052
-0.0018660688 -0.0022423454 -0.0023109533 -0.0022731614 -0.0020977329 -0.0013756221 -0.00063082005 -0.00053855864
-0.0009741311 -0.001347329 -0.0012653163 -0.0012868941 -0.0012461237 -0.0008964569 -0.00062644685 -0.0005052746
-0.0005637773 -0.0006350625 -0.00023751931 -2.5862142e-05 -0.00041477612 -0.00040042994 -0.0002067947 -3.7144848e-05
0.00030587998 0.0004729604 0.0003824196 9.8999495e-05 0.00010684593 -4.8889913e-05 -0.00082088663 -0.0016701305
-0.0017853824 -0.0016262153 -0.0012045858 -0.0010854646 -0.0010896731 -0.0012028391 -0.0014698531 -0.0016804034
-0.0015626489 -0.0014699613 -0.0014160568 -0.001753742 -0.0020726135 -0.001786674 -0.0019775978 -0.0024624548
0.0046641 0.004469732 0.0042748894 0.0040225233 0.0038501602 0.00356254 0.0032275193 0.0031468966
0.0031948674 0.003283387 0.0032017666 0.003248189 0.0036200078 0.0051813866 0.006304973 0.006887582
0.0068213516 0.0064495625 0.0061858394 0.006035972 0.0059119626 0.005991016 0.00607918 0.0060060294
0.0058703837 0.005554333 0.0053884233 0.0049600787 0.0045359368 0.0042673843 0.0039742216 0.0037683225
0.0036450068 0.0035773315 0.0036146012 0.0036843535 0.0033797708 0.002889386 0.0021449497 0.0013744567
0.000745076 0.00052083744 0.00042633555 0.000402809 0.0006232007 0.000807736 0.0011295347 0.0011237328
0.00094205205 0.00078318175 0.0013992242 0.002017698 0.0020996304 0.0025665886 0.0027516375 0.0028705383
0.0032302483 0.0031842084 0.0026955744 0.001988712 0.0015491835 0.0016772598 0.0018221325 0.0020098507
0.002080648 0.0019446968 0.0020003938 0.0021671008 0.0024234152 0.00263274 0.0026801315 0.0026140069
0.0028531835 0.0030046355 0.003019597 0.0028961136 0.0029022912 0.0029236865 0.0029215661 0.0031258534
0.0033079055 0.0031152985 0.0031150605 0.0036782832 0.0047520315 0.005890342 0.0069144233 0.007826062
0.008693484 0.009225312 0.009730562 0.0101405205 0.0103001045 0.010647827 0.012273464 0.014273463
0.0043967143 0.0040006265 0.0034634084 0.0030595604 0.0007894756 0.00075957953 0.0007497884 0.0006355527
0.0005802181 0.0006583906 0.00096231257 0.0012696232 0.0014678903 0.0017081581 0.0017186205 0.0013672394
0.0009145916 0.00074853835 0.00079833745 0.0008466741 0.001225784 0.0015655903 0.0015454979 0.0014952902
0.0015420307 0.0018452883 0.0022164613 0.0026617171 0.0030571574 0.003286339 0.0032827957 0.0031394053
0.0029471833 0.002724744 0.0026902976 0.0028258031 0.0029965 0.0030825662 0.0030260934 0.0029316305
0.0029620053 0.0030493864 0.0031092332 0.0031401878 0.0030127857 0.0027842838 0.0024762934 0.0023280978
0.0021379623 0.0020296904 0.0018189505 0.0015392993 0.001510651 0.0017471872 0.0020190983 0.0020160927
0.0018657953 0.0018807636 0.0021838841 0.0023678043 0.0021163148 0.0018527474 0.0017832154 0.0017950017
00000000: 9048 a03a 775f 813a f8bd 353a 3a85 b839
00000010: cef9 0838 8ddd d0b9 ab8f 89ba 8a9c e7ba
00000020: d518 1abb 250b 32bb a0e9 44bb d7e7 63bb
00000030: f190 75bb 5a54 68bb 12fb 49bb e734 3dbb
00000040: feb4 33bb f46a 20bb 5024 11bb e5e8 e0ba
00000050: 3385 a4ba e694 84ba d952 8aba ba33 76ba
00000060: 3058 15ba 87d7 a2b9 ef26 9db9 4686 e1b9
00000070: ef29 1dba 6013 ffb9 bda6 b7b9 6659 27b9
00000080: 1ee0 c0b7 526c 0439 edcf 6039 0e72 2039
00000090: d784 cc38 06d0 e637 24d5 c6b9 cf3a 76ba
000000a0: c8d9 b6ba 343b d3ba 0654 d9ba e1c2 d1ba
000000b0: e4be c5ba bb73 cfba 9db7 e0ba 9346 e4ba
000000c0: e196 f4ba 50f4 12bb 5d73 17bb 52f9 14bb
000000d0: 1e7a 09bb 384e b4ba 9e5d 25ba 0f2e 0dba
000000e0: d55c 7fba dc98 b0ba f8d8 a5ba 00ad a8ba
000000f0: f954 a3ba 3400 6bba 2338 24ba 6874 04ba
00000100: 74ca 13ba 537a 26ba 9b0e 79b9 87f2 d8b7
00000110: 4f76 d9b9 ccf0 d1b9 08d7 58b9 facb 1bb8
00000120: 845e a039 acf7 f739 7d7f c839 f39d cf38
00000130: 7912 e038 250f 4db8 c530 57ba 48e8 daba
00000140: 7e03 eaba bb26 d5ba 31e3 9dba 2646 8eba
00000150: 5dd3 8eba 95a8 9dba 16a8 c0ba fb40 dcba
00000160: ccd1 ccba b7ab c0ba fb9a b9ba d1dd e5ba
00000170: afd4 07bb d52e eaba 969a 01bb 2361 21bb
00000180: 4ed5 983b d476 923b 5f14 8c3b 5fcf 833b
00000190: f852 7c3b 8179 693b ca84 533b 2a3c 4e3b
000001a0: fb60 513b 182e 573b bbd4 513b 92df 543b
000001b0: a73d 6d3b 9fc8 a93b f299 ce3b 3ab1 e13b
000001c0: a585 df3b da56 d33b 95b2 ca3b 67c9 c53b
000001d0: 23b9 c13b 4950 c43b dc33 c73b 3ace c43b
000001e0: 595c c03b 1f01 b63b 5f91 b03b 2888 a23b
000001f0: 32a2 943b 6ad5 8b3b 303a 823b f6f5 763b
00000200: 11e1 6e3b aa71 6a3b f2e2 6c3b 3275 713b
00000210: 257f 5d3b da5b 3d3b 4992 0c3b 1d27 b43a
00000220: 3451 433a cf88 083a ca85 df39 1c30 d339
00000230: 4b5e 233a 3fbe 533a e50c 943a 374a 933a
00000240: 0bf4 763a 704e 4d3a 2c66 b73a 5b3b 043b
00000250: f499 093b 3634 283b d154 343b a41f 3c3b
00000260: 93b2 533b 27ae 503b 3ca8 303b 0d55 023b
00000270: f90d cb3a 80d7 db3a 9fd4 ee3a b3b7 033b
00000280: 7b5b 083b 32e5 fe3a 0a19 033b eb05 0e3b
00000290: 29d2 1e3b 0c8a 2c3b 25a5 2f3b c24f 2b3b
000002a0: 7afc 3a3b 6be9 443b 6ee4 453b b9cc 3d3b
000002b0: 5e34 3e3b 529b 3f3b bf77 3f3b 1edb 4c3b
000002c0: 72c9 583b 092a 4c3b 0b26 4c3b 5a0f 713b
000002d0: eeb6 9b3b c503 c13b 6392 e23b e238 003c
000002e0: 1d6f 0e3c c325 173c ef6c 1f3c 6d24 263c
000002f0: c5c1 283c 3974 2e3c a416 493c 3edb 693c
00000300: 5012 903b b017 833b 5afa 623b e882 483b
00000310: d0f4 4e3a 851e 473a 738d 443a 389b 263a
00000320: c719 183a d897 2c3a b443 7c3a 7c69 a63a
00000330: 3a66 c03a 46e4 df3a 5643 e13a f134 b33a
00000340: 34c1 6f3a 8f39 443a 8547 513a 56f3 5d3a
00000350: 7caa a03a 7e34 cd3a 4e92 ca3a 9dfd c33a
00000360: f71d ca3a 9add f13a 0d42 113b 3470 2e3b
00000370: 975a 483b 9f5f 573b 2c24 573b 7bbe 4d3b
00000380: 8825 413b 9e91 323b b44f 303b 1c31 393b
00000390: ee60 443b e104 4a3b 6c51 463b 9920 403b
000003a0: 341e 423b 37d8 473b 47c4 4b3b 9ccb 4d3b
000003b0: 2872 453b 8878 363b 4f49 223b 0093 183b
000003c0: 0e1d 0c3b 8e04 053b da69 ee3a 50c2 c93a
000003d0: 0901 c63a e001 e53a d952 043b 6c20 043b
000003e0: b48d f43a f483 f63a 7f1f 0f3b 2a2d 1b3b
000003f0: dfb1 0a3b e3d7 f23a c8ba e93a 4346 eb3a

Linear_Trend.bias f4 [96]
-0.08780013 -0.0364164 -0.065312944 -0.07962262 0.069072805 -0.08709281 -0.018508097 -0.0009385795
-0.01774436 -0.08189766 0.056011703 0.07029264 -0.06734191 -0.08939212 0.049617887 -0.038537435
-0.013529358 -0.04089655 0.09545352 -0.08671686 -0.06737613 -0.025093863 0.03689062 -0.021385219
-0.022765355 -0.04547319 -0.038223818 -0.0038032688 0.04629801 0.081431545 0.048172675 0.0026747042
0.061334353 -0.059807684 -0.04016406 0.05131661 -0.089768425 -0.096755914 0.073348865 0.074615434
0.0057315673 0.06879945 -0.096313626 0.039637566 -0.014242419 -0.010660491 0.068694 0.002834853
0.037369262 0.04148448 -0.07300303 -0.0140908295 -0.085184924 0.010908834 -0.07013379 -0.091250695
0.011115815 -0.0056440025 0.07537523 -0.015484798 -0.05135012 -0.065207906 -0.077905424 -0.09598624
0.060599387 -0.041264698 0.04140542 -0.084788695 0.064382404 0.077407 -0.043593537 -0.06674015
0.06838333 -0.034009103 0.025633514 -0.051332634 0.022708276 -0.060472135 0.019955572 0.09942041
-0.020533273 -0.058938365 0.045016702 -0.03807527 0.011444049 -0.07071998 0.072522715 0.07870304
-0.070986256 0.0819115 0.022099009 0.061692435 0.035940804 0.093046956 -0.07340383 0.023430573
00000000: 8ed0 b3bd 5d29 15bd cbc2 85bd 2f11 a3bd
00000010: 0b76 8d3d b75d b2bd 4b9e 97bc 010b 76ba
00000020: 9f5c 91bc f6b9 a7bd 876c 653d 96f5 8f3d
00000030: 8eea 89bd 3713 b7bd 203c 4b3d 6ed9 1dbd
00000040: 3eaa 5dbc 2483 27bd 237d c33d 9c98 b1bd
00000050: 7ffc 89bd a591 cdbc 9e1a 173d 0e30 afbc
00000060: 697e babc 1842 3abd 9490 1cbd 4340 79bb
00000070: fba2 3d3d 95c5 a63d b650 453d 174a 2f3b
00000080: bb39 7b3d e7f8 74bd 1283 24bd 5e31 523d
00000090: 82d8 b7bd f727 c6bd ee37 963d facf 983d
000000a0: dfcf bb3b bae6 8c3d 1440 c5bd 005b 223d
000000b0: 0959 69bc 57a9 2ebc 71af 8c3d f1c8 393b
000000c0: 8310 193d a1eb 293d 9d82 95bd 39dd 66bc
000000d0: 6f75 aebd f7ba 323c 4ea2 8fbd a5e1 babd
000000e0: 1b1f 363c 53f1 b8bb 545e 9a3d f3b3 7dbc
000000f0: 8154 52bd b98b 85bd e18c 9fbd 6f94 c4bd
00000100: 1037 783d 2c05 29bd bb98 293d b2a5 adbd
00000110: ecda 833d 9087 9e3d 238f 32bd 0faf 88bd
00000120: 8f0c 8c3d 214d 0bbd 60fd d13c 2b42 52bd
00000130: b506 ba3c a1b1 77bd de79 a33c ee9c cb3d
00000140: 6535 a8bc 5b69 71bd 6f63 383d d0f4 1bbd
00000150: d27f 3b3c a3d5 90bd ca86 943d 0f2f a13d
00000160: 3e61 91bd 37c1 a73d fb08 b53c 35b1 7c3d
00000170: aa36 133d 678f be3d bf54 96bd 79f1 bf3c

projection.weight f4 [2, 5856]
-0.0074069267 0.012027512 0.007740269 -0.008267512 -0.012010731 0.0063887956 -0.0024843726 0.011953432
-0.011959401 -0.0015072736 0.008526068 -0.0076826015 -0.005409715 0.010230403 0.00557226 -0.009787358
-0.0040991083 -0.008532619 -0.0016969936 -0.005849011 0.008752703 0.005643695 0.004861055 -0.0063318317
-0.0036255817 0.0030504642 -0.004627678 -0.010877724 -0.002289026 -0.008376305 -0.008354141 -0.009622186
-0.011179486 -0.0076529672 -0.0010359248 -0.012491132 -0.008229124 0.008352606 0.0025019052 0.00025867508
0.009580055 0.0027062253 -0.005492576 -0.014606868 0.0034589532 0.0055646454 -0.008601519 -0.0073551354
0.004459682 -0.0057310592 -0.0030618967 0.0005920511 -0.006680017 0.005304876 0.002691769 0.010343286
-0.0009869775 0.0028203775 0.008261433 0.00283936 0.00074664725 0.0038552189 0.008893655 -0.007420411
0.0072921617 0.0025158317 -0.006331382 0.013159967 -0.008827675 0.013650475 0.010071138 -0.0058838166
-0.00467396 -0.0011068683 -0.006356714 -0.004604627 -0.0049563283 -0.0059263115 -0.011616377 0.007112891
0.0026794455 0.0005686229 -0.01209493 0.003583944 0.007256043 0.0030760828 0.006799326 -0.011480658
0.011389813 -0.002463135 0.001788546 0.0016972367 0.0006675001 0.0059424755 0.015516617 -0.008115161
0.0004847981 0.004767352 -0.0026572056 -0.0039673327 -0.0010587191 -0.0021560949 0.013619909 -0.009555591
-0.003792082 0.005499366 0.007841215 -0.002856291 0.012781144 -0.004246767 0.0011482892 -0.003704069
-0.0018931213 -0.010809487 -0.008247698 -0.00038814795 0.005585786 0.010268792 -0.0074554035 -0.010649558
0.003586428 0.005730783 -0.011446848 -0.0018940229 0.00048008625 0.004532413 0.0016227139 0.0047616386
0.0043049282 -0.008541022 -0.0038194712 1.8123777e-07 0.002534777 0.0051932377 -0.0055240523 -0.013345363
-0.010911811 0.0018775278 0.010596121 0.0030026431 -0.0073107267 -0.0005805874 -0.0017015147 -0.0059328903
-0.008104602 0.0026049512 -0.0054178964 -0.0121303005 0.001062674 0.0026087612 0.005268165 0.0055001196
-0.005971804 -0.0051566954 0.011541861 -0.011257872 -0.006071063 0.0035824152 0.0022254637 -0.007878275
-0.013470273 0.00024301378 -0.0072715166 -0.0041929153 -0.009461272 0.011138692 -0.0046419087 -0.00011968407
0.010469479 0.008680027 0.008521843 0.006966865 -0.013317904 0.006196005 -0.0022112813 -0.0016812416
-0.007086395 -0.0062538045 -0.00057359046 0.0016541483 -0.01301628 -0.0022295723 -0.012358324 -0.001805774
0.013036329 -0.0005653036 0.010921803 -0.009449764 -0.0070129475 0.008172116 -0.01155238 0.014435835
0.009104496 -0.008647219 0.006000063 -0.011112387 -0.0036391902 0.0013937483 -0.0054799626 0.0035277205
0.003189061 0.007025863 -0.0014851054 0.01121445 -0.003019267 -0.0012938966 -0.0010009911 0.006846873
0.008813774 -0.0071514 -0.0054656616 -0.00226476 0.0059644408 -0.0021659348 -0.00081765204 -0.001519022
-0.001027239 0.013395948 0.0015817089 0.010719611 0.011704223 -0.00056599075 0.011612771 0.0021106466
-0.0023954792 0.010450184 -0.0018822037 -0.0059936414 -0.010703764 -0.005343048 0.011672893 -0.005136908
-0.00369429 -0.0060563744 0.00922262 -0.007909628 0.0005708774 -0.011411679 -0.0053205863 -1.2043216e-05
0.0073647294 -0.008876549 0.00488 -0.011313064 0.014377958 0.009554969 0.014327137 0.0027788826
-0.003496107 0.00012929853 0.005233356 -0.010278312 0.015222428 0.011883082 0.0052117975 -0.010740195
00000000: ceb5 f2bb 0b0f 453c 15a2 fd3b 7574 07bc
00000010: a8c8 44bc 1a59 d13b dbd0 22bb 54d8 433c
00000020: 5df1 43bc b68f c5ba ecb0 0b3c 55be fbbb
00000030: fb43 b1bb 6c9d 273c 8197 b63b 285b 20bc
00000040: d051 86bb 66cc 0bbc a86d deba 0fa9 bfbb
00000050: 7f67 0f3c bfee b83b 7c49 9f3b 417b cfbb
00000060: 2b9b 6dbb 4cea 473b c7a3 97bb 7b38 32bc
00000070: 7c03 16bb c53c 09bc cfdf 08bc 60a6 1dbc
00000080: 2a2a 37bc bec5 fabb dec7 87ba 9ba7 4cbc
00000090: 73d3 06bc 5ed9 083c 01f7 233b c89e 8739
000000a0: aaf5 1c3c ed5a 313b 11fb b3bb a551 6fbc
000000b0: 9baf 623b a157 b63b 63ed 0cbc 5903 f1bb
000000c0: 8622 923b 9ccb bbbb 1aaa 48bb e033 1b3a
000000d0: 0be4 dabb 86d4 ad3b 6468 303b e376 293c
000000e0: 785d 81ba 15d6 383b f65a 073c 8e14 3a3b
000000f0: a6ba 433a d7a7 7c3b b1b6 113c eb26 f3bb
00000100: 16f3 ee3b a7e0 243b 7b77 cfbb e79c 573c
00000110: f4a1 10bc 3ea6 5f3c 6a01 253c 08cd c0bb
00000120: 0528 99bb 5614 91ba fb4b d0bb 69e2 96bb
00000130: b268 a2bb 8131 c2bb 9e52 3ebc 4113 e93b
00000140: a399 2f3b a30f 153a d029 46bc 9ae0 6a3b
00000150: 1ac4 ed3b 1b98 493b e1cc de3b 5f19 3cbc
00000160: 579c 3a3c 8c6c 21bb a56d ea3a d075 de3a
00000170: 2cfb 2e3a 19b9 c23b 6939 7e3c 74f5 04bc
00000180: 802c fe39 7237 9c3b 8324 2ebb 6600 82bb
00000190: b8c4 8aba 454d 0dbb 0a26 5f3c 0e8f 1cbc
000001a0: 9484 78bb 0734 b43b 7078 003c 9c30 3bbb
000001b0: 0168 513c 7728 8bbb 3182 963a f7bf 72bb
000001c0: 9c22 f8ba 461a 31bc 5a21 07bc 5680 cbb9
000001d0: f808 b73b 6f3e 283c 754c f4bb 7c7b 2ebc
000001e0: 470a 6b3b 4bc9 bb3b 8f8b 3bbc dd40 f8ba
000001f0: 16b4 fb39 a384 943b 3eb1 d43a 8507 9c3b
00000200: 5b10 8d3b a5ef 0bbc 1850 7abb 429a 4234
00000210: 801e 263b 092c aa3b 1c03 b5bb 82a6 5abc
00000220: 74c7 32bc 6117 f63a 5a9b 2d3c fec7 443b
00000230: d28e efbb 9032 18ba 5c05 dfba b168 c2bb
00000240: 2ac9 04bc d4b7 2a3b 9c88 b1bb 2bbe 46bc
00000250: 6c49 8b3a c0f7 2a3b 92a0 ac3b 593a b43b
00000260: 1faf c3bb 7ff9 a8bb 131a 3d3c f072 38bc
00000270: c5ef c6bb f4c6 6a3b 16d9 113b e113 01bc
00000280: 6cb2 5cbc 84d1 7e39 e745 eebb b964 89bb
00000290: 7303 1bbc 0f7f 363c 271b 98bb e5fe fab8
000002a0: 2d88 2b3c ac36 0e3c 339f 0b3c 4d4a e43b
000002b0: 5733 5abc db07 cb3b 25eb 10bb 1b5d dcba
000002c0: fd34 e8bb b7ec ccbb 015d 16ba 02d0 d83a
000002d0: 3c42 55bc 041e 12bb 917a 4abc b9af ecba
000002e0: 5496 553c e230 14ba 5df1 323c 2fd3 1abc
000002f0: decc e5bb 57e4 053c 3246 3dbc 4884 6c3c
00000300: 062b 153c 11ad 0dbc 2d9c c43b bb10 36bc
00000310: 7b7f 6ebb 6fae b63a 4291 b3bb 5431 673b
00000320: 91ff 503b 3639 e63b dea7 c2ba d0bc 373c
00000330: e5de 45bb f797 a9ba b033 83ba bc5b e03b
00000340: a667 103c 4b56 eabb 4b19 b3bb 5e6c 14bb
00000350: 5b71 c33b 5bf2 0dbb b357 56ba ec19 c7ba
00000360: 6ca4 86ba ae7a 5b3c 5851 cf3a 4fa1 2f3c
00000370: 12c3 3f3c ff5e 14ba 7e43 3e3c c652 0a3b
00000380: 79fd 1cbb 4037 2b3c 47b4 f6ba 4f66 c4bb
00000390: d75e 2fbc bc14 afbb a93f 3f3c 8253 a8bb
000003a0: e71b 72bb 8d74 c6bb 791a 173c 6297 01bc
000003b0: efa6 153a 0df8 3abc 5058 aebb 380d 4ab7
000003c0: d453 f13b f26e 11bc 68e8 9f3b 6e5a 39bc
000003d0: 8791 6b3c 728c 1c3c 5ebc 6a3c ea1d 363b
000003e0: f11e 65bb 4f94 0739 927c ab3b 5d66 28bc
000003f0: 7e67 793c 42b1 423c bac7 aa3b a5f7 2fbc

projection.bias f4 [2]
0.01134103 0.0021525333
00000000: bacf 393c 8411 0d3b
