results/Heartbeat_DLinear_sl_96/3/checkpoint.pth (torch, 124198 bytes, 6 tensors)

Linear_Seasonal.weight f4 [96, 96]
0	0x3c85092c	0.016239725
1	0x3bed00a8	0.0072327442
2	0x3c0e6d49	0.008693048
3	0x3c3828f3	0.011240232
4	0x3c4a5094	0.012348313
5	0x3c48808b	0.012237678
6	0x3c6dda34	0.014517356
7	0x3c510cb5	0.012759377
8	0x3c294b5d	0.010332909
9	0x3bc8499d	0.006112291
10	0x3bac246f	0.0052533667
11	0x3b5ef588	0.003402086
12	0x3b2f2f6f	0.0026731153
13	0x3b97b155	0.004629294
14	0x3c07ef7f	0.008296846
15	0x3c2aa1d8	0.010414563
16	0x3c89058a	0.016726274
17	0x3c77a1a2	0.01511422
18	0x3c7cc3e9	0.015427568
19	0x3c910680	0.017703295
20	0x3c8d5947	0.017254485
21	0x3c86d889	0.016460674
22	0x3c114f77	0.008869044
23	0x3c12ba0c	0.00895549
24	0x3c10ac9d	0.008830217
25	0x3be6146e	0.0070214784
26	0x3bd4ef9e	0.006498291
27	0x3be560d9	0.0070000705
28	0x3bd25804	0.0064191837
29	0x3be15611	0.006876715
30	0x3c258db4	0.010104585
31	0x3c4450dc	0.011982169
32	0x3be14ea5	0.0068758302
33	0x3bbf0778	0.0058297478
34	0x3c2418ed	0.010015708
35	0x3c00c4d6	0.007859429
36	0x3be0823b	0.006851462
37	0x3bdf38c1	0.0068121855
38	0x3c1a80e6	0.009430146
39	0x3c599a7f	0.013281464
40	0x3c72ab62	0.014811369
41	0x3c6dc105	0.0145113515
42	0x3c589391	0.013218776
43	0x3c529095	0.012851854
44	0x3c55c298	0.013046883
45	0x3c341de8	0.010993458
46	0x3c40315d	0.011730519
47	0x3bfe9c87	0.0077701244
48	0x3c1853af	0.0092972955
49	0x3c12b999	0.008955383
50	0x3bea650f	0.0071531604
51	0x3bf50466	0.007477331
52	0x3b11833c	0.0022203466
53	0x3b0472bb	0.0020209986
54	0x3b9b8b99	0.004746866
55	0x3bf5cd21	0.00750126
56	0x3bd2ac17	0.006429206
57	0x3c05ac0d	0.008158696
58	0x3c33fea0	0.010986
59	0x3c152ac1	0.009104432
60	0x3c0b812a	0.008514682
61	0x3ba2cdeb	0.004968395
62	0x3bb33b16	0.00546969
63	0x3c186eea	0.009303788
64	0x3c55d921	0.013052256
65	0x3c3517ad	0.011053008
66	0x3c2eac1c	0.010661151
67	0x3c923dbd	0.017851705
68	0x3ca11fc7	0.019668473
69	0x3c8e17e7	0.017345382
70	0x3c82d034	0.01596842
71	0x3c455e64	0.01204643
72	0x3c1a9f63	0.009437415
73	0x3c3a2f9c	0.01136389
74	0x3c6c4439	0.014420562
75	0x3c5465a4	0.012963686
76	0x3c57d21c	0.013172653
77	0x3c1ad282	0.009449603
78	0x3aa9a751	0.0012943541
79	0x3aabef1b	0.0013117524
80	0x3bce5915	0.0062972405
81	0x3c207f65	0.009795998
82	0x3c35b69f	0.011090904
83	0x3bd661d6	0.0065424247
84	0x3bbe3577	0.0058047133
85	0x3bc1ec98	0.0059180968
86	0x3a9858b0	0.0011623111
87	0x3b74909e	0.0037317644
88	0x3c02e846	0.007989949
89	0x3c0a575a	0.008443678
90	0x3c0dbfee	0.008651717
91	0x3c257964	0.010099743
92	0x3c6b5624	0.014363799
93	0x3c850d76	0.01624177
94	0x3c4cf29a	0.012509013
95	0x3c612de0	0.013743848
96	0x3c04395a	0.008070314
97	0x3c7aa330	0.015297696
98	0x3c8f3901	0.017483236
99	0x3c972ce1	0.018454017
100	0x3c57240d	0.013131154
101	0x3c3f8c99	0.011691236
102	0x3c4f9863	0.012670609
103	0x3c3413d8	0.010991059
104	0x3c091e69	0.008369067
105	0x3c0898aa	0.008337179
106	0x3bb26393	0.005443999
107	0x3be98466	0.007126379
108	0x3bcd5022	0.006265656
109	0x3bdc074c	0.006714737
110	0x3c0582a5	0.008148824
111	0x3c1f532e	0.009724421
112	0x3c0b72b4	0.008511234
113	0x3c3f2a90	0.011667863
114	0x3c6abf6e	0.014327867
115	0x3c3e210b	0.011604558
116	0x3be7abb3	0.0070700287
117	0x3c0eecf8	0.00872349
118	0x3c1e88ec	0.009676199
119	0x3c3be0cb	0.011467169
120	0x3c539eed	0.012916309
121	0x3c138a3c	0.009005126
122	0x3c1532f1	0.009106384
123	0x3c170809	0.009218224
124	0x3c07a0c4	0.008278076
125	0x3b61f576	0.0034478582
126	0x3b90ca89	0.0044186753
127	0x3c1621f4	0.0091633685
128	0x3c11d878	0.008901708
129	0x3c06816d	0.008209568
130	0x3bf23968	0.0073920973
131	0x3c38c449	0.011277267
132	0x3c5c3cf2	0.013442265
133	0x3c65c637	0.014024309
134	0x3c681300	0.014164686
135	0x3c709b55	0.014685472
136	0x3c7db5d3	0.015485245
137	0x3c83d34b	0.016091963
138	0x3c28c3ea	0.010300616
139	0x3c124aa1	0.008928926
140	0x3baa4c45	0.0051970803
141	0x3bba5f0d	0.0056876005
142	0x3c0ef52a	0.008725444
143	0x3c4d89c0	0.012545049
144	0x3c62a8e4	0.013834212
145	0x3c71b1f2	0.014751898
146	0x3c7fdc38	0.015616469
147	0x3c726776	0.014795175
148	0x3c4d4635	0.012528946
149	0x3bff0302	0.007782341
150	0x3ba56e23	0.0050485297
151	0x3b91f047	0.004453692
152	0x3b9f5fa0	0.0048636943
153	0x3bded9da	0.0068008723
154	0x3bda1f3b	0.006656555
155	0x3b839c41	0.0040164297
156	0x3a92d24a	0.0011201587
157	0x3b0dc00c	0.0021629361
158	0x3befcf05	0.00731838
159	0x3bdd0972	0.0067455107
160	0x3c18ee81	0.0093342075
161	0x3c4667a3	0.01210967
162	0x3c76e60d	0.015069497
163	0x3c7af458	0.015317045
164	0x3c8e38e7	0.017361118
165	0x3c876e63	0.016532129
166	0x3c5553db	0.013020481
167	0x3c41deb4	0.011832882
168	0x3c65fc5d	0.014037219
169	0x3c8ffae7	0.017575694
170	0x3c8dbb54	0.01730124
171	0x3c82b0d7	0.015953464
172	0x3c60e747	0.013727016
173	0x3c0b53dc	0.00850388
174	0x3c080fb4	0.008304525
175	0x3c154451	0.009110526
176	0x3c220b93	0.009890455
177	0x3c2cb3fe	0.01054096
178	0x3c6a7c4d	0.014311862
179	0x3c2d7857	0.010587773
180	0x3c00c019	0.0078583
181	0x3bdcd4ac	0.0067392197
182	0x3c02a745	0.0079744505
183	0x3bf1eab2	0.007382714
184	0x3be9e82c	0.0071382727
185	0x3c3be4a6	0.011468088
186	0x3c561683	0.013066891
187	0x3c89f8dc	0.016842298
188	0x3c41df8e	0.011833085
189	0x3c1c6d39	0.009547525
190	0x3bda3d69	0.0066601527
191	0x3c021773	0.007940161
192	0x3b492cc6	0.0030696853
193	0x3c2f9011	0.0107155
194	0x3c90b993	0.017666614
195	0x3c9a470b	0.018832704
196	0x3c90c694	0.017672814
197	0x3c88fc42	0.016721848
198	0x3c5c9225	0.013462578
199	0x3c54ca6d	0.012987715
200	0x3c3c29bb	0.011484559
201	0x3b609eb3	0.003427428
202	0x3b9683a7	0.004593331
203	0x3c041921	0.008062632
204	0x3c0ea01f	0.008705168
205	0x3c5921c9	0.013252684
206	0x3c741a99	0.0148989195
207	0x3c8cf880	0.017208338
208	0x3ca67655	0.020320097
209	0x3c837ae6	0.016049813
210	0x3c4631b6	0.012096813
211	0x3bcd72f8	0.006269809
212	0x3b707153	0.003668864
213	0x3be2df51	0.006923594
214	0x3c2d4390	0.01057519
215	0x3c749544	0.014928166
216	0x3c21082e	0.00982861
217	0x3c0fb94e	0.008772207
218	0x3c1654e9	0.009175518
219	0x3c00a1a9	0.007851043
220	0x3c22dc8e	0.00994028
221	0x3c429e68	0.011878587
222	0x3c627add	0.013823238
223	0x3c44692d	0.0119879665
224	0x3c322dc6	0.010875171
225	0x3c1c34f2	0.0095341075
226	0x3c58793e	0.0132125
227	0x3c735509	0.014851817
228	0x3c2cc09b	0.010543968
229	0x3c472e9b	0.012157108
230	0x3c669bd3	0.014075237
231	0x3c2d0ac5	0.01056165
232	0x3c250f3c	0.010074433
233	0x3c8e00c6	0.017334353
234	0x3c930684	0.017947443
235	0x3c5ffa18	0.013670467
236	0x3c164f20	0.009174138
237	0x3c6de1bd	0.014519152
238	0x3c7dfe1f	0.015502482
239	0x3c5e063f	0.013551294
240	0x3bfe5520	0.0077616125
241	0x3b6d6269	0.0036221987
242	0x3b8db9fe	0.0043251505
243	0x3baa68d0	0.005200483
244	0x3c1219cf	0.008917286
245	0x3c263f02	0.010146858
246	0x3bf62ee3	0.0075129136
247	0x3c15bcc2	0.009139242
248	0x3c17bc5a	0.009261215
249	0x3c0c08bc	0.008547004
250	0x3c2d7bce	0.010588599
251	0x3c560608	0.013062961
252	0x3c8cfe4c	0.017211102
253	0x3c95923f	0.018258212
254	0x3c8f46ba	0.01748978
255	0x3c7ab049	0.015300819

Linear_Seasonal.bias f4 [96]
0	0x3da44964	0.08021811
1	0xbdb5ffd2	-0.088866845
2	0xbbbc639c	-0.005749179
3	0x3cddb2a7	0.027062727
4	0xbd04c17d	-0.032411087
5	0xbcccec5c	-0.025015049
6	0xbd79c76d	-0.060981203
7	0x3d8fc835	0.07020608
8	0x3d43de8d	0.047819663
9	0xbd2e2d79	-0.042523835
10	0x3c9373e7	0.017999602
11	0x3dcab5d1	0.0989796
12	0x3dd78073	0.105225466
13	0xbbe35234	-0.0069372896
14	0xbce6c6ff	-0.02817106
15	0xbd14d52f	-0.03633612
16	0x3d26499a	0.040597536
17	0xbdadd36e	-0.08487593
18	0xbd7a34d2	-0.06108553
19	0x3ccc6d0d	0.024954343
20	0xbcdadba0	-0.026716053
21	0xbbda1ce7	-0.0066562775
22	0x3d1b3aba	0.037897803
23	0x3d54e0c6	0.051972173
24	0x3cc933d6	0.02456085
25	0xbd439751	-0.04775173
26	0xbdbea9e2	-0.09309746
27	0xbda668cb	-0.081254564
28	0x3d4caeaf	0.04997128
29	0xbcc39fe3	-0.02387995
30	0xbd9a7ae6	-0.07542972
31	0xbd5a20a5	-0.05325379
32	0xbdb323a2	-0.08747031
33	0xbbb7b389	-0.005606119
34	0x3d5089d8	0.050912708
35	0x3d38db5d	0.045131076
36	0x3d641649	0.055685315
37	0xbda26add	-0.07930539
38	0xbd465489	-0.048420463
39	0x3d052e08	0.032514602
40	0xbd1e84c4	-0.038700834
41	0xbc85dcf9	-0.01634072
42	0xbdd3f96f	-0.1035031
43	0xbdb7c283	-0.08972647
44	0x3c6c2c62	0.014414879
45	0xbd8e4eba	-0.0694861
46	0xbbea3b4e	-0.007148183
47	0x3ce3c73b	0.027804961
48	0xbdcc0354	-0.09961572
49	0xbd85cfec	-0.065337986
50	0xbd9a7442	-0.07541706
51	0x3d4b97e6	0.04970541
52	0xbdccc139	-0.09997792
53	0xbcb56bb4	-0.022146083
54	0xbd890604	-0.066906005
55	0xbd90f9be	-0.070788845
56	0x3da02056	0.078186676
57	0x3d5febd5	0.054668266
58	0xbd884c4b	-0.06655177
59	0xbdaf3cbc	-0.08556506
60	0x3d816382	0.06317808
61	0x3daeb623	0.085308336
62	0xbc448a8d	-0.011995924
63	0x3dd2ff88	0.10302645
64	0xbd901b43	-0.0703645
65	0xbdb7ec7b	-0.08980652
66	0xbd363846	-0.04448726
67	0x3dd80f56	0.105498
68	0x3dafb6d7	0.08579796
69	0xbdd24fb8	-0.102691114
70	0xbcd1f99d	-0.02563172
71	0x3dbb77e5	0.091537274
72	0xbdb7e502	-0.08979227
73	0xbd0af933	-0.03392906
74	0xbd999c30	-0.075004935
75	0x3c725935	0.014791776
76	0x3c3367c0	0.010950029
77	0xbda2726c	-0.079319805
78	0x3d2c409e	0.04205381
79	0x3c25b5ed	0.010114175
80	0x3da813bf	0.08206891
81	0x3b4e32c2	0.003146336
82	0x3dc86bb6	0.09786169
83	0xbdb3ecd8	-0.08785409
84	0xbd8bb8cd	-0.06822357
85	0x3ccb0d4f	0.02478662
86	0x3d691e3e	0.056913607
87	0xbdc7cb7f	-0.09755611
88	0xbd1e3836	-0.038627826
89	0xbdbe2718	-0.092848
90	0xbd44b0c9	-0.048020158
91	0x3dbd12f3	0.0923213
92	0xbd3d13bd	-0.046161402
93	0x3ceb1ac9	0.028699296
94	0xbd26e7f6	-0.04074856
95	0x3d80ccb2	0.062890425

Linear_Trend.weight f4 [96, 96]
0	0x3c614499	0.013749265
1	0x3c5bb684	0.013410214
2	0x3c57d4c6	0.013173288
3	0x3c55aa57	0.0130411
4	0x3c558f11	0.013034598
5	0x3c549ce7	0.012976862
6	0x3c539c85	0.012915735
7	0x3c553b23	0.013014588
8	0x3c582164	0.013191555
9	0x3c58dbd6	0.013236007
10	0x3c55f369	0.013058522
11	0x3c52bfbd	0.012863097
12	0x3c4eddb1	0.012626098
13	0x3c477b8b	0.012175451
14	0x3c41384d	0.011793208
15	0x3c3ea826	0.011636769
16	0x3c3d3a48	0.01154954
17	0x3c3a297d	0.011362431
18	0x3c35fa2c	0.011107009
19	0x3c32c6af	0.010911628
20	0x3c2ec580	0.010667205
21	0x3c2ae964	0.010431621
22	0x3c293918	0.010328554
23	0x3c28da85	0.010306005
24	0x3c29904c	0.010349344
25	0x3c2b7a66	0.010466194
26	0x3c2e6640	0.0106444955
27	0x3c30419d	0.010757831
28	0x3c3160c7	0.010826296
29	0x3c314791	0.010820285
30	0x3c312731	0.010812567
31	0x3c30d641	0.01079327
32	0x3c302be5	0.010752653
33	0x3c302a50	0.010752276
34	0x3c3111a5	0.010807429
35	0x3c317ce9	0.010833004
36	0x3c31166d	0.010808569
37	0x3c305528	0.01076249
38	0x3c3119ea	0.010809401
39	0x3c321edd	0.010871616
40	0x3c3187b6	0.010835579
41	0x3c30a3be	0.010781227
42	0x3c2fe76b	0.010736327
43	0x3c2fe004	0.010734562
44	0x3c2f36da	0.01069423
45	0x3c2ffb87	0.010741121
46	0x3c328bc3	0.01089758
47	0x3c3402af	0.010986968
48	0x3c349e48	0.011024065
49	0x3c3598d8	0.011083804
50	0x3c371cff	0.011176347
51	0x3c3863a8	0.011254229
52	0x3c39024b	0.011292051
53	0x3c382555	0.011239369
54	0x3c375dcd	0.011191797
55	0x3c37184f	0.011175229
56	0x3c37c412	0.01121618
57	0x3c377c9e	0.011199145
58	0x3c334817	0.0109424805
59	0x3c2e2e07	0.010631091
60	0x3c2dc3c4	0.010605756
61	0x3c2ebd6e	0.010665281
62	0x3c324f58	0.010883175
63	0x3c3540fe	0.011062859
64	0x3c378cdb	0.011203016
65	0x3c3a1a8a	0.0113588665
66	0x3c3a6da7	0.011378682
67	0x3c3a3ae8	0.011366583
68	0x3c3b4ee6	0.011432385
69	0x3c3e984a	0.011632988
70	0x3c3ea014	0.011634845
71	0x3c3beffa	0.011470789
72	0x3c3a4543	0.011369052
73	0x3c385bc4	0.011252347
74	0x3c36d839	0.01115995
75	0x3c372890	0.011179104
76	0x3c3698f0	0.011144862
77	0x3c348e5c	0.011020269
78	0x3c330594	0.010926623
79	0x3c320743	0.010865989
80	0x3c32e55a	0.0109189395
81	0x3c348fb4	0.01102059
82	0x3c34eae4	0.01104233
83	0x3c3744a9	0.011185803
84	0x3c3b9df8	0.011451237
85	0x3c40ef36	0.011775782
86	0x3c464520	0.012101442
87	0x3c4aa5f5	0.012368669
88	0x3c4f2a3b	0.012644346
89	0x3c52f23d	0.012875137
90	0x3c56f971	0.013120995
91	0x3c5ce8bf	0.013483225
92	0x3c63c56e	0.013902051
93	0x3c67f6a0	0.014157921
94	0x3c69ad46	0.014262503
95	0x3c6bf77a	0.014402265
96	0x3c3a7f9a	0.011382962
97	0x3c371f7e	0.011176942
98	0x3c367927	0.011137283
99	0x3c36f1d3	0.011166054
100	0x3c36c781	0.011155964
101	0x3c386b9c	0.011256125
102	0x3c3a2a22	0.011362584
103	0x3c39e52c	0.011346143
104	0x3c3837e4	0.011243794
105	0x3c35d59f	0.0110982945
106	0x3c34389d	0.010999826
107	0x3c338c26	0.010958707
108	0x3c332669	0.010934451
109	0x3c32afe8	0.010906197
110	0x3c3007ce	0.010744048
111	0x3c294612	0.0103316475
112	0x3c2237c9	0.0099009955
113	0x3c1ec41c	0.009690311
114	0x3c1c59e6	0.009542918
115	0x3c1c5cf2	0.009543644
116	0x3c1cf861	0.0095807025
117	0x3c1cb788	0.009565242
118	0x3c1cca56	0.009569725
119	0x3c1def77	0.009639612
120	0x3c207d01	0.009795428
121	0x3c245c67	0.010031796
122	0x3c28f25e	0.010311691
123	0x3c2bb517	0.010480187
124	0x3c2f5d1a	0.0107033495
125	0x3c35cce1	0.01109621
126	0x3c38e5ba	0.01128524
127	0x3c37ab3b	0.011210258
128	0x3c35e6b9	0.011102372
129	0x3c35a77a	0.011087293
130	0x3c37fb38	0.011229329
131	0x3c3c1a2a	0.011480847
132	0x3c4023f6	0.011727324
133	0x3c4505b5	0.012025286
134	0x3c4aa56c	0.012368541
135	0x3c4ecf7a	0.012622708
136	0x3c50f250	0.012753084
137	0x3c50f57f	0.012753843
138	0x3c4f80e6	0.012665009
139	0x3c4d8f8f	0.012546434
140	0x3c4995b1	0.012303756
141	0x3c44f4d3	0.012021261
142	0x3c4155e3	0.011800262
143	0x3c3d61f5	0.011558999
144	0x3c37fd73	0.011229861
145	0x3c31e601	0.01085806
146	0x3c2cefd0	0.010555223
147	0x3c27b43d	0.010235843
148	0x3c233fb9	0.009963923
149	0x3c1c2bec	0.009531956
150	0x3c1370b0	0.008999035
151	0x3c0df9f4	0.0086655505
152	0x3c0e57c5	0.008687918
153	0x3c1062f8	0.0088126585
154	0x3c10ba32	0.008833455
155	0x3c10594a	0.008810351
156	0x3c10acbe	0.008830247
157	0x3c124d97	0.008929632
158	0x3c1463aa	0.009056965
159	0x3c153b07	0.0091083115
160	0x3c15b0d9	0.009136402
161	0x3c15f6db	0.009153093
162	0x3c15899a	0.009127045
163	0x3c1539ff	0.009108066
164	0x3c15c625	0.00914148
165	0x3c17533b	0.009236152
166	0x3c1875ac	0.009305399
167	0x3c198428	0.009369887
168	0x3c19ea4d	0.009394241
169	0x3c1b105f	0.009464352
170	0x3c1c50d5	0.009540756
171	0x3c1ab4f5	0.009442558
172	0x3c18b211	0.009319798
173	0x3c16e75e	0.009210436
174	0x3c161965	0.009161328
175	0x3c1465f7	0.009057513
176	0x3c108270	0.008820161
177	0x3c0b14a2	0.008488806
178	0x3c06343c	0.008191165
179	0x3c0391bd	0.008030352
180	0x3c008e09	0.007846364
181	0x3bf8b5b4	0.00759002
182	0x3bf0af91	0.007345148
183	0x3be8b833	0.0071020364
184	0x3be282e7	0.0069125774
185	0x3be1cad3	0.0068906336
186	0x3be4a47f	0.0069776173
187	0x3be92118	0.007114541
188	0x3bedcfb9	0.0072574285
189	0x3bf0131d	0.007326497
190	0x3bf093d7	0.0073418426
191	0x3bef7e7e	0.00730878
192	0x3b660567	0.0035098435
193	0x3b6740f4	0.0035286518
194	0x3b6cecfa	0.0036151991
195	0x3b793cca	0.0038030618
196	0x3b8470ae	0.004041753
197	0x3b8736f3	0.0041264235
198	0x3b8116a5	0.003939467
199	0x3b60a884	0.003428013
200	0x3b4a0aec	0.0030829264
201	0x3b43a0c4	0.0029850462
202	0x3b4703ca	0.0030367249
203	0x3b4e0127	0.0031433792
204	0x3b46a24c	0.0030309139
205	0x3b3d440b	0.0028879668
206	0x3b37182e	0.0027937996
207	0x3b1dbe4f	0.0024069732
208	0x3af0673a	0.0018341311
209	0x3aae971c	0.0013320181
210	0x3a9643c0	0.0011464283
211	0x3a960b22	0.001144741
212	0x3a9606e0	0.0011446141
213	0x3a96bbc1	0.0011500047
214	0x3aa3267b	0.0012447381
215	0x3ab87b44	0.0014074822
216	0x3ad5b6a3	0.001630504
217	0x3b036d45	0.0020054143
218	0x3b14840e	0.0022661719
219	0x3b18eeb2	0.0023335633
220	0x3b15044e	0.0022738161
221	0x3b11fe38	0.002227677
222	0x3b0dac15	0.0021617461
223	0x3b093285	0.0020934653
224	0x3b07adb3	0.0020702898
225	0x3b0bb9f9	0.0021320565
226	0x3b1278f4	0.0022349926
227	0x3b115997	0.0022178644
228	0x3b072ab3	0.0020624816
229	0x3b04193d	0.0020156645
230	0x3b0e8b1c	0.0021750396
231	0x3b1c1f02	0.0023822193
232	0x3b1cfc5e	0.0023954134
233	0x3b16187f	0.0022902784
234	0x3b0fa559	0.0021918623
235	0x3b04e036	0.0020275242
236	0x3af6dffe	0.0018835065
237	0x3aee9d2d	0.0018204801
238	0x3af00b8d	0.0018313989
239	0x3ae72c4d	0.0017637104
240	0x3ad8fecb	0.0016555426
241	0x3ac44f8a	0.0014977318
242	0x3aa45b25	0.001253937
243	0x3a85e48d	0.0010215208
244	0x3a5d237e	0.00084357697
245	0x3a35aeb7	0.00069306366
246	0x3a13211e	0.000561254
247	0x3a0cf9d0	0.0005377801
248	0x3a3329eb	0.00068345544
249	0x3a5af231	0.00083521294
250	0x3a3fc1b4	0.0007314936
251	0x3a1b2fb0	0.0005919887
252	0x3a0a1ee9	0.0005268888
253	0x3a0bdc9f	0.00053353043
254	0x3a1f550e	0.0006078043
255	0x3a3c337a	0.00071793015

Linear_Trend.bias f4 [96]
0	0x3da6b417	0.08139818
1	0xbda1558d	-0.07877646
2	0xbd26097b	-0.040536385
3	0x3d9a50b3	0.075349234
4	0xbdc6db9e	-0.097098574
5	0x3dcb319c	0.099215716
6	0xbcebc73d	-0.028781528
7	0x3c44f002	0.012020113
8	0x3d8f121c	0.06985876
9	0x3d817422	0.06320979
10	0xbd518aa6	-0.051157616
11	0x3d91d1d6	0.07120101
12	0x3c9acddd	0.018896991
13	0x3a923fe0	0.0011157952
14	0x3c9082d8	0.017640516
15	0xbd3a3cc9	-0.045468125
16	0xbd206f68	-0.039168745
17	0xbdbadcaf	-0.09124123
18	0xbc90788c	-0.017635606
19	0xbdbd228f	-0.09235107
20	0x3d0973ee	0.033557825
21	0x3d82e2e8	0.06390935
22	0xbd63aeaa	-0.055586495
23	0x3d0e1e7b	0.034697037
24	0xbda9d632	-0.08292808
25	0x3d94b489	0.07260997
26	0xbc5ea3fd	-0.013588903
27	0xbc07967d	-0.008275625
28	0xbd1b521c	-0.037920102
29	0x3d9a053a	0.07520528
30	0xbd267e88	-0.040648013
31	0xbdb3ecc3	-0.08785393
32	0x3d5286a3	0.05139793
33	0x3da5b9a0	0.08092046
34	0x3d9fbcf4	0.07799712
35	0xbcb83d8e	-0.022490289
36	0xbd0fd53e	-0.035115473
37	0xbd874627	-0.066051774
38	0xbdd723c5	-0.10504869
39	0x3dcd612c	0.100283
40	0xbdd78185	-0.10522751
41	0xbdc0464e	-0.093884096
42	0x3d937a6e	0.07201086
43	0x3db0a14e	0.086245164
44	0x3d78bbeb	0.060726088
45	0x3d07d5ac	0.033162758
46	0x3bd44fa1	0.006479219
47	0xbdc0723b	-0.09396788
48	0xbd018171	-0.031617586
49	0xbba5d550	-0.005060829
50	0x3cd86c82	0.026418928
51	0x3d21a662	0.039465316
52	0xbd926ede	-0.071500525
53	0xbd8f15b4	-0.069865614
54	0x3d8941c2	0.067019954
55	0xbc51f149	-0.0128138745
56	0x3c010b30	0.007876202
57	0xbd6ae679	-0.057348702
58	0xbc140004	-0.009033207
59	0x3dbfd5e8	0.09366971
60	0xbd614e52	-0.055006333
61	0xbd5b7492	-0.053577967
62	0x3d43120e	0.04762464
63	0xbdb88ecd	-0.09011612
64	0x3cc5a568	0.024126723
65	0x3ca8827b	0.02057003
66	0xbbc1f036	-0.005918528
67	0x3db95e76	0.0905122
68	0xbcd86451	-0.026415022
69	0x3d53994a	0.05165986
70	0x3d895c61	0.06707073
71	0x3cc95a5e	0.024579223
72	0xbdc9a234	-0.09845391
73	0x3ce42f92	0.027854715
74	0xbd003e29	-0.03130928
75	0xbd6fcec6	-0.058546804
76	0x3dc93659	0.09824819
77	0x3acc02ed	0.0015564837
78	0xbc8687e5	-0.016422221
79	0x3dda779d	0.10667346
80	0x3d82a80c	0.06379709
81	0xbd62b736	-0.055350505
82	0x3cb04634	0.02151785
83	0xbcc054e8	-0.023477986
84	0xbd98ea4c	-0.074665636
85	0xbd9b2707	-0.07575803
86	0xbd3dbdec	-0.0463237
87	0xbd4a1c28	-0.04934326
88	0x3d8da348	0.06915909
89	0x3cd165c1	0.025561215
90	0xbc72f103	-0.0148279695
91	0xbd81b05f	-0.06332468
92	0xbc980dbb	-0.018561235
93	0x3dbaf510	0.09128773
94	0x3d86c633	0.06580772
95	0xbd8289e7	-0.06373959

projection.weight f4 [2, 5856]
0	0xbb44f17f	-0.003005117
1	0x3bcd5851	0.0062666317
2	0x3b4f5622	0.0031637033
3	0x3c82843c	0.015932195
4	0xbc04c3c9	-0.008103319
5	0xbb218ae8	-0.0024649445
6	0x3c7913d0	0.015202478
7	0x3c6f6304	0.0146110095
8	0xbaf3a09b	-0.0018587293
9	0xbbe1b19a	-0.006887627
10	0x3bdc542d	0.0067239017
11	0xba6119a7	-0.00085868913
12	0x3c63d3d3	0.013905483
13	0x3c658de0	0.014010876
14	0x3c7d82af	0.015473052
15	0x3bb2ea35	0.0054600486
16	0x3c1f0973	0.009706843
17	0x3c6af680	0.014340997
18	0x3c2414aa	0.010014692
19	0xbc07edb1	-0.008296416
20	0xba6190d4	-0.000860465
21	0x3b8b35d3	0.0042483597
22	0x3c39a417	0.011330626
23	0x3c5ceb4f	0.013483836
24	0x3c509a8a	0.0127321575
25	0x3c033ebd	0.008010563
26	0x3b245a2e	0.0025078165
27	0xbbcf9d8c	-0.0063359197
28	0x3bf17ffe	0.007369994
29	0x3b24f017	0.0025167519
30	0xb8416b39	-4.6114645e-05
31	0x3c47435c	0.012162056
32	0xbb7b0ee3	-0.0038308434
33	0xb9ab9aa5	-0.0003273088
34	0x3c42142a	0.011845628
35	0xbbb81cc9	-0.005618666
36	0xbc0a5c7c	-0.008444902
37	0xbb265960	-0.0025382861
38	0x3b170634	0.0023044469
39	0x3be8f78c	0.007109588
40	0x3bf93ceb	0.007606139
41	0x3c090245	0.0083623575
42	0x3c145b66	0.009054994
43	0xbbea6d1d	-0.0071541206
44	0x3c55a3ba	0.013039524
45	0xba8762ac	-0.0010329089
46	0xbb9f5c13	-0.004863271
47	0xbb0cb78c	-0.0021471707
48	0x3c834e97	0.016028685
49	0xbbc84396	-0.0061115725
50	0x3c67cb1c	0.014147546
51	0x3a2353f2	0.00062304654
52	0xbb6e6575	-0.003637639
53	0x3c479058	0.01218041
54	0x3c3ab3e1	0.011395426
55	0x3be0c2c2	0.0068591544
56	0x3b624e3a	0.003453149
57	0xbbd9c50f	-0.0066458057
58	0xbc0fce82	-0.008777263
59	0xbb349d07	-0.0027559416
60	0xba5c7b34	-0.00084106927
61	0xbab117cc	-0.001351112
62	0x3c168796	0.0091876
63	0x3b294e91	0.0025834183
64	0x3b163553	0.0022919967
65	0xba93b098	-0.0011267839
66	0xbbdce1fc	-0.0067408066
67	0x3b81309a	0.0039425613
68	0x3bbe76ba	0.005812493
69	0xbc0c6d3b	-0.008570964
70	0x3c214f4c	0.009845566
71	0xba9f58b9	-0.0012157179
72	0x3bfc9a0e	0.0077087944
73	0xbb1e001f	-0.002410896
74	0xba27da98	-0.00064031174
75	0x3c3f736f	0.011685236
76	0xbbb5b09f	-0.0055447365
77	0x3ab038e5	0.001344469
78	0x3c04bb56	0.008101305
79	0x3b475077	0.003041295
80	0xbbb8296e	-0.005620173
81	0x3c207cd9	0.009795391
82	0xbc6e2a09	-0.014536389
83	0xbc57672d	-0.013147158
84	0xb8f3c2f6	-0.00011623457
85	0x3b670ef7	0.0035256722
86	0x3bcf49f1	0.006325953
87	0xbb0aa5ff	-0.002115607
88	0xbbe13a54	-0.0068734083
89	0x3b5a7d43	0.0033338822
90	0x3c1808ff	0.009279489
91	0x3c169750	0.009191349
92	0x3bd0e362	0.0063747624
93	0xba5fa7e1	-0.0008531791
94	0xbba067db	-0.004895193
95	0xbc64f351	-0.013974027
96	0xbb296f40	-0.0025853664
97	0xbbef6d8a	-0.0073067592
98	0xbb394ddf	-0.0028275175
99	0x3b47a846	0.003046529
100	0x3bf2d52f	0.0074106674
101	0x3acef782	0.0015790316
102	0xbbcde913	-0.006283888
103	0xba966907	-0.0011475392
104	0xbc140904	-0.009035353
105	0x3c200b8c	0.009768378
106	0x3bb0d351	0.0053962846
107	0x3bc4d8a4	0.006007271
108	0xbc6968cf	-0.01424618
109	0xba1e909a	-0.0006048769
110	0x3b8bd919	0.0042678234
111	0xbc304d30	-0.01076059
112	0x3bbc03a7	0.00573774
113	0xbb52b8ae	-0.0032153535
114	0x3b4fb50d	0.0031693608
115	0xbc460df6	-0.0120882895
116	0xbbd568c7	-0.0065127346
117	0x3b9dd3a6	0.00481649
118	0xbc810d60	-0.015753448
119	0xb8510326	-4.9832415e-05
120	0xbb43fa61	-0.0029903876
121	0xbbb49a35	-0.005511547
122	0xbc02f6b8	-0.007993393
123	0xbbf0cada	-0.0073484005
124	0xbc0ef39b	-0.008725072
125	0x3b3ad75c	0.0028509712
126	0xbc01931a	-0.007908607
127	0xbb9aa229	-0.004719038
128	0x3c49761a	0.012296224
129	0xbbbb2c0b	-0.0057120374
130	0x3c1e2ee2	0.009654732
131	0x3c28e9bc	0.010309633
132	0x3aa3d530	0.0012499448
133	0x3bb722cc	0.005588865
134	0x3c30b73d	0.010785875
135	0x3c3098c3	0.010778609
136	0xbb215144	-0.0024615088
137	0x39d37c38	0.00040337606
138	0x3bfd7f4f	0.0077361236
139	0x3bdfe8fe	0.0068331948
140	0x3c355916	0.011068603
141	0xbbdfb8f5	-0.0068274685
142	0xbc4682fe	-0.012116192
143	0xbc40e30e	-0.011772884
144	0xbaa05759	-0.0012233063
145	0x3aeb1dc7	0.0017937951
146	0xb99cbb12	-0.00029894017
147	0x3c02b9b5	0.007978846
148	0x3c3e1d88	0.0116037205
149	0x3c013813	0.007886904
150	0xbbf8dae0	-0.0075944513
151	0x3b880f9a	0.0041522505
152	0xbc0a0ecd	-0.00842638
153	0xbc541b79	-0.012946003
154	0xb918a714	-0.00014558091
155	0x3bacb6d6	0.005270819
156	0xbc3676e6	-0.011136746
157	0xbb510535	-0.0031893973
158	0x3b6477ac	0.003486137
159	0x3c1e2345	0.009651964
160	0x3997f334	0.00028982165
161	0x3c1b77ec	0.009489041
162	0xbc0f89bd	-0.008760867
163	0xbc10fdd6	-0.008849582
164	0xbbe7a31d	-0.007069005
165	0xb913c856	-0.00014093643
166	0xbaf6621a	-0.0018797547
167	0xbc5e9800	-0.013586044
168	0x3b2ea740	0.0026649982
169	0xbc5d5655	-0.013509353
170	0x3c1a58cd	0.009420586
171	0x3c003250	0.007824495
172	0xbc6be355	-0.014397462
173	0xbb94a163	-0.0045358404
174	0xbb9f5509	-0.004862432
175	0x3a906673	0.001101686
176	0x3b34a0d0	0.0027561672
177	0x3bcc4502	0.0062338123
178	0x3b833ba3	0.004004912
179	0x3bc5e24d	0.00603894
180	0xbc85a495	-0.01631383
181	0x3bd26c66	0.0064216135
182	0xbbc113dc	-0.00589226
183	0x3c70b890	0.014692441
184	0x3c086f56	0.008327326
185	0x3c79d2a6	0.015247976
186	0x3ae0d07d	0.0017151978
187	0x3b8ed330	0.0043586716
188	0xbc1979d5	-0.009367426
189	0xb9c73abb	-0.00037999995
190	0xbba6e39c	-0.005093051
191	0x3b1bf6f7	0.0023798326
192	0x3c24f9c5	0.010069315
193	0x3c72e1a6	0.014824307
194	0xbb511972	-0.0031906036
195	0x3c857f17	0.016295953
196	0x3c148a20	0.009066135
197	0x3c48a52a	0.012246409
198	0x3c55e9b9	0.013056212
199	0x3c0def74	0.008663047
200	0x3b92ec97	0.00448377
201	0x3c177996	0.009245297
202	0x3bf632eb	0.007513394
203	0x3ae8361f	0.0017716325
204	0x3ad5e3f3	0.0016318545
205	0x3baa1a50	0.005191125
206	0xbc187ec7	-0.00930757
207	0x3b5dfdee	0.0033873278
208	0xb9dfc1e9	-0.0004267835
209	0xbc18072c	-0.009279054
210	0x3aeb27fd	0.0017940995
211	0xbb254fc2	-0.0025224541
212	0x3c54975d	0.012975541
213	0x3c48c302	0.012253525
214	0x3c14360f	0.009046092
215	0xbc0f2b23	-0.008738312
216	0x3a25fb16	0.0006331665
217	0x3c457db6	0.012053898
218	0xbbc080b0	-0.0058747157
219	0x3c41689b	0.011804725
220	0x3c3ad734	0.0114038475
221	0xba369961	-0.0006965604
222	0xbb3bd5d6	-0.0028661392
223	0xbac345ae	-0.0014898086
224	0xbae0d18f	-0.0017152297
225	0x3c61517d	0.0137523385
226	0x3b4c9566	0.0031216978
227	0x3b852e9e	0.004064395
228	0xbc1eeedb	-0.009700502
229	0x3c785b08	0.015158422
230	0x3beaefcc	0.0071696993
231	0xbbe3e524	-0.006954806
232	0xbc232a79	-0.009958857
233	0x3b979525	0.0046259337
234	0x3c343dfe	0.011001108
235	0xba8fa0ec	-0.0010957993
236	0xba82e905	-0.0009987658
237	0x3acb5e78	0.0015515825
238	0x3b40990b	0.0029388096
239	0xbc1f9f37	-0.00974255
240	0xbac9fe27	-0.0015410826
241	0xb986cac6	-0.0002570955
242	0xba118574	-0.0005551197
243	0x3bc4b4f9	0.006003019
244	0xbabd593d	-0.0014446151
245	0xbc42daf5	-0.011893024
246	0x3bd5f400	0.006529331
247	0xbb43457f	-0.0029796062
248	0xbc19e36b	-0.0093926
249	0xb9d00af0	-0.00039681
250	0x3935162d	0.00017269766
251	0xbb294f7d	-0.0025834732
252	0xbb4c26ea	-0.0031151124
253	0x3c21931d	0.009861735
254	0x3a20a0e8	0.00061274925
255	0xbc221e83	-0.00989497

projection.bias f4 [2]
0	0x3c035374	0.008015502
1	0xba6d5d2e	-0.00090547174
