results/Heartbeat_SegRNN_sl_96/1/checkpoint.pth (torch, 488931 bytes, 12 tensors)

pos_emb f4 [4, 64]
0	0x3f81e5e1	1.0148278
1	0xbfc8969f	-1.5670966
2	0xbec00a34	-0.37507784
3	0x3e09de90	0.13463807
4	0xbf3481e0	-0.70510674
5	0x3eee47a1	0.46539024
6	0x3efe1d1d	0.49631587
7	0x3efe14dd	0.49625292
8	0xbfa5df7a	-1.2958825
9	0x3f636962	0.88832676
10	0x3e394795	0.18093713
11	0x3f3258e6	0.696669
12	0xbfbd0f05	-1.4770209
13	0xbfc7a795	-1.5598017
14	0x3fd3467f	1.6505889
15	0x3f95a03f	1.1689528
16	0x3edd301c	0.43200767
17	0xbf114105	-0.56739837
18	0xbf0f900c	-0.56079173
19	0xbf48b2c2	-0.7839776
20	0x3ec3b315	0.38222566
21	0x3ec592aa	0.38588458
22	0x3f141b16	0.5785383
23	0xbf3b771d	-0.7322863
24	0xbf85f892	-1.0466483
25	0xbfca940c	-1.582643
26	0xbf1f044b	-0.62115926
27	0x3f9ef2e5	1.2417876
28	0xbfb626e0	-1.4230614
29	0xbd4c79d2	-0.049920864
30	0xbfd22731	-1.641821
31	0x3f6d9414	0.92804074
32	0xbd4d8af7	-0.050181355
33	0x3dd8d98b	0.10588368
34	0xbeb8c592	-0.36088234
35	0xbfe9aaf6	-1.8255298
36	0xbe78010c	-0.2421915
37	0xbe104061	-0.14087059
38	0xbe14efa3	-0.14544539
39	0x3e45a25f	0.19300221
40	0x3fa5d05a	1.2954209
41	0xbee78345	-0.45217338
42	0x3e289a52	0.16465119
43	0x3f838b7a	1.027694
44	0x3f5fad0d	0.8737343
45	0x3f7d6eea	0.98997366
46	0xbf7fadb4	-0.99874425
47	0x3f0a8912	0.541154
48	0x3f6f99a7	0.9359383
49	0xbe7cc3be	-0.24684045
50	0x3fae7df1	1.3632184
51	0x3fb44a4e	1.4085176
52	0x3e744e7e	0.23858067
53	0xbf218228	-0.6308923
54	0xbf14b653	-0.58090705
55	0x3fd4a9a4	1.661427
56	0xbf0ba922	-0.5455495
57	0x3f1c84b0	0.61139965
58	0xbed6c4f0	-0.41947126
59	0xbff3c235	-1.9043642
60	0xbdcfdea6	-0.10149889
61	0x3e4b21be	0.1983709
62	0xbd324ce1	-0.04353035
63	0x3e757a3f	0.23972414
64	0xbf03262e	-0.5123013
65	0x3fc87e71	1.5663587
66	0x3e928f05	0.2862474
67	0xbf808634	-1.0040956
68	0x3fea6d2d	1.8314568
69	0x3f3b461e	0.73153865
70	0x3fb3b1d3	1.4038643
71	0x3efd1cfc	0.49436176
72	0xbee0aebf	-0.4388332
73	0xbf97f989	-1.1873027
74	0x3f92e357	1.1475629
75	0xbe2407af	-0.16018556
76	0xbea872f1	-0.32900193
77	0xbe22e22c	-0.1590659
78	0x3f29cdd1	0.66329676
79	0x3f37682c	0.7164333
80	0xc00d797c	-2.2105398
81	0xbd7e6b38	-0.06211397
82	0xbe57ae65	-0.2106262
83	0xbf89aeb1	-1.0756437
84	0xbf736364	-0.95073533
85	0x3f2bfb3c	0.6718023
86	0x3e66076a	0.22463766
87	0xbf9aa971	-1.208296
88	0xbea90590	-0.33012056
89	0x3eda6fcd	0.42663422
90	0xbf3c2cd7	-0.7350592
91	0xbef45b3d	-0.4772586
92	0x3f752783	0.95763415
93	0xbf03a10e	-0.51417625
94	0xbf71c5eb	-0.94442624
95	0xbfef8e69	-1.8715335
96	0xbf955258	-1.1665754
97	0xbc505ae5	-0.012716983
98	0xbd082792	-0.033240862
99	0xbf86d689	-1.0534221
100	0x3fba4c53	1.4554542
101	0x3eca99d1	0.39570478
102	0x3fb29d75	1.3954302
103	0xbc9da187	-0.019242061
104	0xbe2b5c3f	-0.16734408
105	0xbfc242ab	-1.5176595
106	0x400cb212	2.1983685
107	0xbf1c0177	-0.60939735
108	0xbf9d5d5b	-1.2294115
109	0xbe64df5f	-0.22350834
110	0x3e9f7bb3	0.31149063
111	0x3f1fe2e0	0.6245556
112	0x3eec05ad	0.4609808
113	0xbede1d47	-0.43381712
114	0x3fba7114	1.4565759
115	0xbf789269	-0.97098404
116	0xbffe06a7	-1.984578
117	0x3f5d58bd	0.8646353
118	0xbeca2ca4	-0.39487183
119	0x40019cb9	2.0251906
120	0x3f83c84d	1.0295502
121	0x3ea1b527	0.3158352
122	0xbf700c1a	-0.93768466
123	0x3e7d7dda	0.2475504
124	0x3f3e0640	0.74228287
125	0xbf8ae06b	-1.0849737
126	0x3ec8253c	0.39090908
127	0x3efb1298	0.49037623
128	0x3fa630ec	1.298368
129	0xbf8f5988	-1.1199198
130	0xbc040876	-0.008058658
131	0xbf775b65	-0.9662383
132	0x4050c1a7	3.2618196
133	0xbef179e2	-0.47163302
134	0xbf50e3bb	-0.8159749
135	0x3f0e2569	0.55525833
136	0xbe5728fe	-0.21011731
137	0xbc918b0a	-0.017766494
138	0x3fb4fe7a	1.414016
139	0x3e576243	0.21033578
140	0xbfa41c87	-1.2821206
141	0x402e401f	2.7226636
142	0x3fbd2d6e	1.4779489
143	0xbf868040	-1.0507889
144	0xbdd6b697	-0.10484045
145	0xc0063c3a	-2.097426
146	0xbf06d28a	-0.5266501
147	0xbf54a4d2	-0.83063996
148	0x3fbc2569	1.4698917
149	0x3f4bf29f	0.79667085
150	0xbdb0e6d7	-0.08637779
151	0xbfcdb172	-1.6069777
152	0xbfeb7289	-1.8394328
153	0x4041c4b9	3.027632
154	0xbeba9ad4	-0.3644625
155	0xbe9e52e4	-0.30922616
156	0x3fdc81bf	1.7227095
157	0x3f8dab37	1.1067876
158	0xbf764867	-0.9620423
159	0x3fc6c6d6	1.552943
160	0xbecfb3d4	-0.40566885
161	0x3fc59266	1.5435302
162	0xbec4a14b	-0.38404307
163	0xbf38e80e	-0.7222909
164	0x3eb19132	0.34681088
165	0xc006e2b4	-2.1075869
166	0x3e6a4c83	0.2288075
167	0xbe970d2e	-0.29502243
168	0xbf5368ef	-0.8258199
169	0x3e963277	0.29335377
170	0xc04fbd71	-3.2459376
171	0x3f1ff79d	0.624872
172	0xc00ed71f	-2.23188
173	0x3ec7e478	0.39041495
174	0x3fb067b8	1.3781652
175	0xbeb146ee	-0.34624428
176	0x3deb559f	0.1149094
177	0x3f5f44a7	0.8721413
178	0x3e8cf21f	0.27528474
179	0x3ef4ace3	0.47788152
180	0x3f31ed80	0.6950302
181	0xbebef7f9	-0.37298563
182	0x3fd0419a	1.627002
183	0x3f2083ce	0.6270112
184	0x3cf257ed	0.029582942
185	0x3fc7eb68	1.5618715
186	0x3e3d6e90	0.18499207
187	0xbf5f0ef2	-0.8713218
188	0x3f105bed	0.5639027
189	0xc04500d5	-3.0781758
190	0xbea9294c	-0.3303932
191	0xbdd7824a	-0.105228975
192	0x3ee3b346	0.44472712
193	0x3e2698b9	0.16269197
194	0xbe855466	-0.26040953
195	0x3f520fb9	0.8205524
196	0xbfc1a935	-1.5129763
197	0xbf818258	-1.0117903
198	0x3fe402b7	1.7813329
199	0x3ef45030	0.47717428
200	0xbf10b043	-0.56518954
201	0xbfa904db	-1.3204607
202	0x3f5bcbf6	0.85858095
203	0x3ea7eb88	0.32796884
204	0x3f3a8e87	0.7287373
205	0xbf02e1c3	-0.51125735
206	0xc00ae161	-2.170006
207	0xbf54995b	-0.830465
208	0x3fd669a0	1.6750984
209	0xbf21908c	-0.63111186
210	0xbdc5f0a9	-0.09665043
211	0xbd0f12a8	-0.0349299
212	0x3f32f8bf	0.69910806
213	0x3d893091	0.066987164
214	0xbe3f4143	-0.18677239
215	0xbf98a62e	-1.1925714
216	0xbf721ced	-0.9457539
217	0xbf20411d	-0.62599355
218	0xbe7bd249	-0.24591936
219	0xbdcf1063	-0.101105474
220	0x3d04e9ad	0.032449413
221	0xbf11ba9b	-0.5692536
222	0x3f725096	0.94654214
223	0x3f8a9e8e	1.0829637
224	0x3f4d5610	0.80209446
225	0xbf8ee7d1	-1.1164495
226	0xbf9b95db	-1.2155107
227	0x3d23fc79	0.0400357
228	0xbf8390b1	-1.0278531
229	0xbe73a23a	-0.23792353
230	0xbe91524e	-0.28383106
231	0x40125a50	2.2867622
232	0xbefaf1ae	-0.49012512
233	0xbdeb99d7	-0.11503952
234	0x3f4dfc0e	0.8046273
235	0xbf85365b	-1.0407213
236	0x3ef41cf5	0.47678342
237	0x3ef3ab22	0.475915
238	0x3edc6f98	0.4305389
239	0xbf64765c	-0.892431
240	0x3ed5a37d	0.41726294
241	0xbea6aa43	-0.32551774
242	0x3e06b1e6	0.131538
243	0xbc1fdd15	-0.0097573
244	0x3f4242b1	0.75883013
245	0xbd8b8aec	-0.068136066
246	0x3dd19474	0.10233393
247	0xbee3ea50	-0.44514704
248	0xbefe76f2	-0.49700123
249	0x3e2eaf5d	0.17059083
250	0x3f50be5c	0.81540465
251	0xbf2883ab	-0.6582591
252	0x3ea18cb0	0.3155265
253	0x3ebc6627	0.36796686
254	0x3e00d988	0.12582982
255	0xbd020e9f	-0.031752225

channel_emb f4 [61, 64]
0	0xbfb0299b	-1.3762697
1	0x3fcf5749	1.6198512
2	0xbf921534	-1.1412721
3	0x3fd09861	1.6296502
4	0xbf0d5b1f	-0.55217165
5	0x3f0c7669	0.5486818
6	0x3ff942b5	1.9473482
7	0x3f730d4a	0.9494215
8	0xbe6bcd37	-0.23027502
9	0x3fb8d2b3	1.44393
10	0x3f0e206e	0.55518234
11	0x3f8436a9	1.0329181
12	0x3fda4aa0	1.7054024
13	0xbe89fc0d	-0.26950112
14	0x3ed5536a	0.41665202
15	0xbed0953a	-0.4073885
16	0x3fb6f0d8	1.429225
17	0xbfda006c	-1.7031379
18	0x3fe41795	1.7819697
19	0x3e485e5e	0.19567248
20	0x3ff7f06e	1.9370248
21	0xbf0797d1	-0.5296603
22	0x3fcde979	1.6086875
23	0xbdbee399	-0.093207546
24	0x3f4dcac5	0.80387527
25	0xbf39e9dc	-0.72622466
26	0xbf52f4ab	-0.82404584
27	0xbfa9fc1a	-1.328006
28	0xbe4bc85e	-0.19900653
29	0x3e2b3ea2	0.16723111
30	0x3f0476c2	0.5174371
31	0xbfb600ab	-1.4218954
32	0xbf71bc60	-0.9442806
33	0x3ebf4603	0.37358102
34	0xbf56d648	-0.8392072
35	0x3ff93dc6	1.9471977
36	0x3e3e1b36	0.18565068
37	0xbe401d54	-0.18761188
38	0xbf85d510	-1.0455647
39	0x3f0c2156	0.54738367
40	0x3eda975d	0.42693606
41	0xbd0a6a60	-0.033792853
42	0x3ff726c3	1.9308704
43	0x3ed8fd80	0.42380905
44	0xbf447ff3	-0.76757735
45	0x3de7058c	0.11280355
46	0xbfaa06fd	-1.3283383
47	0x3e7c22d1	0.24622656
48	0xbf79566b	-0.9739749
49	0x3f0626cd	0.52402955
50	0x3fc81023	1.5629925
51	0xbdc94e4f	-0.09829389
52	0xbe1f8a10	-0.1558001
53	0x3f97a1dc	1.184627
54	0x3efac980	0.48981857
55	0x3f43a0c1	0.76417166
56	0x3e94fa16	0.2909705
57	0xbe9849f2	-0.29743916
58	0x3f787de9	0.97067124
59	0xbf303d45	-0.6884349
60	0xbe2a446c	-0.16627663
61	0x3fb9304c	1.4467864
62	0x3f3904e2	0.72273076
63	0x3d5c966d	0.053854395
64	0x3dab63ed	0.08368669
65	0xbf965a7b	-1.1746362
66	0xbf8735ca	-1.056329
67	0x3fa1aa6c	1.2630134
68	0x3ec873eb	0.39150938
69	0xbec6a695	-0.38798967
70	0x3ea13b3f	0.31490514
71	0xc00ff56e	-2.2493548
72	0x3fc66908	1.5500803
73	0x40086631	2.1312373
74	0xc009bc97	-2.1521356
75	0xc00bbdf3	-2.1834686
76	0xbd843492	-0.064553395
77	0xbebd0a82	-0.3692208
78	0xbfb06688	-1.378129
79	0xbba6a070	-0.0050850436
80	0x3f1f33a0	0.6218815
81	0x3ed22157	0.4104106
82	0x3ea4e3ef	0.3220515
83	0xbf3cbace	-0.7372254
84	0xbf6ecccc	-0.93281245
85	0xbee6ebbc	-0.45101726
86	0xbf59f3d4	-0.8513768
87	0x3f4f9e34	0.81100774
88	0xbecacd58	-0.3960979
89	0x3d6b974f	0.057517346
90	0xbee3ade5	-0.44468608
91	0xbfe3262f	-1.7746028
92	0x3e032b54	0.12809497
93	0xc00a868a	-2.1644616
94	0xbe88ebd8	-0.26742435
95	0x3f51bf27	0.819323
96	0xbda79e43	-0.08184483
97	0x3f0f0736	0.5587038
98	0xbd246361	-0.040133838
99	0x3f3285a1	0.6973515
100	0x3e66b485	0.225298
101	0xbe90df28	-0.28295255
102	0x3f138226	0.57620466
103	0x3fbe94e4	1.4889188
104	0x3f57e125	0.8432792
105	0xbe85f4e9	-0.26163414
106	0x3f369455	0.71320087
107	0x3d9a3327	0.07529288
108	0xbe5414c1	-0.20711042
109	0x3f9889fe	1.1917112
110	0xbed22c1a	-0.41049272
111	0xbf008f0a	-0.5021826
112	0x3cbc5f98	0.022994801
113	0xc04aaad3	-3.1666763
114	0x3f3c4083	0.7353594
115	0xbfcd19da	-1.6023514
116	0xbe3da576	-0.1852015
117	0xbf491be9	-0.7855821
118	0xbf899df2	-1.0751326
119	0xbf584d53	-0.8449299
120	0x3ef3f378	0.4764669
121	0x40019b3a	2.0250993
122	0xbfc8eda0	-1.5697517
123	0x3d90fb08	0.070791304
124	0x3d0e4f2e	0.03474348
125	0x3ef4164d	0.47673264
126	0x3e439497	0.19099651
127	0xbfca3882	-1.5798495
128	0xbf387560	-0.720541
129	0x3f4a6391	0.79058176
130	0x3e8a7d89	0.270489
131	0xbf7d9a54	-0.9906361
132	0x3ec78e56	0.3897578
133	0x3f0a13ef	0.53936666
134	0xbe7954b9	-0.24348725
135	0x3d974dfb	0.073879205
136	0x3f6f7ded	0.9355152
137	0xbfa7f60b	-1.3121961
138	0xbfb1c84e	-1.3889253
139	0xbf1971bc	-0.5993917
140	0xbf49b21a	-0.78787386
141	0x3fe1c57f	1.7638396
142	0x3e737006	0.23773202
143	0xbf37cb2a	-0.7179438
144	0x3f24ead4	0.6442082
145	0xbf7baf62	-0.9831449
146	0xbeb68a13	-0.35652217
147	0x3dd46326	0.103704736
148	0xbf75fa93	-0.9608547
149	0x3fb5310b	1.4155592
150	0x3fb20213	1.3906883
151	0xbf66908a	-0.900643
152	0xbfaa4658	-1.3302717
153	0x3f695d72	0.9115821
154	0x3ff1c3a4	1.888783
155	0x3f30e94b	0.69105977
156	0x3f84e964	1.0383725
157	0x3f716c33	0.94305724
158	0xbd636a6a	-0.055521406
159	0x3e681c2f	0.22667001
160	0xbf5a891b	-0.85365456
161	0x3fb5c3a6	1.4200332
162	0x3f56edd0	0.83956623
163	0x3f4ebd20	0.8075733
164	0xbf365418	-0.71222067
165	0x3f70adb9	0.9401508
166	0xbee06a4f	-0.43831107
167	0xbf169ae5	-0.588301
168	0xbf0462b6	-0.5171312
169	0x3f780269	0.9687868
170	0x3f38f79e	0.72252834
171	0x3de96187	0.11395555
172	0xbf31890d	-0.6934975
173	0xbe5c271b	-0.21499293
174	0xbf0f1d68	-0.55904245
175	0x3d65d152	0.056107827
176	0xbece8fd8	-0.4034412
177	0x3e13ec35	0.14445575
178	0xbf42d0aa	-0.76099646
179	0xbecdb7ea	-0.40179378
180	0x3e9e9d99	0.30979612
181	0x3f813c12	1.0096457
182	0x3f9c2371	1.2198316
183	0xbefac840	-0.48980904
184	0x3df35107	0.11880689
185	0x3ec7bc6c	0.39010942
186	0xbfc25af2	-1.5184004
187	0x3f00b6c6	0.5027889
188	0x3ed66aa1	0.41878226
189	0x3f20abd7	0.62762207
190	0xbfb5fb98	-1.4217405
191	0x3f58a34e	0.84624183
192	0xbea17b49	-0.31539372
193	0xc01a386d	-2.409694
194	0x3f327def	0.6972341
195	0xbe22eca8	-0.1591059
196	0x3f09dba5	0.53850776
197	0xbfb9ba7b	-1.4510034
198	0x3f5e67fc	0.8687742
199	0xbe57496f	-0.21024106
200	0x3de44388	0.11145693
201	0x3f862356	1.0479534
202	0x3ec00b83	0.37508783
203	0x3f1248fd	0.5714262
204	0x4013b994	2.3082018
205	0xbfcd9f84	-1.6064305
206	0x3ef1ac67	0.47201845
207	0xbf158919	-0.5841232
208	0x3f3f0a32	0.7462493
209	0x3e9127f1	0.28350785
210	0x3d2fded6	0.042937122
211	0xbe1f60c2	-0.15564254
212	0x3e566e15	0.2094043
213	0xbe3ba0e4	-0.18323094
214	0x3f3c0f25	0.7346061
215	0xbf60c3bf	-0.87798685
216	0x3fa133d6	1.2593944
217	0xbfb9eaf2	-1.4524825
218	0xbefc834f	-0.4931893
219	0xbfd75862	-1.6823847
220	0x3ebd974a	0.37029487
221	0x3d087859	0.033317897
222	0xbfa67341	-1.3003923
223	0x3eb63ca6	0.35593146
224	0xbe00841d	-0.12550397
225	0x3f16d661	0.58920866
226	0xbe998a27	-0.29988214
227	0xbf39f50d	-0.7263954
228	0xbf03c31b	-0.5146958
229	0x3f32e974	0.6988747
230	0x3ecd123a	0.40052968
231	0x3ec916cf	0.39275214
232	0x3fb5f08b	1.4214033
233	0xbea67ea5	-0.32518497
234	0x3d6d8376	0.0579867
235	0xbfba9145	-1.4575583
236	0x3f4f69b8	0.8102069
237	0xbf8be78a	-1.0930035
238	0x3f9774e5	1.1832548
239	0xbd0d3a1d	-0.03447925
240	0x3fc2b17c	1.5210414
241	0xbee5ae91	-0.44859746
242	0x3d823688	0.06358057
243	0x3f92534d	1.1431671
244	0x3fc795c3	1.5592579
245	0xbf44aca8	-0.7682595
246	0x3f0a9719	0.54136807
247	0x3fca7fe9	1.5820285
248	0x3f6d9408	0.92804
249	0x3de6e668	0.11274415
250	0x3d797517	0.06090268
251	0x3ed3214a	0.41236335
252	0x3f716744	0.94298196
253	0xbf52ec5d	-0.8239191
254	0x3f92b12b	1.1460317
255	0xbf2252fe	-0.63407886

valueEmbedding.0.weight f4 [128, 24]
0	0xbdc0ce43	-0.09414341
1	0xbbf7cfcb	-0.0075626126
2	0xbcf45fcb	-0.029830834
3	0xbe01de3f	-0.12682436
4	0x3dad6e56	0.084683105
5	0x3de5d02d	0.11221347
6	0xbd9c97df	-0.076461546
7	0xbe399857	-0.1812452
8	0x3a57ffc2	0.000823971
9	0xbe34dcc4	-0.1766234
10	0x3cc9a58e	0.024615075
11	0xbe43c9a4	-0.19119889
12	0x3e436721	0.1908231
13	0x3e199d75	0.15001471
14	0x3cc919e6	0.024548482
15	0xbd3ff2e0	-0.046862483
16	0xbd105f5a	-0.035247184
17	0xbd8eba30	-0.06969106
18	0xbe2a2e0f	-0.16619132
19	0x3e3ddf01	0.185421
20	0x3d7a443e	0.061100237
21	0x3d92d429	0.071693726
22	0xbdaa4ad5	-0.08315054
23	0xbe198ef9	-0.14995946
24	0xbe0e993f	-0.13925646
25	0xbe116e60	-0.14202261
26	0x3e1a31bd	0.15058036
27	0x3d5c2fe2	0.053756602
28	0xbe1ee9dc	-0.15518898
29	0xbd1f9712	-0.03896243
30	0xbd95c3b1	-0.07312716
31	0x3dee996c	0.11650357
32	0x3dbe0f98	0.09280318
33	0xbe161777	-0.14657389
34	0x3d39d0e6	0.045365237
35	0x3ddeb8a3	0.108750604
36	0x3e0a20dd	0.13489099
37	0x3cccb734	0.024989702
38	0xbdb76bab	-0.08956083
39	0xbe0b12da	-0.1358141
40	0xbe2642bf	-0.16236399
41	0xbd54d59b	-0.051961523
42	0x3e065608	0.13118756
43	0x3e434edc	0.19073051
44	0xbcb45afd	-0.022016043
45	0x3da9cab4	0.08290616
46	0xbd58f3a8	-0.052966744
47	0xbe09dcaa	-0.13463083
48	0x3e5dc6fb	0.21657936
49	0xbba5e9f5	-0.0050632902
50	0x3e0abef7	0.1354941
51	0x3e07526a	0.13215032
52	0x3d9571f8	0.072971284
53	0xbe0cb571	-0.1374109
54	0x3c1f3079	0.009716147
55	0xbe131d2d	-0.14366598
56	0xbdc4cc1f	-0.096092455
57	0x3e1f6cf0	0.155689
58	0xbe4690eb	-0.1939122
59	0x3d914ebb	0.07095095
60	0x3cb90214	0.022583999
61	0x3de2afbf	0.11068677
62	0x3dd5494f	0.10414373
63	0x3d9fbe41	0.0779996
64	0x3e1adc26	0.15123042
65	0xbd872baa	-0.06600125
66	0xbe65cb14	-0.2244075
67	0x3c8b16ee	0.016978707
68	0xbd232a53	-0.039835285
69	0xbe3ed76e	-0.18636867
70	0x3e10a327	0.14124738
71	0x3db11e91	0.08648408
72	0xbe3cdabb	-0.18442814
73	0x3b98081c	0.0046396386
74	0xbd7cb08a	-0.0616918
75	0x3dbfb4b6	0.0936064
76	0x3d8554da	0.06510325
77	0x3cc30ac7	0.02380885
78	0xbe3970fb	-0.18109505
79	0x3e06352c	0.13106221
80	0x3d539127	0.0516521
81	0x3e08d079	0.13360776
82	0xbe0007a0	-0.12502909
83	0xbe0d59aa	-0.13803735
84	0x3d5c49bc	0.053781256
85	0x3dc0ebe4	0.094199926
86	0x3c9d9c0a	0.019239444
87	0x3db848f5	0.089982904
88	0xbe0e6fee	-0.13909885
89	0x3dbb87bd	0.091567494
90	0xbda3f438	-0.080055654
91	0x3e3963ff	0.18104552
92	0xbdb42c31	-0.08797491
93	0xbc1bdbf0	-0.009512886
94	0x3e6535a2	0.2238374
95	0x3daa8794	0.08326641
96	0xbcd9c847	-0.026584757
97	0x3e484d84	0.1956082
98	0x3d4d60a3	0.050140988
99	0x3e6aacbb	0.22917454
100	0x3d3af8d1	0.045647446
101	0xbe37524b	-0.17902486
102	0xbe1d0c12	-0.15336636
103	0xbb5d7c14	-0.003379588
104	0xbd6f186e	-0.058372907
105	0xbde704b6	-0.112801954
106	0x3e2acfbc	0.16680807
107	0x3e15dad8	0.14634264
108	0x3e3a301b	0.18182413
109	0x3e5b11c7	0.213935
110	0xbe4057d7	-0.18783508
111	0xbe19d3ef	-0.15022253
112	0xbe1e650d	-0.15468235
113	0x3d6b534b	0.05745248
114	0xbde4784c	-0.11155757
115	0xbe07352e	-0.1320388
116	0xbdc1b8e1	-0.09459091
117	0xbe15c364	-0.14625317
118	0xbd680bba	-0.05665181
119	0xbd68c6e6	-0.05683031
120	0x3e7953b1	0.24348332
121	0x3e216840	0.15762424
122	0xbe2d9d7a	-0.16954604
123	0xbe2d77e2	-0.16940263
124	0x3e564bd5	0.20927365
125	0x3de6ab49	0.11263139
126	0x3e20a3fc	0.15687555
127	0x3d4792e8	0.048724085
128	0x3dfce62c	0.12348589
129	0xbd8f0df0	-0.0698508
130	0xbe1d3c45	-0.15355022
131	0xbddf79c2	-0.10911895
132	0xbdf0bdc9	-0.11754949
133	0xbe4e65c5	-0.2015601
134	0xbde0fca1	-0.10985685
135	0xbcc4f85c	-0.024044208
136	0x3dfad569	0.12247736
137	0x3e1f4a47	0.15555678
138	0x3cfc0d92	0.03076819
139	0x3e18e803	0.14932255
140	0x3e233069	0.15936436
141	0x3db6b8d8	0.08921975
142	0xbe216cc0	-0.15764141
143	0x3e6053cd	0.21906967
144	0xbe125985	-0.14291961
145	0xbd8d653e	-0.06904076
146	0x3dc9b48f	0.09848892
147	0xbe3ad4df	-0.18245266
148	0xbe00604b	-0.12536733
149	0xbb969876	-0.0045958115
150	0xbe05b956	-0.13058981
151	0x3e33615e	0.17517611
152	0x3ddf5c4c	0.10906276
153	0x3d43f0d7	0.047837105
154	0x3cfd3f97	0.030914111
155	0xbe0fbd37	-0.14037023
156	0xbc9491ac	-0.018135868
157	0xbe5ffd48	-0.21873963
158	0x3e09ab4b	0.1344425
159	0xbcbc264b	-0.022967478
160	0x39794e29	0.00023775607
161	0xbd8ae7bc	-0.06782481
162	0xbdac4fab	-0.08413633
163	0x3d8e59e3	0.06950738
164	0xbe2713cd	-0.16316147
165	0xbde82aa4	-0.11336258
166	0x3dc29638	0.09501308
167	0x3d3ef12e	0.046616726
168	0xbdcf05cb	-0.10108527
169	0xbd0f0de8	-0.03492537
170	0x3e236cd6	0.15959486
171	0xbc45e785	-0.012079124
172	0x3e397390	0.1811049
173	0x3d16ffc3	0.036865007
174	0xbb89e945	-0.004208716
175	0xbd589381	-0.052875046
176	0xbd3bff84	-0.045897976
177	0x3d611887	0.05495503
178	0x3e0a581f	0.13510178
179	0x3dd342ae	0.103154525
180	0x3e0c5165	0.13702925
181	0x3e01fd11	0.12694193
182	0x3e06bcb1	0.13157918
183	0x3dfcf9cd	0.12352333
184	0xbc74f5ab	-0.01495115
185	0x3d783d78	0.060605496
186	0xbc8a90ac	-0.016914688
187	0xbdd4720e	-0.10373317
188	0xbe2a4e0f	-0.1663134
189	0xbe338411	-0.17530848
190	0x3e0ebb6c	0.13938683
191	0x3cff25b3	0.031145906
192	0x3e494e56	0.19658789
193	0x3e2872df	0.1645007
194	0x3d1408c3	0.03614117
195	0xbc7ad964	-0.015310619
196	0xbdc97ec7	-0.09838634
197	0xbe1c5717	-0.15267597
198	0xbd532cf6	-0.05155655
199	0xbc928a94	-0.017888345
200	0xbe581712	-0.2110255
201	0x3dca5f0b	0.09881409
202	0xbda8c77b	-0.08241173
203	0xbbddafa9	-0.006765325
204	0xbda045d5	-0.078258194
205	0x3e61d6af	0.22054552
206	0xbd110c52	-0.03541214
207	0xbd9e6ccb	-0.07735594
208	0x3deb6153	0.114931725
209	0x3de41534	0.11136857
210	0xbd970a3f	-0.07375001
211	0x3e295db9	0.16539659
212	0x3dc5b3f5	0.09653465
213	0x3dfdd6e0	0.123945
214	0x3da3d535	0.079996504
215	0x3e3db6fc	0.18526834
216	0x3e43cb5d	0.19120546
217	0x3e39b27c	0.18134493
218	0x3dbc482f	0.091934554
219	0x3d4d4e3c	0.05012344
220	0x3e00c3e6	0.1257473
221	0x3e3eb737	0.18624578
222	0xbe29bfef	-0.16577123
223	0x3e4d0f97	0.20025478
224	0x3e251111	0.16119792
225	0xbe1ddf2e	-0.15417168
226	0xbe4e38b7	-0.20138822
227	0xbd18d004	-0.037307754
228	0xbdc4755a	-0.095926955
229	0x3dc22a53	0.09480729
230	0x3db00358	0.08594388
231	0x3e08f50d	0.1337473
232	0x3da7673c	0.08173987
233	0x3e3dc726	0.18533
234	0xbc6bc2f5	-0.014389743
235	0x3c62eddc	0.013850655
236	0x3e3dc33b	0.18531506
237	0xbe22aaa2	-0.15885404
238	0x3e000703	0.12502675
239	0xbdcbd13f	-0.0995202
240	0xbe37570d	-0.17904301
241	0x3e421d7c	0.1895656
242	0x3d9513a3	0.07279136
243	0x3e5d102c	0.215882
244	0x3cea2cd1	0.028585823
245	0x3e3048c0	0.17215252
246	0xbe0caf14	-0.13738662
247	0x3d1d43bf	0.038394686
248	0x3e40769b	0.18795244
249	0xbc5668f0	-0.0130865425
250	0xbd89ee53	-0.0673491
251	0x3deee55a	0.11664839
252	0x3cf5b902	0.029995445
253	0xbde975a8	-0.11399394
254	0xbb077932	-0.0020671603
255	0xbd146950	-0.036233246

valueEmbedding.0.bias f4 [128]
0	0xbdf86568	-0.12128717
1	0xbe104e33	-0.1409233
2	0x3ad4bb29	0.0016230094
3	0x3d3b0784	0.045661464
4	0x3d2cadf9	0.0421581
5	0x3dafc594	0.08582607
6	0x3c662796	0.014047524
7	0xbe68e7d0	-0.2274468
8	0x3a003e9f	0.0004892144
9	0xbd9d8edb	-0.07693263
10	0xbdee4a8e	-0.11635314
11	0xbe0575a6	-0.1303316
12	0xbd496500	-0.049168587
13	0x3e1417d5	0.14462216
14	0xba3c25f6	-0.00071772875
15	0xbdc1c4a9	-0.09461338
16	0x3e36e69a	0.17861405
17	0x3d10c014	0.03533943
18	0xbe09d380	-0.13459587
19	0xbd0ba02d	-0.034088302
20	0xbdceefb6	-0.10104315
21	0x3de3b3a7	0.1111825
22	0x3d9e9871	0.0774392
23	0xbd8ae063	-0.067810796
24	0xbda12cb5	-0.07869855
25	0xbe1d2f85	-0.15350159
26	0x3b6d12e0	0.003617458
27	0xbe20cec5	-0.15703876
28	0x3e142dbf	0.14470576
29	0x3e29ed3d	0.16594405
30	0xbd1f37ae	-0.03887146
31	0xbde8408c	-0.11340436
32	0x3e2b309e	0.16717765
33	0x3e0609ed	0.13089724
34	0xbe1ef10c	-0.1552164
35	0xbda29aa5	-0.07939652
36	0xbda10f91	-0.07864297
37	0x3c9c0b8a	0.019048471
38	0xbd88068f	-0.06641876
39	0xbdb6a250	-0.089176774
40	0xbcc9e8bf	-0.024647115
41	0x3dbc3bef	0.09191119
42	0xbda7f735	-0.08201448
43	0x3cdb1ca7	0.026747061
44	0xbc9df491	-0.019281657
45	0x3e381354	0.17976123
46	0xbd83d14c	-0.064364046
47	0x3e2a28f1	0.1661718
48	0xbd3843da	-0.044986583
49	0xbd991856	-0.07475345
50	0x3e18b1f2	0.14911631
51	0xbd934178	-0.071902215
52	0xbd717bb9	-0.05895588
53	0xbe02dd8e	-0.12779829
54	0x3dd04973	0.10170259
55	0x3dff5093	0.1246654
56	0xbe2c157f	-0.16805075
57	0xbdc5bc95	-0.0965511
58	0x3c5ac308	0.013352163
59	0xbdc06696	-0.09394567
60	0xbe25a41a	-0.16175881
61	0x3e288570	0.16457152
62	0xbd850ed2	-0.064969674
63	0x3dee9c98	0.11650962
64	0xbe0be454	-0.13661319
65	0x3dec5c49	0.115410395
66	0x3d3460b0	0.04403752
67	0xbc73d1b6	-0.014881542
68	0x3e109d9a	0.1412262
69	0xbe0e1785	-0.1387616
70	0xbd930c41	-0.071800716
71	0xbdad0c92	-0.08449663
72	0x3c5d88e2	0.013521405
73	0xbe0c30fb	-0.1369056
74	0x3d50f59c	0.05101548
75	0xbdb31a52	-0.087452546
76	0xbc83cc18	-0.01608853
77	0xbd905e31	-0.070492156
78	0x3db17124	0.08664158
79	0x3e2d81f1	0.169441
80	0x3e0fff91	0.14062335
81	0xbc81378f	-0.015773563
82	0x3e411418	0.18855321
83	0x3e3b7166	0.18304977
84	0xbe0ab570	-0.13545775
85	0x3c968ba0	0.018377125
86	0x3de6f3c6	0.11276965
87	0x3cbdca78	0.023167834
88	0x3df6aab5	0.120442785
89	0x3db776b8	0.08958191
90	0x3e46df97	0.1942123
91	0x3e21bda2	0.15794995
92	0x3e00d9e0	0.12583113
93	0x3ddf993c	0.10917899
94	0xbe054224	-0.13013512
95	0x3d30bc27	0.043148186
96	0xbe2d3588	-0.16914952
97	0x3de85614	0.11344543
98	0x3dce22c1	0.100652225
99	0x3e14b9ed	0.1452405
100	0xbda72bfe	-0.08162688
101	0xbd413a0a	-0.04717449
102	0x3d0419f5	0.032251317
103	0xbe152629	-0.14565338
104	0xbd62af0b	-0.055342715
105	0xbe0ff5c2	-0.14058593
106	0x3e07929c	0.13239521
107	0xbe0e6f27	-0.13909589
108	0xbbca78e8	-0.006178964
109	0xbe016545	-0.12636288
110	0xbe4d153b	-0.2002763
111	0x3d34bcee	0.04412549
112	0xbc2ed937	-0.010671905
113	0x3daf0893	0.08546557
114	0xbd6449c3	-0.055734407
115	0x3cdc2811	0.026874574
116	0xbd15951e	-0.036519162
117	0xbe0110d8	-0.12604082
118	0xbe006ea4	-0.12542206
119	0xbde6a2c6	-0.11261515
120	0x3dd42286	0.10358147
121	0xbe39304b	-0.18084829
122	0xbe29156e	-0.16512081
123	0xbe191e42	-0.14952949
124	0xbe32199f	-0.17392586
125	0x3e299efd	0.16564555
126	0x3b00e1c0	0.0019665807
127	0x3e3ccb0b	0.1843683

rnn.weight_ih_l0 f4 [384, 128]
0	0xbd91fdee	-0.07128511
1	0xbc7281a2	-0.014801415
2	0xbd3f107b	-0.046646576
3	0x3d403c1a	0.046932317
4	0x3d547a4d	0.051874448
5	0xbd1e5dbb	-0.038663607
6	0xbc863ed4	-0.01638738
7	0xbd33cacc	-0.043894574
8	0xbcb686d0	-0.02228108
9	0x3d9a441a	0.075325206
10	0xbd70d6b5	-0.05879851
11	0x3ce7c092	0.028290067
12	0xbdad672c	-0.08466944
13	0x3d632c69	0.055462275
14	0x3d7c7f6e	0.061644964
15	0xbd1b9312	-0.037982054
16	0x3c896e03	0.01677609
17	0xbd88ed44	-0.0668588
18	0x3cc981b5	0.024597982
19	0x3b5641a3	0.003269293
20	0x3dc3376e	0.09532057
21	0xbd68c453	-0.056827854
22	0xbc8dc693	-0.017306602
23	0xbd880f47	-0.06643539
24	0xbd879f05	-0.066221274
25	0xbc9112a5	-0.017709086
26	0x3d9937eb	0.07481369
27	0x3d2d18fc	0.042260155
28	0x3db671a0	0.08908391
29	0x3cbee4dd	0.02330249
30	0x3c8cc78a	0.017184991
31	0xbcf382d9	-0.029725479
32	0xbd08c009	-0.033386264
33	0xbd5543bc	-0.05206655
34	0xbdb00a49	-0.08595712
35	0x3d93c743	0.072157405
36	0xbda30261	-0.07959438
37	0x3ceeb5d3	0.029139435
38	0x3c5a9816	0.013341924
39	0x3d757a1d	0.05993091
40	0x3db30759	0.08741636
41	0xbd733a1d	-0.059381593
42	0x3cfdabee	0.030965772
43	0x3d12c534	0.0358326
44	0xbd90951f	-0.070596926
45	0x3c4b261c	0.012399223
46	0x3d46c7a2	0.04853023
47	0xbd344bf6	-0.044017754
48	0x3dc91e44	0.09820226
49	0xbd69f181	-0.05711508
50	0xbc734f7e	-0.014850495
51	0xba98063c	-0.0011598538
52	0x3db68881	0.08912755
53	0x3d6443db	0.055728775
54	0xbce6d49c	-0.028177552
55	0x3ca6965b	0.020335367
56	0xbd28175a	-0.041037895
57	0x3da4f3c5	0.08054308
58	0x3d3a2e2c	0.04545419
59	0xbb8374fa	-0.0040117474
60	0x3da09cb5	0.078423895
61	0xbd422664	-0.047399893
62	0xbd835900	-0.0641346
63	0xbdbb80ce	-0.09155427
64	0x3dac5fc7	0.084167056
65	0xbc5f8d02	-0.013644459
66	0xbd866d17	-0.06563776
67	0x3d370e12	0.044691153
68	0x3d6ad8dd	0.057335723
69	0xbd24342b	-0.040088814
70	0x3d903c19	0.07042713
71	0xbd10e70d	-0.035376597
72	0xbd35d80d	-0.044395495
73	0x3c4c409e	0.012466578
74	0x3d4e5cc1	0.050381426
75	0x3d3c2061	0.045929316
76	0x3d0c952c	0.03432195
77	0x3c7bddda	0.015372718
78	0x3d75eaf3	0.06003852
79	0x3b71156b	0.0036786448
80	0xbd6f9aee	-0.05849736
81	0x3b3bd3f5	0.0028660272
82	0xbc4a645a	-0.012353027
83	0x3da08a49	0.07838876
84	0xbd0b8a95	-0.03406771
85	0xbc9ae814	-0.018909492
86	0xbd084fb4	-0.033279136
87	0x3d722061	0.05911291
88	0xbd1190b6	-0.035538398
89	0x3dafb504	0.08579448
90	0x3da5d452	0.080971375
91	0xbda2e29b	-0.07953378
92	0x3d918d84	0.0710707
93	0xbccf43d1	-0.025300892
94	0xbc742012	-0.014900224
95	0xbc5c5a85	-0.013449316
96	0xbd38613f	-0.045014616
97	0xbd556416	-0.052097403
98	0xbd80150d	-0.06254015
99	0x3cc28b49	0.023748057
100	0x3dbbbbd0	0.09166682
101	0x3dc2be74	0.09508982
102	0xbcc70be3	-0.02429766
103	0x3db25348	0.08707291
104	0x3dcf3fa7	0.101195626
105	0x3db0360a	0.08604057
106	0xbccdb6e9	-0.025111632
107	0xbd6cd1f9	-0.057817433
108	0xbc71eb14	-0.01476552
109	0xbc316296	-0.010826727
110	0xbd893ef4	-0.067014605
111	0x3d5081c4	0.050905004
112	0xbd85dd00	-0.06536293
113	0x3b05d209	0.002041938
114	0xbd333ccc	-0.043759152
115	0xbdaf002c	-0.08544955
116	0x3b6dceae	0.003628652
117	0xbc0a84f6	-0.008454552
118	0x3d211e37	0.039335456
119	0xbdb1ba10	-0.08678067
120	0x3ca7e8fb	0.020496836
121	0x3d690f28	0.05689922
122	0x3d155f8d	0.036468077
123	0xba9713f0	-0.0011526328
124	0x3d46ddc2	0.04855133
125	0xb9dad509	-0.00041738924
126	0x3d8f1d17	0.0698797
127	0x3d91cd9a	0.071192935
128	0x3d86861d	0.06568549
129	0xbd094fdc	-0.033523425
130	0xbd0d303d	-0.03446983
131	0x3d1c3297	0.038134184
132	0xbd3e5215	-0.046465
133	0x3ce4c059	0.02792375
134	0x3d5fc1e4	0.054628268
135	0x3d821670	0.06351936
136	0xbd520ab1	-0.051279727
137	0x3d52e044	0.051483408
138	0x3dbe66dd	0.09296963
139	0xbb02d361	-0.0019962417
140	0x3d1f318e	0.03886562
141	0x3dbd621c	0.092472285
142	0xbdae22a5	-0.08502702
143	0xbd8e8e1b	-0.06960698
144	0x3d17b85a	0.037041046
145	0x3cb66739	0.022266017
146	0x3da4c11b	0.080446444
147	0xbc9a7ba0	-0.018857777
148	0xbc9d639c	-0.019212537
149	0xbda0173f	-0.07816934
150	0xbdb3d108	-0.08780104
151	0xbd247d24	-0.040158406
152	0x3d861e2e	0.06548725
153	0xbc88e1f9	-0.016709315
154	0xbd0a9e3b	-0.033842307
155	0xbd5b12d1	-0.05348474
156	0x3d9460f5	0.072450556
157	0xbd6d204b	-0.057892125
158	0xbd09908f	-0.033585127
159	0x3da5ddcc	0.08098945
160	0x3d9f6dc5	0.07784609
161	0x3d1abf02	0.037779815
162	0xbb896392	-0.004192778
163	0x3ce840fe	0.028351303
164	0x3d0fb74c	0.035086915
165	0xbcc841a6	-0.024445366
166	0xbd36a704	-0.044592872
167	0x3db2b9a8	0.08726817
168	0x3c9c1dc3	0.01905716
169	0x3c1db0aa	0.0096246395
170	0x3d46a5a5	0.048497815
171	0x3d925671	0.07145394
172	0xbcb93db1	-0.022612425
173	0xbceeea91	-0.029164584
174	0x3db677fd	0.08909605
175	0x3db548bd	0.08851764
176	0x3d13b48b	0.03606085
177	0xbc54deb1	-0.012992547
178	0x3d68472b	0.056708496
179	0x3da965fb	0.08271404
180	0xbcc4ab98	-0.024007604
181	0xbdb4cbd4	-0.0882794
182	0xbda488a9	-0.08033878
183	0xbcf2503d	-0.029579276
184	0x3d1edb64	0.038783446
185	0xbc55afe5	-0.013042425
186	0xbb84b6b1	-0.004050099
187	0x3d4ec967	0.05048504
188	0x3d007647	0.031362798
189	0xbcff5add	-0.031171257
190	0xbc9d22b6	-0.01918159
191	0xbdd29e0a	-0.1028405
192	0xbd261cd9	-0.040554855
193	0x3afe502e	0.0019402558
194	0xbd5b46b1	-0.053534213
195	0x3d8cf7b7	0.06883185
196	0xbd11aee0	-0.035567164
197	0xbcc07b77	-0.023496373
198	0xbc8cec83	-0.017202621
199	0xbd567d0d	-0.05236535
200	0xbd614691	-0.054998938
201	0x3d75f143	0.06004454
202	0x3c94175f	0.01807755
203	0x3da394c7	0.079873614
204	0x3c434ba5	0.0119198905
205	0xbd49dbb6	-0.0492818
206	0x3be45389	0.006967966
207	0x3da5d8b8	0.080979764
208	0x3da33184	0.07968429
209	0x3d9448da	0.07240458
210	0xbd9bf301	-0.07614709
211	0x3d87835b	0.06616851
212	0xbcbb2bd3	-0.022848045
213	0x3d1cef3d	0.038314093
214	0xbd9d08bb	-0.07667681
215	0xbdadf736	-0.08494417
216	0xbc1524bf	-0.009102999
217	0xbd20781d	-0.03917705
218	0x3c1aa712	0.009439247
219	0xbc7b2bb8	-0.015330248
220	0xbdb69282	-0.08914663
221	0xbd306308	-0.043063194
222	0xbd3bff55	-0.0458978
223	0x3d0a9500	0.033833504
224	0x3d9b1b26	0.075735375
225	0xbd21d13e	-0.03950619
226	0x3db505dd	0.08839009
227	0xbc3d5ac1	-0.011557282
228	0x3d7ba310	0.061434805
229	0xbcf20294	-0.029542245
230	0xbd5a1c93	-0.053249907
231	0xbcc21f3e	-0.023696538
232	0xbcf0a919	-0.029377507
233	0xbdb44c91	-0.088036664
234	0x3c70ecfe	0.014704941
235	0x3d20e10e	0.03927713
236	0x3d0275e5	0.031850714
237	0x3d3ecaec	0.04658024
238	0xbcd3cd1d	-0.025854642
239	0xbd3a2a75	-0.045450646
240	0x3d228b61	0.039683703
241	0x3d17a420	0.037021756
242	0xbcde080e	-0.02710345
243	0x3caf71d2	0.021416578
244	0x3c8abd09	0.016935842
245	0x3d1a62ff	0.037692066
246	0xbd4edd6b	-0.05050413
247	0xbd60ae9b	-0.054854017
248	0x3d81635f	0.06317782
249	0x3d061289	0.03273252
250	0x3d893ef4	0.067014605
251	0xbd79670e	-0.060889296
252	0xbd2f94da	-0.042866565
253	0xbd9407c8	-0.07228047
254	0x3d44553a	0.04793284
255	0xbdbdb4d4	-0.09263006

rnn.weight_hh_l0 f4 [384, 128]
0	0xbce324ba	-0.027727474
1	0x3ced0f51	0.028937967
2	0xbd5be08f	-0.053680953
3	0x3cfef4b8	0.03112255
4	0xbd1d47f6	-0.038398705
5	0x3c0efb4c	0.008726906
6	0x3da9edd6	0.08297317
7	0x3b270951	0.002548773
8	0x3d1e1174	0.038590863
9	0xbdd4bdfe	-0.10387801
10	0xbbc62c39	-0.006047752
11	0xbd132c0e	-0.035930686
12	0x3dca682e	0.09883152
13	0xbd1c52a1	-0.03816474
14	0xbc3e12a2	-0.011601122
15	0x3c688bb9	0.014193469
16	0x3bba49cf	0.005685068
17	0x3d8653e4	0.065589696
18	0xbd65aedf	-0.056074973
19	0xbdbb5d5f	-0.091486685
20	0x3ce388c7	0.027775181
21	0xbd67c83a	-0.056587435
22	0xbcf27516	-0.029596847
23	0xbc184b5d	-0.009295312
24	0x3da45354	0.08023706
25	0xbd948e56	-0.07253711
26	0xbda51a5c	-0.08061668
27	0x3d8a239f	0.067450754
28	0xbcd322dd	-0.02577346
29	0x3d8eecdb	0.0697877
30	0xbd9fd970	-0.07805145
31	0xbdb938ea	-0.090440586
32	0xbd27f379	-0.041003678
33	0x3ce8f903	0.02843905
34	0x3cb8802a	0.02252205
35	0xbc1d5d4a	-0.009604761
36	0x3d8fc702	0.070203796
37	0xbd38651a	-0.045018293
38	0xbbe22db1	-0.0069024195
39	0xbdc0f3c0	-0.094214916
40	0x3da52278	0.08063215
41	0xbd7e5b42	-0.06209875
42	0x3d332f62	0.04374636
43	0x3d03c42d	0.03216951
44	0x3d41f160	0.047349334
45	0xbdab8ab0	-0.08376062
46	0xbd8dfbf3	-0.06932821
47	0xbda398f8	-0.07988161
48	0x3aa75d53	0.0012768902
49	0x3dc93b08	0.098257124
50	0x3c4305fe	0.011903284
51	0xbdae7b86	-0.08519654
52	0x3dcadfed	0.09905992
53	0x3cb74c44	0.022375233
54	0x3d88c8c3	0.06678917
55	0x3da97bb7	0.0827555
56	0x39cc1c9a	0.00038931222
57	0xbd19e15e	-0.037568443
58	0x3d049a4d	0.032373715
59	0x3d26375a	0.04058013
60	0x3a627394	0.00086384383
61	0xbc0fc2f5	-0.008774509
62	0x3d56ba4c	0.05242376
63	0x3d402712	0.04691226
64	0xbaa491ca	-0.0012555656
65	0x3d35e8e5	0.04441156
66	0x3c17e577	0.009271017
67	0x3b7d2f1b	0.0038632813
68	0x3da04c60	0.078270674
69	0xbc454c90	-0.01204218
70	0xbd74a087	-0.059723403
71	0xbd5a3e5f	-0.053282138
72	0xbb81dafd	-0.003962873
73	0x3c62d341	0.013844312
74	0xbda1527d	-0.078770615
75	0x3d8dbca7	0.06920748
76	0x3d8dcde8	0.06924039
77	0xbc8b256a	-0.016985614
78	0x3d3a0677	0.04541632
79	0xbdc1c7d5	-0.09461943
80	0xbc06a790	-0.008218661
81	0x3d46075c	0.048346862
82	0x3ba99678	0.005175408
83	0xbd9781e2	-0.0739782
84	0xbd8022e2	-0.06256653
85	0xbbac6986	-0.005261603
86	0xbd8fad26	-0.07015447
87	0xbd5994cf	-0.05312043
88	0x3d87d6d9	0.06632776
89	0x3d965159	0.073397346
90	0xbd34f155	-0.044175465
91	0x3d8919e8	0.06694394
92	0x3d8d2c12	0.06893171
93	0xbd0691b2	-0.03285379
94	0xbd80b183	-0.06283858
95	0x3d940684	0.07227805
96	0x3da04c4b	0.07827052
97	0x3d936449	0.07196862
98	0x3d0c0aab	0.03418986
99	0x3d850f32	0.06497039
100	0x3d1d7b8f	0.038447913
101	0xbd973ff5	-0.07385246
102	0xbda6b198	-0.08139342
103	0xbd4f1f9a	-0.050567247
104	0x3ce2e554	0.027697243
105	0x3c66cd95	0.0140871005
106	0x3c797bdd	0.015227285
107	0x3d36c912	0.04462535
108	0x3d361e16	0.044462286
109	0xbda0b5e3	-0.07847192
110	0x3d4dd727	0.050254013
111	0x3db1acc0	0.086755276
112	0xbc639564	-0.013890598
113	0x3ddeedc9	0.10885198
114	0xbdc8459f	-0.09778904
115	0x3d7ff12d	0.062485863
116	0xbd061ec5	-0.032744188
117	0x3d84a2bd	0.06476352
118	0xbc89ada6	-0.016806435
119	0x3dc1047c	0.094246835
120	0xbca0990f	-0.019604234
121	0xbdc9646a	-0.098336056
122	0xbd625ba6	-0.055263184
123	0xbcab6d2b	-0.020926079
124	0xbd99d0cb	-0.07510527
125	0x3b688b25	0.0035483327
126	0x3dacc4b5	0.084359564
127	0xbc9775af	-0.018488733
128	0x3da1cd09	0.079004355
129	0xbd4d1e4d	-0.050077725
130	0xbc5d4a8b	-0.013506542
131	0xbd369a1c	-0.044580564
132	0x3cc47248	0.023980275
133	0x3d5cbf7a	0.053893544
134	0xbb70faca	-0.0036770576
135	0xbd4ea2bd	-0.050448168
136	0x3ce41b0e	0.027844932
137	0xbc58475b	-0.013200606
138	0xbd251229	-0.040300522
139	0x3d961284	0.0732775
140	0xbc6121cb	-0.013740967
141	0xbd92a007	-0.07159429
142	0x3c15be77	0.009139649
143	0xbd6e70ce	-0.058213048
144	0x3d1eb57a	0.03874729
145	0x3dc36769	0.09541208
146	0x3cb08000	0.02154541
147	0x3cbb8e4e	0.022895005
148	0x3da61f49	0.08111436
149	0x3d5928d0	0.053017437
150	0xbdc45a0b	-0.09587487
151	0xbd827e2e	-0.06371723
152	0xbda2613a	-0.07928701
153	0xbc548bf8	-0.012972824
154	0xbbd40b27	-0.006471056
155	0x3d55bcd7	0.052182045
156	0x3d7291a4	0.059220925
157	0xbda0611b	-0.078310214
158	0x3d177132	0.036973186
159	0xbb3764bb	-0.0027983624
160	0xbc354c31	-0.011065529
161	0x3dadedf4	0.084926516
162	0x3db19b11	0.08672155
163	0xbd18804d	-0.037231732
164	0x3d72d5fa	0.059286095
165	0x3d2a575f	0.04158723
166	0x3ccdc0df	0.025116382
167	0x3dbbb313	0.09165015
168	0xbdab9955	-0.08378855
169	0xb8b4c843	-8.6203705e-05
170	0x39dd9bfb	0.0004226862
171	0x3d128e08	0.035779983
172	0x3b484875	0.0030560766
173	0x3ca90ada	0.020635057
174	0xbc74d014	-0.014942188
175	0x3c45cf55	0.012073358
176	0x3c87c42f	0.01657304
177	0xbbcf69fc	-0.006329773
178	0x3cedb302	0.029016022
179	0x3d84a864	0.064774305
180	0xbb9b0bbb	-0.004731623
181	0xbc45e2eb	-0.012078027
182	0xbd35cee3	-0.044386756
183	0x3dc37a53	0.09544816
184	0x3cc0d6d2	0.023539934
185	0x3d0d1eac	0.03445308
186	0x3ccace02	0.024756435
187	0x3d961343	0.07327893
188	0xbd8072e4	-0.06271914
189	0x3d723bb3	0.059138965
190	0xbccaf530	-0.024775118
191	0x3cfa4221	0.03054911
192	0xbc8e6ef2	-0.017386887
193	0x3cf67e5c	0.03008955
194	0x3d925be2	0.071464315
195	0xbc4b7b3d	-0.012419519
196	0xbc0f219f	-0.008736043
197	0x3d5edae4	0.05440797
198	0xbdc23e4e	-0.0948454
199	0x3b2644d6	0.002537062
200	0x3d25b34e	0.0404542
201	0x3cea977e	0.02863669
202	0x3d0e1181	0.03468466
203	0xbda9b8cf	-0.082872026
204	0xbc32e5fc	-0.01091909
205	0x3cc88ab6	0.024480205
206	0xbd0cd691	-0.034384314
207	0x3d720a52	0.059091873
208	0xbd9de0b8	-0.07708877
209	0xbca84306	-0.020539772
210	0x3da01450	0.07816374
211	0xbd51849f	-0.051151868
212	0xbd8874e8	-0.06662923
213	0x3c0d607e	0.008628963
214	0x3c948b0c	0.018132709
215	0x3c16deea	0.00920842
216	0x3da433a2	0.08017661
217	0xbb2a32fe	-0.0025970335
218	0xbc124eff	-0.008929967
219	0xbc252419	-0.010079407
220	0xbd876bb7	-0.06612342
221	0xbbf53890	-0.0074835494
222	0x3d18a9ad	0.03727119
223	0x3dad3816	0.08457963
224	0xbd89a0c1	-0.067201145
225	0xbdadfbc3	-0.08495285
226	0x3dafaf25	0.08578328
227	0xbddf679c	-0.10908434
228	0xbc81e0ad	-0.015854204
229	0x3dd43204	0.10361102
230	0xbd9d3536	-0.07676165
231	0x3d3b1533	0.045674514
232	0x3dabec39	0.08394665
233	0xbd7e0c4a	-0.06202344
234	0xbce0729e	-0.027398404
235	0xbd8291f4	-0.063754946
236	0x3d1b52d8	0.037920803
237	0xbd63089d	-0.055428136
238	0x3da6046c	0.08106312
239	0xbd327c6d	-0.043575693
240	0x3c98f022	0.018669192
241	0x3993b40d	0.00028172173
242	0xbd8b2d31	-0.06795729
243	0xbcaffd75	-0.021483162
244	0x3b4ab04a	0.003092783
245	0xbd3e76f6	-0.04650017
246	0x3b46a5cd	0.0030311227
247	0xbd0bb5da	-0.034108974
248	0x3db4da80	0.08830738
249	0x3c06e675	0.008233656
250	0xbd857faf	-0.06518494
251	0xbd15d6ea	-0.03658191
252	0x3dc24b31	0.09486998
253	0x3da5cd1f	0.08095764
254	0x3d8b57ed	0.0680388
255	0xbd9ab9c8	-0.07554966

rnn.bias_ih_l0 f4 [384]
0	0xbda6587c	-0.08122346
1	0x3cccbac5	0.024991402
2	0x3d5e0c7e	0.054211132
3	0xbd4c9457	-0.049946155
4	0x3da37468	0.07981187
5	0xbcfe355c	-0.031031303
6	0xbd819762	-0.06327702
7	0xbdc06658	-0.093945205
8	0x3cf481a5	0.029846976
9	0x3d92c0b8	0.071656644
10	0x3d4f7504	0.050648704
11	0xbda3b6db	-0.07993861
12	0x3c6649e0	0.014055699
13	0x3c98e05c	0.01866167
14	0x3ca641b1	0.020294996
15	0x3d073826	0.03301253
16	0xbda5f779	-0.08103842
17	0x3d04b9d9	0.0324038
18	0x3db0550d	0.08609972
19	0x3ce65964	0.028118797
20	0xbd81be4b	-0.06335124
21	0xbd14c27f	-0.0363183
22	0xbda9f768	-0.08299142
23	0xbdab2e50	-0.08358443
24	0x3d063975	0.03276964
25	0x3d065186	0.03279259
26	0xbcfddc63	-0.030988878
27	0xbd158134	-0.03650017
28	0x3d85106c	0.06497273
29	0x3d411995	0.047143538
30	0xbd52e511	-0.051487986
31	0xbd441261	-0.04786909
32	0xbd958515	-0.07300774
33	0x3d347f9e	0.044067018
34	0xbd2e7dc9	-0.042600427
35	0x3ce224b2	0.027605388
36	0x3d922fce	0.07138024
37	0xbd4af277	-0.04954764
38	0xbd97345c	-0.07383034
39	0x3ca6b9be	0.02035224
40	0x3d29fa1c	0.04149829
41	0xbd02cb8b	-0.031932395
42	0xbc872c13	-0.016500508
43	0x3dce61e8	0.10077268
44	0xbc837775	-0.016048172
45	0xbd5a047b	-0.05322693
46	0x3cb0c476	0.021578055
47	0xbb20962e	-0.0024503577
48	0x3c334e02	0.0109438915
49	0x3d8fec33	0.07027473
50	0xbc2b72a5	-0.010464345
51	0xbbfd3805	-0.0077276253
52	0xb9210c7f	-0.00015358812
53	0xbb4e9706	-0.0031523122
54	0x3db68f24	0.08914021
55	0x3cf170b7	0.029472692
56	0xbd61cce2	-0.055127032
57	0xbc17f76f	-0.009275301
58	0xbc8fbe0d	-0.017546678
59	0xbdc9d033	-0.09854164
60	0xbd9d0a80	-0.07668018
61	0xbd16bf06	-0.036803268
62	0xbc76fd7f	-0.015075087
63	0xbb5088d4	-0.0031819837
64	0x3da9978f	0.08280861
65	0x3d5b30c7	0.053513315
66	0xbd243b86	-0.04009583
67	0x3d9d6120	0.07684541
68	0xbc94ecc5	-0.018179307
69	0x3cc5cb93	0.024144923
70	0xbd03291f	-0.032021638
71	0xbc8a3dba	-0.016875137
72	0x3d433072	0.047653623
73	0xbd8ecaf8	-0.06972307
74	0x3cbb26a0	0.022845566
75	0xbd9d9404	-0.07694247
76	0x3dbff09b	0.09372064
77	0xbd94c301	-0.072637565
78	0x3d206de9	0.03916732
79	0xbd83268a	-0.06403835
80	0x3d1edadf	0.03878295
81	0x3d1d7f51	0.038451497
82	0x3d7f4ece	0.062331013
83	0x3c62a7f6	0.01383399
84	0xbc26c759	-0.010179364
85	0x3dbc9a7f	0.09209155
86	0x3d0be55e	0.03415429
87	0xbd2bf282	-0.04197932
88	0x3d2dfeb8	0.042479247
89	0xbcbac3d2	-0.022798453
90	0xbd816e87	-0.063199095
91	0x3d6a585a	0.057213165
92	0xba107727	-0.0005510919
93	0x3c645fe4	0.013938878
94	0x3cae85f0	0.0213041
95	0x3da4eba1	0.08052755
96	0x3d814ef0	0.06313884
97	0x3dd3a3f7	0.10334008
98	0xbd8ef4e0	-0.069803
99	0x3d9063b0	0.07050264
100	0xbccfc9af	-0.025364725
101	0xbda829e8	-0.08211118
102	0xbda94e64	-0.08266905
103	0xbd211a3a	-0.039331652
104	0xbc9e113f	-0.019295333
105	0x3c8bb21b	0.0170527
106	0x3d693ce9	0.056942854
107	0xbd3cad84	-0.046063915
108	0xbcd13996	-0.025540154
109	0x3daa7b78	0.08324331
110	0xbd08027b	-0.03320549
111	0x3cdcd782	0.02695823
112	0xbd11e443	-0.035618078
113	0x3dc709df	0.0971868
114	0xbbd3329a	-0.006445241
115	0xbd921234	-0.07132378
116	0xbd14aa8c	-0.03629546
117	0x3d28447c	0.041080937
118	0x3db87213	0.09006133
119	0x3c159ac7	0.00913114
120	0x3cd643b6	0.026155334
121	0xbd73f349	-0.059558187
122	0xbcb975d3	-0.02263919
123	0xbd898359	-0.06714506
124	0xbcd4e2df	-0.025987087
125	0xbbcb0a55	-0.0061963
126	0xbc8f8db8	-0.017523631
127	0xbdcb979b	-0.09941026
128	0xbd0c0caf	-0.034191784
129	0xbafa8e6c	-0.0019115931
130	0xbd993bd1	-0.07482112
131	0x3d057b4a	0.03258828
132	0xbaee3db8	-0.0018176353
133	0xbd21b596	-0.039479814
134	0xbc4e59b5	-0.01259463
135	0x3daa6473	0.083199404
136	0xbd02750e	-0.031849913
137	0x3d65c59a	0.05609665
138	0xbd0a608a	-0.033783473
139	0xbd348eb2	-0.044081397
140	0xbc8c5b57	-0.017133398
141	0x3d139768	0.036033064
142	0x3aa10c45	0.0012286982
143	0xbd9775d0	-0.07395518
144	0xbc8617bf	-0.016368745
145	0x3d9087fe	0.070571885
146	0x3da705c2	0.08155395
147	0x3d67fcbb	0.056637507
148	0xbd326b47	-0.04355934
149	0x3cc7a53f	0.024370788
150	0x3db95796	0.09049909
151	0xbd039e9c	-0.032133684
152	0x3caaaaf2	0.020833466
153	0x3b9d704a	0.0048046457
154	0xbbc1d5de	-0.0059153875
155	0x3d6129cd	0.054971505
156	0x3dbbd096	0.09170644
157	0xbd8d3e40	-0.06896639
158	0x3dcc4f6a	0.099760845
159	0xbcdb2edc	-0.026755743
160	0xbbdaeea5	-0.0066812807
161	0x3dded5c4	0.10880616
162	0x3da828ad	0.08210883
163	0xbd40edcd	-0.047101784
164	0x3da60668	0.08106691
165	0xbd848df3	-0.06472387
166	0xbc49f862	-0.0123272855
167	0x3c06d2a6	0.008228933
168	0x3da7ff71	0.082030185
169	0x3d5107e7	0.051032927
170	0x3d4b42cc	0.04962425
171	0xbd030a09	-0.031991992
172	0x3dcec064	0.10095289
173	0x3dabae3a	0.083828405
174	0x3dc746d7	0.097303085
175	0xbca6ecf7	-0.020376666
176	0xbd08822f	-0.033327278
177	0x3d6e8683	0.05823375
178	0xbd5bf1ad	-0.053697277
179	0x3cb51056	0.022102516
180	0x3c5298b0	0.012853786
181	0x3cb8a645	0.022540221
182	0x3dc0c825	0.094131745
183	0xbd07a9f5	-0.033121068
184	0x3daa3e6c	0.08312687
185	0x3d90b5a4	0.07065895
186	0xbd9949e3	-0.07484796
187	0x3b645973	0.0034843355
188	0x3d9c356e	0.076273784
189	0xbcf7fad7	-0.030270977
190	0xbc675203	-0.014118674
191	0x3d246e14	0.04014404
192	0xbc84365c	-0.016139202
193	0x3da51627	0.08060866
194	0xbd4599a9	-0.048242245
195	0x3dbe9091	0.093049176
196	0x3d599fd2	0.053130932
197	0x3b42c4d3	0.0029719367
198	0xbca095bd	-0.01960265
199	0x3c74ed3e	0.014949141
200	0xbd2bc897	-0.041939344
201	0x3d7915ac	0.060811684
202	0x3dadec02	0.084922805
203	0xbd6af3e7	-0.05736151
204	0x3db694a6	0.08915071
205	0x3dd11de6	0.10210781
206	0xbb86ffde	-0.004119857
207	0xbd6ae035	-0.057342727
208	0xbce10964	-0.027470298
209	0x3c968325	0.018373081
210	0x3d7b41eb	0.06134216
211	0x3d973310	0.07382786
212	0x3ca7891c	0.020451121
213	0x3cf745b8	0.030184612
214	0x3d43077b	0.047614556
215	0xbd6b03c1	-0.057376627
216	0xbcd2d174	-0.02573464
217	0xbcebc6ae	-0.028781261
218	0x3dab2d8f	0.08358299
219	0x3c99bb2a	0.018766005
220	0x3da1325b	0.07870933
221	0xbd77ee01	-0.060529713
222	0x3d87a27e	0.0662279
223	0xbb43d60a	-0.0029882216
224	0xbd713764	-0.058890715
225	0x3cb3ec90	0.021963388
226	0x3cf4d677	0.029887421
227	0xbb9c96cc	-0.0047787186
228	0xbc100bc6	-0.0087918695
229	0x3bd14e0f	0.006387479
230	0x3d8392be	0.06424473
231	0x3d38a70b	0.04508118
232	0xbd1aeab5	-0.03782149
233	0x3d8c8c97	0.06862753
234	0x3d96c67f	0.07362079
235	0xbd5cf0ca	-0.05394057
236	0x3d3edab3	0.046595287
237	0xbce459de	-0.027874883
238	0xbcbc65d9	-0.022997783
239	0x3d382307	0.04495528
240	0x3d0c6ec5	0.034285326
241	0x3da1818d	0.07886038
242	0x3dc6059a	0.09669037
243	0x3cecee8f	0.028922347
244	0x3d4d14ea	0.050068773
245	0x3db1df10	0.08685124
246	0x3cb71546	0.022349011
247	0xbdb6ed7f	-0.089320175
248	0x3d2993ba	0.04140065
249	0xbd273bce	-0.04082852
250	0x3d37d101	0.044877056
251	0xbbeef727	-0.0072926464
252	0x3d9c83c2	0.07642318
253	0x3cf2afc3	0.029624825
254	0x3c5d161e	0.013494043
255	0xbd5fecd1	-0.054669205
