results/Heartbeat_SegRNN_sl_96/2/checkpoint.pth (torch, 488931 bytes, 12 tensors)

pos_emb f4 [4, 64]
0	0x3f559b04	0.8343966
1	0x3e97740f	0.29580733
2	0x3edb1a6a	0.4279359
3	0x3f33c926	0.70228803
4	0x400b5b32	2.1774411
5	0xbf4ec915	-0.80775577
6	0x3fb3006f	1.3984507
7	0xbfcd488d	-1.6037766
8	0xbf23f6a8	-0.6404824
9	0x3f00cb6b	0.5031039
10	0xbf518646	-0.8184551
11	0xbf5be9d6	-0.8590368
12	0x3e7b8ab9	0.24564637
13	0xc01471c0	-2.3194427
14	0xbf277ce3	-0.65424937
15	0xbfae7ea3	-1.3632396
16	0x3f8733fd	1.056274
17	0x3f81ddba	1.014579
18	0xbf231364	-0.6370146
19	0x3f89468c	1.0724654
20	0x3f82fd07	1.0233468
21	0x3fa1a1f7	1.2627553
22	0xbec10a36	-0.37703103
23	0x3fc126c7	1.5089959
24	0x3f43f2c8	0.7654233
25	0xbfa85cd5	-1.315333
26	0xbeed03d0	-0.4629197
27	0xbeff6e5e	-0.4988889
28	0x3da71dea	0.081600025
29	0xbd04e744	-0.032447115
30	0xbd28f21c	-0.04124652
31	0xbf531faa	-0.8247019
32	0xbf48eceb	-0.7848651
33	0xc043efb1	-3.0615046
34	0x3f6a01f0	0.91409206
35	0x3eb640dc	0.3559636
36	0xbf4657a5	-0.77477485
37	0x3ecfac15	0.40560976
38	0x3fa7b9b0	1.3103542
39	0x3f6c7994	0.92373013
40	0x4000b5fa	2.011107
41	0xbfbc92ea	-1.4732335
42	0xbc0cfea8	-0.008605637
43	0xbef9bcb9	-0.48776796
44	0x3f539c11	0.82660013
45	0x3e420f74	0.18951207
46	0x3f484010	0.7822275
47	0x3fc6abf9	1.5521232
48	0xbdca491d	-0.098772265
49	0xbf397567	-0.72444767
50	0xbef88b57	-0.48543808
51	0xbefe6caf	-0.49692294
52	0xbf9efd0c	-1.2420974
53	0x3f3d63ac	0.7398021
54	0xbe929222	-0.28627115
55	0x3ed51600	0.41618347
56	0xbf082634	-0.53183293
57	0x3ddab093	0.1067821
58	0xbe9a17fb	-0.3009642
59	0xbf2d44d1	-0.6768313
60	0xbf7e95f4	-0.9944756
61	0x3f0dcdbb	0.55392045
62	0xbcca0204	-0.024659164
63	0x3f170e93	0.59006613
64	0xbeaf3601	-0.3422089
65	0x3f07c613	0.5303661
66	0x3f6327c1	0.88732535
67	0xbfa8381d	-1.3142124
68	0xbf595ebc	-0.8491018
69	0x3fae90ac	1.36379
70	0x400ad4d3	2.1692398
71	0xbf5ba149	-0.85792977
72	0xbf92c403	-1.1466068
73	0x3dee435f	0.11633944
74	0x3f90d644	1.1315389
75	0x3decc5f8	0.11561197
76	0xbec7669b	-0.3894547
77	0x4002426c	2.035304
78	0x3faa9fea	1.3330052
79	0xbd24abd9	-0.04020295
80	0x3f0ec2a8	0.5576577
81	0xbf1d62a9	-0.6147867
82	0xbf0a23c2	-0.5396081
83	0x3dc9e904	0.09858897
84	0x3d9414e2	0.072305456
85	0xbf7f5ced	-0.9975117
86	0xc0092c6a	-2.1433358
87	0x3f00f4f2	0.50373757
88	0x3f5d34d3	0.8640873
89	0xbf5a6aad	-0.85319024
90	0xbffd6eef	-1.9799479
91	0x3f3a2163	0.72707194
92	0x3f743f19	0.9540878
93	0xbda3e3f6	-0.080024645
94	0x3ec7839c	0.38967597
95	0xbf3f4427	-0.7471337
96	0x3ef05f40	0.4694767
97	0xbded2e1e	-0.11581062
98	0xbf042960	-0.51625633
99	0xbe07ed83	-0.13274197
100	0xbf8f5b56	-1.1199749
101	0x3fc61509	1.547517
102	0x3ed42611	0.41435292
103	0x3f9591c5	1.168511
104	0xbf159828	-0.58435297
105	0x3f64bdf3	0.8935234
106	0xbf86c33c	-1.0528331
107	0x3f89f2c3	1.077721
108	0x3fbf17e0	1.4929161
109	0xbf766415	-0.96246463
110	0x3f713d3e	0.94234073
111	0xbe01a2fe	-0.12659833
112	0xbe32d934	-0.17465669
113	0x3f93c594	1.1544671
114	0x3f5beeb9	0.85911137
115	0xbe92aca8	-0.2864735
116	0x4015c504	2.3401499
117	0x3eee6df9	0.46568277
118	0x3e38d947	0.18051635
119	0xbddf9d7f	-0.10918712
120	0x3f025f65	0.5092681
121	0x3fed83f8	1.8555899
122	0xbfa1a53f	-1.2628554
123	0xbf2ed8eb	-0.6829974
124	0xbdf9e377	-0.122015886
125	0xbec6df97	-0.3884246
126	0x3f1cbe24	0.6122763
127	0x3ff4b1ae	1.9116724
128	0x3fc4cc52	1.5374854
129	0x3e8a7e51	0.27049497
130	0x3d1f67b0	0.038917243
131	0x3e50484b	0.20340078
132	0x3ed9b91a	0.42524034
133	0x3eb4f7fd	0.3534545
134	0x3e18bee6	0.14916572
135	0xbfc3f369	-1.5308658
136	0xbe6bebde	-0.23039195
137	0xbe041831	-0.12899853
138	0xbf5f7bf4	-0.8729851
139	0x3e6378f4	0.22214109
140	0xbfa9b9a7	-1.3259782
141	0xbe62b944	-0.22140986
142	0x3c731c03	0.0148382215
143	0x3fb89788	1.4421244
144	0xbf924425	-1.1427046
145	0x3e1e9236	0.15485463
146	0x3f734944	0.9503367
147	0x3e9f0091	0.3105512
148	0x3f9083ff	1.1290282
149	0x3fce3024	1.6108441
150	0xbf2dfb7d	-0.67961866
151	0x401b5ca3	2.427529
152	0xc0100f65	-2.2509396
153	0xbfb083fa	-1.3790276
154	0xbf6908e7	-0.9102921
155	0x3fab533d	1.3384777
156	0x3e99b6ee	0.30022377
157	0x3f91db31	1.1395017
158	0xbfc2d33a	-1.5220711
159	0xbc8390ea	-0.016060311
160	0x3efe6379	0.49685267
161	0x3e8102e7	0.25197527
162	0xbf2a56de	-0.665388
163	0xbf91bb4c	-1.1385283
164	0x3edb1807	0.4279177
165	0x3ee6716e	0.45008415
166	0x3e6f2fb8	0.23358047
167	0xbf75aafb	-0.9596402
168	0x3f13bae1	0.5770703
169	0x3f25417e	0.6455306
170	0xbf276a48	-0.6539655
171	0x3bbfc8de	0.0058528027
172	0xbf9eab7e	-1.2396085
173	0x3f61269b	0.8794953
174	0x3fa8a588	1.3175516
175	0xbfe680e2	-1.8008082
176	0x4014cba6	2.3249297
177	0xbdc25af4	-0.09490004
178	0xbed4fe2b	-0.41600165
179	0xbf10d544	-0.5657542
180	0xbf6e2933	-0.93031615
181	0xbe9a5017	-0.3013923
182	0x3f63f602	0.89047253
183	0x400c4a0e	2.19202
184	0x3f590863	0.8477842
185	0xbe5f1c7b	-0.21788208
186	0xbe4fb8c2	-0.20285323
187	0xbfb42218	-1.4072905
188	0xbf9ad8da	-1.2097428
189	0x3f7ae1d6	0.9800085
190	0xbf6205ac	-0.88289905
191	0xbf0cd155	-0.55006915
192	0xbf31562f	-0.6927213
193	0xbf88082f	-1.0627497
194	0xbf4e0c6b	-0.804877
195	0xbf509ce9	-0.81489426
196	0x3f884782	1.0646822
197	0xbf3e4e8c	-0.74338603
198	0x3f281ba3	0.6566717
199	0xbf6a1c4f	-0.91449445
200	0xbf982be8	-1.1888399
201	0x3f707ab3	0.93937224
202	0x3fbe9fc6	1.4892509
203	0xbf49ddc3	-0.78854007
204	0xbefe65de	-0.49687093
205	0xbeeee2f1	-0.46657518
206	0x3f4e7923	0.8065359
207	0x3ea0922c	0.3136152
208	0x3d15f002	0.036605842
209	0x3f30bb95	0.6903623
210	0x3d66a389	0.056308303
211	0xbf2ecab0	-0.68278027
212	0xbecf0222	-0.40431315
213	0x3fb97738	1.4489508
214	0xbfb1b99f	-1.3884772
215	0xbeb8e06a	-0.36108714
216	0x3f9f9c12	1.2469504
217	0x3f816d0b	1.0111402
218	0x3f7cebe7	0.9879746
219	0xbf68dd1c	-0.90962386
220	0x3f826bf0	1.018919
221	0xbf5c0ae1	-0.859541
222	0x3f94b74e	1.161844
223	0x3e82244a	0.2541831
224	0x3f721b73	0.94573134
225	0x3f0a04b9	0.53913456
226	0x3f6e0e98	0.9299102
227	0x3e059277	0.13044153
228	0x400fcd2f	2.2468984
229	0xbf413581	-0.75472265
230	0xbf4f00a6	-0.80860364
231	0x3f9014e4	1.1256375
232	0x3ea436ec	0.32073152
233	0xbd1d0376	-0.03833338
234	0x3f016ddd	0.50558263
235	0xbe804c6f	-0.25058314
236	0x402ad8d7	2.6694849
237	0xbf3e6a7a	-0.7438122
238	0x3e9d34e7	0.30704424
239	0xbf9c7c04	-1.2225347
240	0x3f3cf776	0.73815095
241	0x3edd9e15	0.4328467
242	0xbe34c27c	-0.17652315
243	0x3e90c1ff	0.28273007
244	0x3f4599b6	0.7718767
245	0x3fc01486	1.5006263
246	0x3f5788eb	0.84193295
247	0x3e3ce163	0.18445353
248	0xbe8ae517	-0.27127907
249	0x3f99889e	1.1994817
250	0xbed51ae6	-0.41622084
251	0xbf0d742e	-0.552554
252	0xbee7b915	-0.45258394
253	0x40289ee5	2.6346982
254	0x3ec02e1a	0.37535173
255	0x3e26816c	0.16260308

channel_emb f4 [61, 64]
0	0xbe971ee9	-0.2951577
1	0xbfe7d585	-1.8112036
2	0xbfc7ad66	-1.5599792
3	0x3c9d2c05	0.01918603
4	0x3f3a1f44	0.7270396
5	0xbe56edd4	-0.20989162
6	0xbef252a9	-0.4732869
7	0x3ebde355	0.37087503
8	0xbd564e38	-0.05232069
9	0xbdad7689	-0.084698744
10	0xbf67e61c	-0.90585494
11	0xbf97bc6a	-1.1854374
12	0x3f2bfd88	0.67183733
13	0x3f55a766	0.83458555
14	0xbf67246f	-0.9028997
15	0x3ed9b612	0.4252172
16	0xbf8f108d	-1.1176926
17	0x3ecbff41	0.3984318
18	0x3fd029d9	1.6262771
19	0x3ec4bc17	0.3842475
20	0xbf91d0ed	-1.1391884
21	0x3f89edc5	1.0775687
22	0x3f800d77	1.0004109
23	0x402b0e09	2.6727316
24	0xbf0a59a8	-0.54043055
25	0x3ffbb23d	1.9663769
26	0x3d8685e8	0.06568509
27	0x3fbd0c6c	1.4769416
28	0x3fa7f383	1.3121189
29	0x3f3cfddd	0.73824865
30	0xbeda8038	-0.42675948
31	0x401f2f26	2.4872527
32	0xbed9329e	-0.4242143
33	0xbedd2806	-0.43194598
34	0xbf056545	-0.5210765
35	0xbf9f11f6	-1.2427356
36	0x3eacf8e6	0.33783644
37	0xbe75ba9e	-0.2399697
38	0x3ed36d94	0.4129454
39	0xbfa3ccbb	-1.2796854
40	0x3f5259c9	0.8216825
41	0xbf92c4c6	-1.14663
42	0xbe96ccf8	-0.29453254
43	0x3f4a2772	0.7896644
44	0xbf203b96	-0.6259092
45	0x3e7f4346	0.24928007
46	0x3f7b3dca	0.9814116
47	0xbee95247	-0.45570585
48	0xbf85ac36	-1.044318
49	0xbdb5239e	-0.08844684
50	0xbeeeb36f	-0.46621272
51	0x400871d9	2.1319487
52	0xbfab97ed	-1.3405739
53	0x3dc0257d	0.0938215
54	0x3fc9685b	1.5734972
55	0xbf7da1c3	-0.99074954
56	0xbf11434e	-0.56743324
57	0x3f753039	0.95776707
58	0xbf78cfa4	-0.97191834
59	0xbf3a85c8	-0.72860384
60	0xbeef4c7b	-0.46738037
61	0xbf698d8c	-0.9123161
62	0xbebc1ebb	-0.36742195
63	0xbe80c4f1	-0.25150254
64	0xc01d4a99	-2.457678
65	0x3f9d94cc	1.2311034
66	0xbfb6b8b6	-1.4275119
67	0x3cb884ea	0.022524316
68	0x3f29ebe3	0.6637556
69	0xbe88900b	-0.26672396
70	0x3e0d0c54	0.13774234
71	0x3f707d61	0.93941313
72	0xbf5461d0	-0.8296175
73	0x3e79cea4	0.24395233
74	0x3f56e1d5	0.8393834
75	0xbea3ae6a	-0.31969005
76	0x3d935584	0.07194045
77	0x3f9a77f7	1.206786
78	0xbfb689e1	-1.4260827
79	0xbee15e18	-0.440171
80	0xbe23046b	-0.15919654
81	0xbfd9e6cb	-1.7023557
82	0xbe1eacb2	-0.15495566
83	0x3c9a0d90	0.018805295
84	0xbe891c1f	-0.26779267
85	0xbf3b239c	-0.7310121
86	0x3f82200a	1.0166028
87	0xbd4ef981	-0.050530914
88	0x3e790a80	0.24320412
89	0xbe102bf8	-0.14079273
90	0x3f6cab37	0.92448753
91	0x3fabd4f6	1.3424366
92	0x3ffe2bab	1.9857076
93	0x3f89fd8a	1.0780499
94	0x3e1e3dcf	0.15453266
95	0xbf7909c9	-0.97280556
96	0x3f94d4f1	1.1627485
97	0x3c5914c8	0.013249584
98	0x3ebc65f0	0.36796522
99	0x3fce4de7	1.6117524
100	0x3f0f5388	0.55986834
101	0xbf9390b7	-1.1528538
102	0x3ebb4a9c	0.3658036
103	0xc01d96cb	-2.4623287
104	0x3f0c245f	0.54743
105	0xbf5d7245	-0.86502486
106	0xbe83eacd	-0.25765076
107	0xbf40ef1a	-0.7536484
108	0xbf1c0005	-0.6093753
109	0x3e8a0dd6	0.2696368
110	0xbe7d9514	-0.247639
111	0xbf8ab90a	-1.083772
112	0xbecf0330	-0.4043212
113	0x3f2c8211	0.67385966
114	0xbe2b1bc7	-0.16709815
115	0x3ee78c4d	0.45224229
116	0x3eb7c2d2	0.35890824
117	0x405310ec	3.2979078
118	0x3f6ce588	0.92537737
119	0xbe8a87bf	-0.2705669
120	0xbf0d5e66	-0.55222166
121	0x3ddd6c9d	0.10811732
122	0xbf4f5971	-0.8099585
123	0x3e0f3540	0.13985157
124	0xbeae934c	-0.34096754
125	0x3f714f95	0.9426206
126	0xbb2ad0ae	-0.0026064324
127	0x3e61287a	0.21988097
128	0x3e94fa2f	0.29097125
129	0x3f7f2973	0.9967262
130	0xbf1e978a	-0.6194998
131	0xbf0d7718	-0.5525985
132	0xbf890ae8	-1.0706453
133	0x3e2d7b6a	0.1694161
134	0x3e6a6f9a	0.22894135
135	0xbf6f7be9	-0.93548447
136	0xbf617365	-0.88066703
137	0xc00b2e92	-2.1747174
138	0x40299855	2.6499226
139	0xbec79ac2	-0.38985258
140	0x3f1a0206	0.6015934
141	0x3fb6483a	1.4240792
142	0xbf262d56	-0.6491293
143	0xbeb4cac6	-0.35310954
144	0xbdf4cbe4	-0.119529516
145	0x3f0dd8f3	0.55409163
146	0xbed6788c	-0.41888845
147	0x3f9ac1bb	1.2090372
148	0xbfcf720f	-1.6206683
149	0xbf4e3efb	-0.8056485
150	0xbfad8f2f	-1.3559321
151	0x3da36e31	0.07980002
152	0x3d47bac7	0.04876211
153	0x3b2d8ba5	0.002648094
154	0xbea41b02	-0.32051855
155	0xbe2e8bfd	-0.17045589
156	0xc00cc1d4	-2.1993303
157	0xbf24f0b0	-0.6442976
158	0xbe3e916b	-0.1861016
159	0xbf2e8a03	-0.6817934
160	0xbeaaa390	-0.33327913
161	0x3e09c2f2	0.13453272
162	0xbfaf0d80	-1.3675995
163	0xbe826551	-0.25467923
164	0x3fdb615c	1.7139087
165	0xbeb5db9e	-0.35519117
166	0xbfafe8da	-1.3742936
167	0x3f4a3f6f	0.7900304
168	0x3d9b4e98	0.0758335
169	0xbfc20ef0	-1.5160809
170	0x3ef3b6f4	0.4760052
171	0xbfd8eaf8	-1.6946707
172	0xc003fa00	-2.0621338
173	0xc012bd3b	-2.2927997
174	0xbf7a1de0	-0.97701836
175	0x3d1a881d	0.037727464
176	0x3fcb5c70	1.5887585
177	0x3f9b101e	1.2114294
178	0x3f89af58	1.0756636
179	0x3f78146f	0.9690618
180	0xbebdff17	-0.3710868
181	0xbe7872cc	-0.24262542
182	0xbf8ac70d	-1.0841995
183	0xbed4e253	-0.41578922
184	0x3f11b3a1	0.56914717
185	0x3f1b2bdb	0.60613793
186	0xbd1da35d	-0.038485873
187	0xbf0a717d	-0.5407942
188	0xbe2cf10f	-0.16888832
189	0x3e7a0a0c	0.24417895
190	0x3d048e55	0.0323623
191	0xbe70415f	-0.23462437
192	0x400d4ab6	2.207685
193	0xbcac4fc8	-0.021034136
194	0xbf853a72	-1.0408461
195	0x3e88997e	0.26679605
196	0xbfb63d87	-1.4237527
197	0xc00ef00b	-2.233401
198	0xbedfa88a	-0.43683273
199	0x3ecdad5a	0.4017132
200	0x3fb6b19c	1.4272952
201	0x3e146093	0.14489965
202	0xbf873035	-1.0561587
203	0xbea962c9	-0.3308318
204	0xbf0cf6f3	-0.55064315
205	0xbcb9fd92	-0.02270392
206	0xbab40fd3	-0.0013737626
207	0xbc8fcad2	-0.017552767
208	0xbeaaa893	-0.33331737
209	0xbf8717d3	-1.0554146
210	0xbf9f58cd	-1.2448975
211	0x3f2f914f	0.685811
212	0xbf4f76f5	-0.8104089
213	0xbe2aabae	-0.16667053
214	0x3ebbd1b9	0.36683443
215	0xbf42b9ea	-0.7606493
216	0xbf39e62a	-0.7261683
217	0x3ef036e3	0.46916875
218	0xbf96f659	-1.1793929
219	0xbfa25091	-1.2680837
220	0xbe2bca03	-0.1677628
221	0x3f6bc2fa	0.92094386
222	0x3eb0d969	0.3454087
223	0xbe885f21	-0.26635078
224	0xbf60a631	-0.8775359
225	0x3ea3d911	0.32001546
226	0xbeabc7cc	-0.3355087
227	0xbf98c945	-1.1936423
228	0xbe2c7c2f	-0.16844247
229	0x3f4a5a07	0.7904362
230	0x3f879cc3	1.0594715
231	0x3f0a2554	0.5396321
232	0xbf38749f	-0.7205295
233	0xbfc63fe9	-1.5488254
234	0x3f113f46	0.5673717
235	0xbf825f04	-1.0185246
236	0x3eb74d67	0.3580124
237	0x3f0d82e1	0.5527783
238	0xbf1b1e5a	-0.6059319
239	0x3f759b72	0.95940316
240	0xbfaf3d75	-1.369063
241	0x3ed970ef	0.42468974
242	0xc0001b56	-2.0016685
243	0x3ecb75c7	0.39738294
244	0x3fcfbbe5	1.6229216
245	0xbf989104	-1.1919255
246	0xc004cbb7	-2.0749338
247	0x3fac83d7	1.3477734
248	0x3f59e6e6	0.8511795
249	0x3dd3e527	0.10346442
250	0x3f3a81b0	0.7285414
251	0x3f1e88b6	0.61927354
252	0xbf726803	-0.9468996
253	0xbe9f300e	-0.3109135
254	0x3eaa2407	0.33230612
255	0x3e8a713a	0.2703951

valueEmbedding.0.weight f4 [128, 24]
0	0xbe2fc5c6	-0.17165288
1	0x3dec498b	0.11537465
2	0x3d755be7	0.059902098
3	0x3e2ebd2c	0.17064351
4	0x3d3118cc	0.04323654
5	0x3e4fb4ab	0.20283763
6	0x3e2aaaae	0.16666672
7	0xbe5dc785	-0.21658142
8	0xbdd39231	-0.10330618
9	0xbd0a8de2	-0.033826716
10	0x3c8f6d52	0.017508183
11	0x3e2873a2	0.1645036
12	0x3de7bb5c	0.11315033
13	0x3d497541	0.049184088
14	0xbe3d0a9a	-0.18461075
15	0xbe2ca321	-0.16859104
16	0xbe456282	-0.19275859
17	0x3ded4e89	0.11587245
18	0x3e124f5e	0.14288089
19	0x3e1263b5	0.14295848
20	0x3d9a5eeb	0.075376354
21	0x3e3c28cf	0.18374942
22	0x3d1d3494	0.03838022
23	0xbd2bcf4d	-0.041945744
24	0x3b115745	0.002217726
25	0xbd88c54d	-0.06678257
26	0x3dd09742	0.101851
27	0x3db4b349	0.088232584
28	0x3d09c3c0	0.033633947
29	0xbe38f002	-0.18060306
30	0xbdd81e1e	-0.105526194
31	0x3d5a31d0	0.05327016
32	0xbe1e61ce	-0.15466997
33	0x3e2a1e88	0.16613209
34	0xbc901a1f	-0.01759058
35	0xbde6122a	-0.11233933
36	0x3e1ee204	0.15515906
37	0xbdfa9195	-0.12234799
38	0xbe1e94d6	-0.15486464
39	0x3cd057e1	0.025432529
40	0x3d191ecd	0.03738289
41	0x3e008f91	0.12554766
42	0x3c6f569f	0.014608054
43	0xbbd174af	-0.0063920836
44	0x3ddf9310	0.10916722
45	0xbe382f9c	-0.17986912
46	0x3b6d57e4	0.0036215717
47	0x3cd8e9ca	0.026478667
48	0xbe01b56c	-0.12666863
49	0x3e2a610a	0.1663858
50	0x3da53eb3	0.080685996
51	0x3d809109	0.06277663
52	0xbe38a534	-0.1803177
53	0x3c266319	0.010155463
54	0x3d67fd27	0.05663791
55	0xbe07a40a	-0.1324617
56	0x3ccccc2e	0.024999704
57	0x3dfd2aca	0.12361677
58	0xbe3887aa	-0.18020502
59	0x3e19ff03	0.15038686
60	0x3e315bba	0.17320147
61	0xbc16e802	-0.009210588
62	0xbbceaf0b	-0.006307488
63	0xbe2c87a2	-0.16848615
64	0x3dac87ab	0.08424314
65	0x3d5d6959	0.054055545
66	0xbdcba485	-0.09943489
67	0x3c306e07	0.01076842
68	0xbe220a2b	-0.15824191
69	0x3d0ded7b	0.034650307
70	0x3d8ee7b5	0.06977788
71	0x3e1801cc	0.14844435
72	0x3e6a25d1	0.22865988
73	0xbdc949ac	-0.09828505
74	0x3e1a102e	0.15045235
75	0x3d6cdeec	0.057829782
76	0x3dcce282	0.100041404
77	0xbda18ac2	-0.07887794
78	0xbe309858	-0.17245615
79	0xbcac3314	-0.02102045
80	0xbdb443e0	-0.08802009
81	0xbe08256a	-0.13295522
82	0x3e24865d	0.1606688
83	0x3e2effc6	0.17089757
84	0x3e40b7b9	0.18820085
85	0x3e06b2d4	0.13154155
86	0x3d6dacf5	0.058026273
87	0xbd3dd6ae	-0.046347313
88	0xbab7d91c	-0.0014026496
89	0xbdb0befb	-0.08630177
90	0xbe265c3f	-0.16246127
91	0xbc114447	-0.008866376
92	0xbe362364	-0.17786938
93	0x3ce00c86	0.027349722
94	0x3e3329bb	0.17496388
95	0xbcb0d629	-0.021586495
96	0x3d9428ce	0.072343454
97	0xbd83aa75	-0.064289965
98	0xbdf2ff59	-0.1186511
99	0x3dfab93a	0.122423604
100	0x3d7c1296	0.061541162
101	0xbe0fab31	-0.14030148
102	0xbdac4642	-0.08411838
103	0x3e0bce00	0.13652802
104	0xbe3578c4	-0.1772185
105	0x3dba0b3d	0.09084175
106	0x3df90f5c	0.12161133
107	0x3d859b7e	0.065237984
108	0xbe1d56e4	-0.15365177
109	0x3e185302	0.14875415
110	0x3ddb7aa5	0.10716752
111	0xbcb5d041	-0.02219403
112	0xbd23d3f6	-0.039997064
113	0xbdb012fb	-0.0859737
114	0x3da21a80	0.07915211
115	0x3ba2b9c6	0.0049659936
116	0x3d157d6d	0.03649657
117	0x3e0ca94c	0.13736457
118	0xbe2527ab	-0.16128413
119	0x3dc4c0f3	0.09607115
120	0xbd8d6aa9	-0.069051094
121	0xbd659dfd	-0.056058872
122	0xbe4a1263	-0.19733576
123	0xbe349acd	-0.17637177
124	0xbe50dbca	-0.20396343
125	0x3e2d32c1	0.16913892
126	0xbcaeef93	-0.021354472
127	0x3d853f9b	0.065062724
128	0xbd056b21	-0.03257287
129	0xbc496229	-0.01229147
130	0xbdf7fa1c	-0.121082515
131	0x3dbe7452	0.0929953
132	0xbd800efa	-0.062528566
133	0xbdc2211d	-0.09478972
134	0xbb9573ec	-0.004560938
135	0x3cf6779a	0.030086327
136	0xbe45f7b6	-0.19332775
137	0xbe48d6ff	-0.19613265
138	0xbdedb0ed	-0.116060115
139	0xbe09d0e6	-0.13458595
140	0xbc9ba9b4	-0.01900182
141	0x3de3ae7a	0.11117263
142	0xbd569152	-0.052384682
143	0xbbc6ccb2	-0.006066882
144	0x3e27aaa7	0.16373692
145	0x3d5768f2	0.052590318
146	0xbe19d8b4	-0.15024072
147	0xbe228729	-0.15871872
148	0x3e46c7c5	0.19412144
149	0xbd7d4db8	-0.061841697
150	0x3e22b2b9	0.1588849
151	0x3e40d35b	0.18830626
152	0x3d37b911	0.044854227
153	0x3d02a085	0.031891365
154	0x3e1cbe1d	0.15306897
155	0xbde92449	-0.11383874
156	0xbe058f7b	-0.13043015
157	0x3e20c21d	0.15699048
158	0x3e18f2bd	0.14936347
159	0x3dfe95b6	0.12430899
160	0x3e2c8bad	0.16850157
161	0x3dcabb56	0.09899013
162	0xbdd5fa0a	-0.10448082
163	0xbdf4ef54	-0.11959711
164	0x3e3f85a6	0.18703327
165	0x3e16929d	0.14704366
166	0x3d90d75f	0.07072329
167	0xbe321dc5	-0.17394169
168	0xbd7ef7c3	-0.062248003
169	0xbe3f4434	-0.18678361
170	0xbde1f4e9	-0.11033041
171	0xbe4a957e	-0.19783589
172	0x3d2ffedb	0.04296766
173	0xbdd1ffb0	-0.10253847
174	0x3e359063	0.1773086
175	0x3bd24317	0.006416689
176	0xbe198f17	-0.1499599
177	0xbe401e21	-0.18761493
178	0xbe4ed5a1	-0.2019868
179	0x3d8d45f7	0.0689811
180	0x3dc03e72	0.093869105
181	0xbe55b3a3	-0.20869307
182	0x3c9ade8f	0.018904952
183	0x3e07bd2f	0.13255762
184	0x3e2a8326	0.16651592
185	0xbd0bd82d	-0.03414171
186	0x3e0de476	0.13856682
187	0xbe129501	-0.14314653
188	0x3d4dfe56	0.05029138
189	0xbe4ad627	-0.19808255
190	0xbdaedb60	-0.08537936
191	0xbe4d8f26	-0.20074138
192	0x3e183562	0.14864114
193	0xbd9fe847	-0.07807975
194	0xbe303996	-0.17209467
195	0x3e624666	0.22097167
196	0xbdf354eb	-0.11881431
197	0x3e218a38	0.15775383
198	0xbe23328f	-0.15937255
199	0xbdf91b08	-0.12163359
200	0xbd4a61c2	-0.049409635
201	0xbbaa8e37	-0.0052049416
202	0x3e341091	0.17584445
203	0x3e5b4e52	0.21416596
204	0x3d93d72f	0.072187774
205	0x3e4f8877	0.20266901
206	0x3d269409	0.04066852
207	0x3de1583b	0.11003157
208	0xbe2048f4	-0.1565283
209	0x3e240113	0.16016035
210	0x3dc80937	0.097673826
211	0x3e1774ce	0.14790651
212	0xbd8c633d	-0.06854866
213	0x3e2f9b8f	0.17149185
214	0x3d69673b	0.056983214
215	0xbe398660	-0.18117666
216	0x3e19962f	0.14998697
217	0x3dd809ce	0.10548745
218	0xbdfcddc4	-0.12346986
219	0xbd5ab997	-0.05339965
220	0xbc914a08	-0.017735496
221	0xbd25b128	-0.040452152
222	0x3c961bf0	0.018323869
223	0x3e148405	0.14503486
224	0x3d22b7a5	0.03972592
225	0xbd0cb272	-0.034349866
226	0xbd49d4bf	-0.049275156
227	0x3df44a83	0.119282745
228	0x3dba7aac	0.09105429
229	0x3ceb05a0	0.028689206
230	0x3daebd2b	0.08532175
231	0xbe522ee3	-0.20525698
232	0xbd941674	-0.07230845
233	0x3e39ca98	0.1814369
234	0xbe3b0c95	-0.18266518
235	0x3d2b3533	0.04179878
236	0x3de06a2f	0.10957753
237	0x3e0a5614	0.13509399
238	0xbc0930f4	-0.008373488
239	0xbdf9158b	-0.12162312
240	0x3e4a180d	0.19735737
241	0x3d8a9f21	0.06768633
242	0x3db38080	0.08764744
243	0xbda9c718	-0.08289927
244	0xbd04b799	-0.032401655
245	0x3d3579ab	0.044305485
246	0x3de03377	0.10947316
247	0xbcc0fee8	-0.023559049
248	0x3e34ac67	0.17643891
249	0xbdcb7668	-0.099346936
250	0xbd688813	-0.056770395
251	0xbe0c047f	-0.1367359
252	0x3e183c6d	0.148668
253	0x3e0cf886	0.13766679
254	0xbe2d42cc	-0.16920012
255	0xbdb81050	-0.08987486

valueEmbedding.0.bias f4 [128]
0	0x387f9577	6.0935938e-05
1	0xbe0de04f	-0.13855098
2	0x3e1aabe8	0.1510464
3	0x3cb9e9e1	0.02269453
4	0x3dafc2fb	0.085821114
5	0xbe238b85	-0.15971191
6	0xbd97b79a	-0.07408066
7	0xbdbe9dbc	-0.09307429
8	0x3df595e1	0.11991478
9	0xbd358f18	-0.044325918
10	0xbdd71bb8	-0.10503334
11	0xbc3ae8cd	-0.011408043
12	0xbdb1c314	-0.08679786
13	0xbd97d118	-0.07412928
14	0x3bebfd8b	0.0072018555
15	0xbe23b5d6	-0.15987334
16	0xbcba8e90	-0.022773057
17	0xbd8becb4	-0.06832257
18	0x3d2f1bf0	0.042751253
19	0xbd9302c5	-0.071782626
20	0xbc7d1d35	-0.015448858
21	0x3db489f0	0.08815372
22	0x3e29234a	0.16517368
23	0x3e2ad874	0.16684133
24	0x3e3cf5db	0.18453161
25	0xbbb23447	-0.005438361
26	0xbe160aec	-0.14652604
27	0x3d3ef300	0.04661846
28	0xbe348939	-0.17630471
29	0xbce35aec	-0.027753316
30	0xbd055aa7	-0.032557156
31	0x3e1e4e81	0.15459634
32	0x3e39e91c	0.1815533
33	0xbe21118c	-0.1572935
34	0xbe17a5c2	-0.14809325
35	0xbe05a66b	-0.13051765
36	0xbe33de9e	-0.1756539
37	0x3ddce99d	0.10786746
38	0x3e45f096	0.19330058
39	0x3d88b24b	0.06674632
40	0xbd1b9824	-0.03798689
41	0x3e00859a	0.12550965
42	0xbe2ebdd1	-0.17064597
43	0xbd82c3a6	-0.06384973
44	0x3ca1129c	0.019662194
45	0x3e1ef5db	0.15523474
46	0x3e1d2d34	0.15349275
47	0xbe1988d4	-0.14993602
48	0x3e3a3f94	0.18188316
49	0x3db0f000	0.08639526
50	0xbd3d044e	-0.046146683
51	0x3e2f5d5a	0.17125455
52	0x3c775f18	0.015098356
53	0xbdaa03ed	-0.0830153
54	0xbd9109b3	-0.07081928
55	0xbe070ae7	-0.13187753
56	0xbbeed544	-0.007288607
57	0x3d9d3b6c	0.076773494
58	0xbe24749e	-0.16060111
59	0x3e325ea9	0.17418922
60	0x3e4ea160	0.20178747
61	0x3e074f0d	0.13213749
62	0xbda1ae6d	-0.07894597
63	0xbe2a130e	-0.16608831
64	0x3df227af	0.11823975
65	0x3db166ee	0.086622104
66	0xbdc80f26	-0.09768514
67	0xbe3bc514	-0.18336898
68	0xbde0ec8e	-0.10982619
69	0x3d01c681	0.03168345
70	0x3da1a263	0.07892301
71	0xbddb80cf	-0.10717928
72	0xbe3d1db0	-0.18468356
73	0xbdc4ae70	-0.09603584
74	0xbdb13a35	-0.0865368
75	0xbcd49c74	-0.025953509
76	0x3e49f671	0.19722916
77	0xbdfb6e70	-0.12276924
78	0x3db208a4	0.08693054
79	0xbd9d1a18	-0.076709926
80	0xbd5c3df0	-0.053770006
81	0xbd4e9f83	-0.05044509
82	0xbd931d20	-0.071832895
83	0xbcc4f309	-0.02404167
84	0x3c5ceb65	0.013483857
85	0x3d9bf48f	0.07615005
86	0xbe1a3a1c	-0.1506123
87	0x3c52a74f	0.012857272
88	0xbe3b7f09	-0.18310179
89	0xbd71c9f7	-0.0590305
90	0xbd63145d	-0.05543934
91	0xbdfe008d	-0.12402449
92	0xbd66fe7a	-0.05639503
93	0xbe15b4c8	-0.14619744
94	0xbd25b888	-0.040459186
95	0x3dcb6e47	0.09933143
96	0x3e3ce3d5	0.18446286
97	0xbe05cf43	-0.13067345
98	0xbe271f91	-0.16320635
99	0x3c9fcf23	0.01950795
100	0x3d8fd2e5	0.07022647
101	0xbdaf3493	-0.085549496
102	0x3e3908ff	0.18069838
103	0x3e0ecb25	0.13944681
104	0x3d02cd96	0.031934343
105	0x39c380dc	0.00037289306
106	0x3d167588	0.03673318
107	0x3e30f0ec	0.17279404
108	0xbe20cf0e	-0.15703985
109	0x3e4c3d5a	0.19945279
110	0x3dd65918	0.10466212
111	0x3e37058d	0.17873211
112	0x3e14902e	0.14508125
113	0xbc2c7f75	-0.010528435
114	0x3e374b33	0.1789978
115	0x3ddc16c4	0.1074653
116	0xba882d47	-0.001038947
117	0x3e2b073f	0.16701983
118	0x3c845085	0.016151676
119	0xbd7ba2d1	-0.06143457
120	0xbe1fe595	-0.15614922
121	0xbdb60edd	-0.08889554
122	0xbe30c088	-0.17260945
123	0xbe3a3cd4	-0.18187267
124	0x3d968b30	0.07350767
125	0x3d81fb9c	0.06346819
126	0xbb4f92bf	-0.003167316
127	0x3d3cfa21	0.04613698

rnn.weight_ih_l0 f4 [384, 128]
0	0x3c53dc0b	0.01293088
1	0xbdad4747	-0.08460861
2	0x3d8db1f3	0.06918707
3	0xbd889282	-0.06668569
4	0x3d218bcb	0.039439958
5	0xbdb3fde4	-0.0878866
6	0x3d613172	0.054978795
7	0x3cdc73a1	0.026910605
8	0xbd83877b	-0.06422325
9	0xbd0bbb93	-0.03411443
10	0xbdc543e3	-0.09632089
11	0xbdaa36f3	-0.08311262
12	0x3d45b863	0.048271548
13	0xbd98fd71	-0.07470215
14	0xbce1dd5e	-0.027571376
15	0xbd977a95	-0.073964275
16	0xbd953ce6	-0.07287006
17	0x3db1df17	0.08685129
18	0x3d8b22b1	0.06793726
19	0x3bd3b0cb	0.0064602843
20	0x3d4f7b77	0.050654855
21	0x3d7950e4	0.06086816
22	0x3b8b5342	0.0042518685
23	0xbd602a26	-0.054727696
24	0x3d4e5f4a	0.050383843
25	0x3d99ed45	0.07515959
26	0x3db05061	0.08609081
27	0x3d2bc6db	0.04193769
28	0xbd827f3c	-0.06371924
29	0xbcc937f9	-0.024562823
30	0xbcc74f43	-0.024329787
31	0xbda956ff	-0.08268546
32	0xbd0059d2	-0.03133566
33	0xbbe1136b	-0.00686877
34	0x3d5ff356	0.054675423
35	0x3d2a24bc	0.04153894
36	0x3da0d295	0.07852665
37	0xbd382dd8	-0.044965595
38	0x3d4d6bb5	0.050151546
39	0xbd7154b6	-0.058918677
40	0x3cb24814	0.021762885
41	0x3d0feb46	0.035136484
42	0x3c811f78	0.015762076
43	0xbdbec892	-0.093155995
44	0x3d9d057d	0.076670624
45	0x3cfdc0f8	0.030975804
46	0x3d5c0fc3	0.05372597
47	0xbd6b103c	-0.05738853
48	0x3d5b6656	0.053564392
49	0x3ccbb90b	0.024868509
50	0xbdb249f1	-0.087055095
51	0x3d5e5248	0.05427769
52	0xbcc875fc	-0.024470322
53	0xbbf63a36	-0.0075142635
54	0xbd15edce	-0.03660374
55	0x3c07f563	0.008298251
56	0xbc704379	-0.014664524
57	0x3d049bc1	0.0323751
58	0xbcf565bb	-0.029955735
59	0x3d0c3dcb	0.034238618
60	0x3d839f95	0.06426922
61	0x3db6bac0	0.089223385
62	0xbc005afe	-0.007834194
63	0xbd878143	-0.066164516
64	0xbd082666	-0.033239745
65	0x3dceebcb	0.10103568
66	0xbd8e10e3	-0.06936815
67	0xbd0753c6	-0.033038877
68	0xbd0c18f5	-0.03420349
69	0x3cf09407	0.02936746
70	0x3db5a2c4	0.08868936
71	0x3d9bd158	0.076082885
72	0xbcbe409b	-0.023224166
73	0x3a6f7e16	0.0009135915
74	0x3d8277b2	0.06370486
75	0xbd9997ac	-0.07499632
76	0xbcd82f35	-0.026389698
77	0xbd205b19	-0.039149377
78	0xbc84871e	-0.01617771
79	0xbda8b78d	-0.082381345
80	0x3d781690	0.060568392
81	0x3c8d4f40	0.017249703
82	0x3d937d6b	0.07201656
83	0x3d6619c2	0.05617691
84	0xbdc83d04	-0.09777263
85	0xbd8663b6	-0.06561987
86	0x3c99a366	0.018754672
87	0xbc2417f1	-0.010015474
88	0x3d9ef429	0.077614136
89	0x3da8cac5	0.082418
90	0xbc61dbff	-0.013785361
91	0x3d4d04de	0.05005347
92	0x3d8a63e4	0.06757334
93	0xbcef48ba	-0.029209483
94	0x3d955ebb	0.07293459
95	0x3cbb8167	0.022888852
96	0xbcedc968	-0.029026702
97	0x3b1b5a4a	0.002370494
98	0xbd2216b5	-0.039572436
99	0xbb993df7	-0.0046765762
100	0x3d151cea	0.036404528
101	0x3db31cc4	0.08745721
102	0x3cfa9191	0.03058699
103	0xbdbf4c1a	-0.09340687
104	0x3d8934e1	0.06699539
105	0x3c280a66	0.010256385
106	0xbd990c69	-0.0747307
107	0xbd3f8392	-0.046756335
108	0x3c9b56e1	0.018962326
109	0x3c73d5af	0.014882489
110	0x3d073fc0	0.03301978
111	0x3ca8f92b	0.020626625
112	0x3c48f20b	0.012264739
113	0x3db3469e	0.087537035
114	0xbd8c3aa4	-0.06847122
115	0x3d82956c	0.06376156
116	0x3c46ae9c	0.012126591
117	0xbc32b157	-0.010906539
118	0x3dae30a3	0.085053705
119	0xbd343bc2	-0.044002302
120	0xbd8c9015	-0.06863419
121	0xbd6321a4	-0.055452004
122	0xbc1c5ee8	-0.009544112
123	0xbd3f0cec	-0.046643183
124	0xbdb6199e	-0.08891605
125	0x3d20c495	0.039249975
126	0x3d6dc31d	0.058047403
127	0x3d183de4	0.0371684
128	0x3cd171f3	0.02556703
129	0xbd99617d	-0.074892975
130	0xbdb6d18f	-0.08926689
131	0xbd50946e	-0.050922804
132	0xbd81dc94	-0.063409
133	0x3c9bf9e2	0.019040052
134	0xbd656212	-0.05600173
135	0xbc3624f8	-0.0111172125
136	0xbdaa71fc	-0.08322522
137	0x3d55f661	0.05223692
138	0xbd8465b5	-0.064647116
139	0x3d8cd03c	0.06875655
140	0xbd81a4b4	-0.06330243
141	0x3c86685c	0.016407184
142	0x3d779037	0.06044027
143	0xbdaf044a	-0.0854574
144	0xbdabbce9	-0.08385641
145	0xbd3fc209	-0.046815906
146	0xbca2a383	-0.01985336
147	0x3cf5745c	0.029962711
148	0x3d3b1ef7	0.045683827
149	0x3d3a4b47	0.045481946
150	0xbd3c7cf2	-0.046017595
151	0xbd9f8f71	-0.07791031
152	0xbca650e6	-0.020302247
153	0x3d2c303d	0.04203819
154	0xbd0e817d	-0.03479146
155	0x3d9a2148	0.07525879
156	0xbdb38c72	-0.08767022
157	0xbd63c281	-0.055605415
158	0x3d9be4c8	0.07611996
159	0xbd0eb2ab	-0.03483836
160	0x3da910f1	0.082551844
161	0xbcf18725	-0.029483387
162	0x3bbdbac5	0.005790087
163	0x3d91ac86	0.07112984
164	0xbdc42523	-0.09577396
165	0x3d339248	0.043840677
166	0x3ca37b0e	0.019956138
167	0x3daa7d1f	0.08324646
168	0xbcbfb68c	-0.023402475
169	0xba16d123	-0.00057532097
170	0xbcdce44c	-0.02696433
171	0xbcf866c0	-0.030322433
172	0xbd3c11c1	-0.04591537
173	0x3b1c3717	0.0023836547
174	0xbcc0a632	-0.023516748
175	0x3cb4e394	0.022081174
176	0xbd9b5779	-0.075850435
177	0xbd903dcb	-0.07043036
178	0x3d2c44b5	0.04205771
179	0xbd9601f8	-0.07324594
180	0x3db2c64d	0.08729229
181	0x3cab6f53	0.020927107
182	0xbc2f2da1	-0.010692031
183	0x3d435258	0.04768595
184	0x3a82f031	0.0009989796
185	0x3a3c2441	0.0007177033
186	0x3daa8401	0.08325959
187	0xbda7b024	-0.08187893
188	0xbc6536a4	-0.013990078
189	0xbc82bbb3	-0.015958643
190	0xbd486c13	-0.048931193
191	0x3c57c71e	0.013170032
192	0x3d0736d0	0.033011258
193	0x3d1489ca	0.03626422
194	0x3d1ba568	0.03799954
195	0xbd866f5e	-0.0656421
196	0xbd941195	-0.07229916
197	0x3d513dcd	0.05108433
198	0xbd4fce08	-0.050733596
199	0xbd62940d	-0.055316973
200	0xbcbf90a8	-0.023384407
201	0x3a6a6936	0.0008942069
202	0xbd9cf16b	-0.07663234
203	0xbc43dba5	-0.011954223
204	0x3dd2a146	0.10284667
205	0xbd3b660e	-0.045751624
206	0x3c2d8594	0.01059093
207	0xbdacc022	-0.08435084
208	0x3d2cbc59	0.04217181
209	0xbd5e5a6e	-0.05428546
210	0xbd0b8feb	-0.034072798
211	0x3cb4e70e	0.022082832
212	0x3d6b5ce5	0.057461638
213	0x3ca4da33	0.020123577
214	0xbd9d1185	-0.07669357
215	0xbdaa367f	-0.083111756
216	0x3db1d634	0.08683434
217	0xbc855325	-0.016274998
218	0x3dd3ecf5	0.1034793
219	0x3a816307	0.0009871431
220	0x3ce77ef7	0.028258784
221	0xbd41d87f	-0.047325607
222	0xbb83136c	-0.004000118
223	0xbda107c0	-0.07862806
224	0xbd52250f	-0.051304873
225	0x3c106822	0.00881389
226	0x3d81ada6	0.06331949
227	0xbc4413f9	-0.0119676525
228	0xbd38fdc9	-0.045163903
229	0x3ca75102	0.02042437
230	0x3db68e8a	0.08913906
231	0xbd36739c	-0.044543847
232	0xbd343d64	-0.04400386
233	0x3d4c665a	0.049902298
234	0x3d8907cd	0.06690941
235	0x3d8730f2	0.066011325
236	0x3911eaee	0.00013915796
237	0x3d22eae9	0.03977481
238	0xbd3086e2	-0.043097384
239	0xbdadf783	-0.08494475
240	0x3dc3f34d	0.0956789
241	0x3d73a64c	0.059484765
242	0x3b7c180c	0.0038466481
243	0x3c9b5296	0.018960278
244	0xbd7b13ab	-0.061298054
245	0x3d859edb	0.0652444
246	0xbd9cf162	-0.076632276
247	0xbda539ea	-0.08067687
248	0xbc3c65be	-0.011498867
249	0x3dba9b50	0.09111655
250	0xbd6ed40f	-0.058307704
251	0xbd298b3a	-0.041392542
252	0xbccbbc2e	-0.024870005
253	0x3d4ac2ce	0.049502186
254	0xbc849254	-0.016183056
255	0xbd9cc022	-0.07653834

rnn.weight_hh_l0 f4 [384, 128]
0	0x3d8e460c	0.06946954
1	0x3cf42cd6	0.029806536
2	0xbd8e2836	-0.069412634
3	0xbbdba883	-0.006703438
4	0x3bb535a3	0.0055300756
5	0xbd02d0f7	-0.031937566
6	0x3d2e4849	0.042549405
7	0xbda0b234	-0.078464895
8	0x3dadb4d6	0.08481757
9	0xbd50bbfe	-0.050960533
10	0xbd66c97a	-0.056344487
11	0x3c13555b	0.008992518
12	0x3d75c2bd	0.06000017
13	0xbd629d55	-0.055325825
14	0xbdb10d5d	-0.08645127
15	0xbd843f77	-0.064574175
16	0xbd2ce0d7	-0.04220661
17	0x3d0d0e7a	0.034437634
18	0xbd4e4645	-0.050359983
19	0x3c41bc75	0.011824717
20	0x3ca6279b	0.020282557
21	0xbd2e2f8d	-0.042525817
22	0x3c8168df	0.015797077
23	0x3da7b8bc	0.08189532
24	0xbbcdbe6d	-0.006278804
25	0x3d9896b9	0.07450623
26	0x3c63d2c3	0.01390523
27	0x3ddd4669	0.10804445
28	0x3dcb3802	0.09922792
29	0xbccf9fcb	-0.02534475
30	0x3d1b9c31	0.037990753
31	0x3d1ba59c	0.037999734
32	0xbd2da72d	-0.04239576
33	0xbd8186b6	-0.06324522
34	0xbd742697	-0.059607115
35	0xbc8136d5	-0.015773216
36	0xbc71a238	-0.014748149
37	0x3d63a01e	0.05557262
38	0xbd55471d	-0.052069772
39	0xbd36f048	-0.044662744
40	0xbd37a04c	-0.044830605
41	0xbbea0573	-0.007141763
42	0xbc848a6c	-0.016179286
43	0xbd1305b6	-0.03589412
44	0x3d68249c	0.05667554
45	0xbd12caa8	-0.0358378
46	0x3cd663c0	0.026170611
47	0x3cc07cdd	0.02349704
48	0xbd76badf	-0.060236808
49	0x3de88243	0.113529705
50	0x3d6601bf	0.05615401
51	0xbdb78ac9	-0.08962018
52	0x3cdaf12f	0.026726333
53	0xbd94e414	-0.07270065
54	0x3d869153	0.06570687
55	0xbd07df1d	-0.03317176
56	0xbd58b2cc	-0.05290489
57	0xbdb268b1	-0.087113746
58	0x3d851451	0.06498016
59	0xbc9abcef	-0.018888919
60	0x3da1c721	0.07899309
61	0x3d2ca9fc	0.042154297
62	0xbce523fa	-0.027971257
63	0x3de68f43	0.11257794
64	0xbd7d0699	-0.06177387
65	0xbd355640	-0.044271708
66	0x3c95ee72	0.018302176
67	0xbcc1ca73	-0.023656106
68	0xbd9cfd00	-0.076654434
69	0x3d224c18	0.03962335
70	0xbdba228e	-0.09088622
71	0xbd92e17d	-0.07171915
72	0x3d2a8b6a	0.04163686
73	0xbc68a9cf	-0.014200642
74	0xbdcaf028	-0.099090874
75	0xbbfd35b9	-0.0077273515
76	0x3cd37d8d	0.025816703
77	0xbcd9a385	-0.02656723
78	0x3d93e362	0.07221104
79	0x3d4586e1	0.048224334
80	0xbc9a4344	-0.018830903
81	0xbca08bc6	-0.0195979
82	0xbd1fb696	-0.038992487
83	0xbda8e496	-0.08246724
84	0x3d56b09e	0.05241453
85	0x3ca79716	0.020457786
86	0x3d7f10c2	0.06227184
87	0x3bfdcd12	0.0077453936
88	0x3d549fd5	0.05191024
89	0x3c1c23e7	0.009530044
90	0x3cad9bee	0.021192517
91	0xbd9ccea4	-0.07656601
92	0xbd7f9d51	-0.062405888
93	0xbbd3838b	-0.00645489
94	0xbd072282	-0.032991894
95	0x3d6eca90	0.058298647
96	0xbdb3155e	-0.0874431
97	0x3a27d7c8	0.00064026983
98	0x3d392eb5	0.04521056
99	0xbd63634d	-0.055514622
100	0xbd24589b	-0.040123563
101	0x3c977fb7	0.018493516
102	0xbcf5fc28	-0.030027464
103	0xbd6c8836	-0.05774709
104	0x3dd82db2	0.10555591
105	0xbca373cb	-0.019952675
106	0x3cc7f646	0.024409425
107	0xbda9516a	-0.082674816
108	0xbd1bf4fa	-0.038075425
109	0xbce175d0	-0.027521998
110	0xbd2143dc	-0.039371356
111	0x3cb388ea	0.021915872
112	0xbc0af54d	-0.008481336
113	0xbd8218cf	-0.06352388
114	0x3d518d86	0.051160358
115	0x3d88a1d2	0.0667149
116	0xbd674ae8	-0.05646792
117	0xbcb2e8f6	-0.0218396
118	0xbdbbca05	-0.091693915
119	0x3d30042b	0.042972725
120	0x3d621930	0.055199802
121	0xbd85096d	-0.064959385
122	0x3cbdb0d4	0.023155607
123	0xbcdc0c49	-0.026861327
124	0x3cd786cb	0.026309391
125	0x3db9c30c	0.09070405
126	0x3d8965d0	0.06708872
127	0x3dc4cecb	0.09609755
128	0xbc889d59	-0.016676592
129	0xbd69c30d	-0.05707078
130	0xbdc542e7	-0.09631901
131	0xbcacf08e	-0.0211108
132	0x3ded5b39	0.11589665
133	0x3da83b25	0.08214406
134	0xbda29498	-0.07938498
135	0x3db175ab	0.086650215
136	0xbd5993d1	-0.053119484
137	0x3d366c73	0.04453702
138	0x3c8ce990	0.017201215
139	0xbc0977cd	-0.008390379
140	0xbccee907	-0.0252576
141	0xbc337103	-0.010952237
142	0xbd0698e2	-0.032860644
143	0xbdb96de6	-0.090541646
144	0xbbefe7f0	-0.0073213503
145	0xbbe55519	-0.00699867
146	0x3d9a4b42	0.075338855
147	0xbd2647ff	-0.040596005
148	0xbc2a1636	-0.010381272
149	0xbd8796cd	-0.0662056
150	0xbd0078fc	-0.03136538
151	0x3b2109b3	0.0024572432
152	0x3c738540	0.014863312
153	0xbd39ee16	-0.045393072
154	0xbb24a342	-0.0025121723
155	0x3d21e1cb	0.039521974
156	0x3d89d151	0.06729377
157	0x3da9b5bd	0.08286617
158	0x3cc3f267	0.023919297
159	0x3be6594c	0.007029688
160	0x3ba8c79a	0.0051507475
161	0x3c7e7cb5	0.015532662
162	0x3d8368c0	0.06416464
163	0x3d6ac6bc	0.057318434
164	0x3c8db983	0.017300373
165	0x3c8d96f0	0.017283887
166	0xbd8acd40	-0.067774296
167	0xbd2420a5	-0.040070195
168	0xbb96d780	-0.0046033263
169	0xbd43177b	-0.047629815
170	0x3d828e79	0.06374831
171	0xbdc6a5dd	-0.09699605
172	0xbc1b8bf9	-0.009493821
173	0xbd88b0a7	-0.06674319
174	0xbd417048	-0.04722622
175	0xbcac537a	-0.021035898
176	0x3d0cf482	0.03441287
177	0x3d1e1535	0.038594443
178	0x3d16b467	0.03679314
179	0x3cd0dfbd	0.025497312
180	0x3d83e0d6	0.064393684
181	0xbd885f4d	-0.06658802
182	0x3d37dde9	0.044889364
183	0x3da20824	0.07911709
184	0x3d204341	0.03912664
185	0xbd88555f	-0.06656908
186	0xbcf4b757	-0.02987258
187	0xbd89ca24	-0.067280084
188	0xbc29a728	-0.010354795
189	0x3dadd919	0.08488674
190	0xbd9b268e	-0.07575713
191	0xbd8c3831	-0.06846655
192	0xbdaea1f3	-0.08526983
193	0xbd71af55	-0.0590051
194	0x3d9e1369	0.07718546
195	0xbd823bb0	-0.06359041
196	0x3d472798	0.048621744
197	0xbd217392	-0.039416857
198	0xbd0f4264	-0.034975424
199	0x3b9d08ae	0.0047922945
200	0x3dbe8f84	0.09304717
201	0x3d062cc9	0.032757554
202	0x3cdeea5d	0.027211362
203	0x3d6a375d	0.057181705
204	0x3dcba6f5	0.09943954
205	0x3c9ed696	0.019389432
206	0x3d7150fc	0.058915123
207	0xbdab7567	-0.08372002
208	0xbd911cee	-0.07085596
209	0x3dca38e6	0.09874134
210	0x3d8b8c85	0.06813911
211	0xbdbadbb1	-0.09123934
212	0xbca200dc	-0.0197758
213	0x3cb53520	0.022120059
214	0xbd21054e	-0.0393117
215	0x3c524077	0.012832752
216	0x3d40a067	0.04702797
217	0x3cc22094	0.023697175
218	0xbbc9955b	-0.0061518378
219	0x3c94df9f	0.018173037
220	0xbd9054a2	-0.070473924
221	0x3d6dfe6d	0.058103967
222	0x3d734bcd	0.05939846
223	0x3cd0dcb5	0.025495866
224	0xbd89154f	-0.066935174
225	0xbd83e983	-0.06441023
226	0x3da10800	0.07862854
227	0x3d8a7943	0.0676141
228	0xbd8f334b	-0.06992205
229	0xbd653b47	-0.055964734
230	0xbdb583b5	-0.08863012
231	0x3bded92f	0.0068007926
232	0x3d95cb1c	0.07314131
233	0xbda096cb	-0.078412615
234	0xbd7b7db0	-0.06139916
235	0x3ccb81b1	0.024842115
236	0xbd743872	-0.059624143
237	0xbd51e7d4	-0.05124648
238	0xbbb599e2	-0.005542026
239	0x3c9e17ed	0.019298518
240	0xbd93511d	-0.071932055
241	0x3d8531a4	0.06503609
242	0xbd1f61c5	-0.0389116
243	0xbd05acc6	-0.032635473
244	0x3cffe31b	0.031236222
245	0x3dbe1706	0.09281735
246	0xbd29b86d	-0.041435648
247	0x3d17a3e1	0.03702152
248	0x3cccf397	0.025018496
249	0xbd5adf3a	-0.05343554
250	0xbd9fc8a1	-0.07801939
251	0x3d34e41c	0.044162855
252	0x3d7537cc	0.059867665
253	0x39ccf380	0.00039091334
254	0x3ca3dac1	0.02000177
255	0xbc35284a	-0.011056969

rnn.bias_ih_l0 f4 [384]
0	0x3b45669f	0.0030120981
1	0xbcf8ce21	-0.030371727
2	0xbc5b33e3	-0.01337907
3	0xbd918fb5	-0.07107488
4	0xbb82062c	-0.003968021
5	0xbd8efd89	-0.06981952
6	0x3d827733	0.06370392
7	0xbd8654c5	-0.06559137
8	0x3d71c030	0.059021175
9	0xbc0db2b7	-0.008648566
10	0x3c86815a	0.016419102
11	0x3dace6a3	0.08442428
12	0xbd589168	-0.052873045
13	0xbda9a380	-0.08283138
14	0x3c6ff795	0.0146464305
15	0x3cdad5d2	0.026713286
16	0xbda61758	-0.08109921
17	0xbdc9b3a2	-0.09848715
18	0x3be43fc3	0.006965609
19	0x3be4f01c	0.006986631
20	0xba6b0ffc	-0.00089669204
21	0x3d0d2063	0.034454715
22	0xbb3a9c37	-0.002847446
23	0xbc99186e	-0.018688407
24	0xbd816838	-0.06318706
25	0xbd433d44	-0.04766585
26	0xbb05f6bc	-0.0020441255
27	0xbd941642	-0.07230808
28	0xbb82c077	-0.0039902288
29	0x3d0c150d	0.034199763
30	0xbd9c2477	-0.076241426
31	0x3d762ded	0.060102392
32	0xbda51d0f	-0.08062183
33	0x3a0aba2c	0.0005292024
34	0xbc66434c	-0.014054131
35	0xbcb5c9c9	-0.022190945
36	0x3d2828e2	0.041054614
37	0x3d825428	0.06363708
38	0xbda08f8c	-0.078398794
39	0x3d93114b	0.07181033
40	0xbc5f92ee	-0.013645871
41	0x3dae8210	0.08520901
42	0xbd498280	-0.04919672
43	0xbad2b4ec	-0.0016075647
44	0xbd53ad8a	-0.05167917
45	0xbcd856be	-0.02640855
46	0x3d41fa2d	0.047357727
47	0x3dad0a39	0.084492154
48	0xbd9b198c	-0.07573232
49	0x3d98ce67	0.07461243
50	0xbd91fdf8	-0.07128519
51	0xbd6014fb	-0.05470751
52	0xbc27c44c	-0.010239672
53	0xbc1bc91f	-0.0095084
54	0x3dc06ec8	0.0939613
55	0xbb2126d7	-0.00245898
56	0x3c24cbfe	0.010058401
57	0xbda6b672	-0.081402674
58	0x3d66ffa7	0.056396153
59	0x3d909bb8	0.07060951
60	0x3cfe26f5	0.031024436
61	0x3c3794a5	0.011204873
62	0x3d5738f9	0.052544568
63	0xbda534c9	-0.080667086
64	0xbda4f72a	-0.08054955
65	0x3d8a74ba	0.06760545
66	0xbd89d338	-0.0672974
67	0xbd9e8b05	-0.077413596
68	0xbd8061e0	-0.06268668
69	0xbd43815e	-0.047730796
70	0x3c4f7d1f	0.012664109
71	0x3d8e75c0	0.06956053
72	0x3d598c94	0.05311258
73	0x3ce7d031	0.028297516
74	0xbd5a298c	-0.05326228
75	0xbcaedc34	-0.021345235
76	0xbd1b3e8c	-0.037901446
77	0x3d540db8	0.051770896
78	0x3dd6c286	0.10486321
79	0xbd518a6e	-0.051157407
80	0x3d12c142	0.035828836
81	0x3d297568	0.041371733
82	0xbd8bcb68	-0.06825906
83	0x3db353ad	0.08756194
84	0x3d17d898	0.037071794
85	0x3da1ad31	0.07894362
86	0xbd01b531	-0.03166694
87	0xbd516176	-0.051118337
88	0xbb87a2a7	-0.0041392627
89	0x3d3ec53d	0.04657482
90	0xbca2c1fc	-0.01986789
91	0x3d859548	0.06522614
92	0xbcc84546	-0.024447095
93	0x3d9a4780	0.07533169
94	0x3ccf39a3	0.025296038
95	0x3bd385c7	0.0064551565
96	0xbda793b8	-0.08182472
97	0x3d84f017	0.06491106
98	0xbb9b9e1f	-0.004749074
99	0x3c1621d4	0.009163339
100	0x3ca9e166	0.020737361
101	0xbd965a9c	-0.07341501
102	0x3d8262f1	0.06366528
103	0x3c9f56b9	0.019450532
104	0xbd141242	-0.036150225
105	0xbc730c36	-0.014834454
106	0xbd93643d	-0.07196853
107	0xbd2a84ed	-0.041630674
108	0x3b88e762	0.0041779736
109	0xbd06962c	-0.03285806
110	0xbd1cdc93	-0.038296293
111	0x3a7359e4	0.0009283109
112	0xbd0590e5	-0.032608885
113	0xbd121b9b	-0.035670858
114	0x3d7eaaf0	0.062174737
115	0x3d78b361	0.060717944
116	0x3c2d8dc6	0.010592883
117	0x3c874368	0.016511634
118	0xbd679648	-0.056539804
119	0xbc0291c4	-0.007969324
120	0x3d3f22eb	0.04666416
121	0xbda1d2fc	-0.0790157
122	0x3d634fdb	0.055496078
123	0xbd1dbb61	-0.038508777
124	0x3d55a1fb	0.05215643
125	0x3dc9e72b	0.09858545
126	0xbd152d51	-0.03642017
127	0xbc6262dd	-0.013817516
128	0x3d8e732c	0.06955561
129	0xbb7951ca	-0.0038043135
130	0xbd3a628c	-0.045504138
131	0x3d8b78d1	0.06810153
132	0x3c25fac0	0.010130584
133	0xbcb0c261	-0.021577062
134	0x3d1cfc3c	0.038326487
135	0xbcaeafbe	-0.021324035
136	0xbc848bec	-0.016180001
137	0x3db93f6b	0.09045299
138	0x3d94898c	0.072527975
139	0x3cd45535	0.025919536
140	0xbd63476d	-0.05548804
141	0x3dbca565	0.09211234
142	0xbd276b9c	-0.04087411
143	0x3712e3c7	8.755312e-06
144	0xbcb7cd19	-0.022436665
145	0xbc8309cc	-0.015995882
146	0xbd61ab96	-0.055095278
147	0xbca55dc5	-0.020186314
148	0x3db2b196	0.08725278
149	0xbd5d3543	-0.054005872
150	0xbd5f385b	-0.054497104
151	0x3da41ff9	0.08013911
152	0x3d9cea18	0.07661837
153	0x3d30309a	0.0430151
154	0x3b89a240	0.00420025
155	0xbc81767b	-0.015803566
156	0x3d044e2e	0.03230112
157	0x3bd80aaf	0.0065930705
158	0x3cf224f1	0.02955863
159	0xbc1c6ada	-0.00954696
160	0x3d854dbb	0.065089665
161	0x3dd400ce	0.10351716
162	0x3d972f3f	0.07382058
163	0x3d9c06df	0.07618498
164	0xbd143a9b	-0.036188703
165	0x3dbdebf9	0.09273524
166	0xbd0e1d6e	-0.034696035
167	0xbd5b6cf8	-0.053570718
168	0xbbc1e9ff	-0.005917787
169	0x3ddbd509	0.107339926
170	0x3cd39380	0.02582717
171	0x3db91883	0.09037878
172	0xbd529ac3	-0.051417124
173	0x3c57deb2	0.013175653
174	0xbd786ffc	-0.06065367
175	0x3cae4a34	0.021275617
176	0x3d786cb6	0.06065055
177	0xbcb37ced	-0.021910155
178	0xbc072c40	-0.008250296
179	0x3cb5302a	0.022117693
180	0x3cb3729d	0.021905238
181	0xbb7889e1	-0.003792398
182	0xbc8323a3	-0.016008204
183	0x3cdd44ad	0.027010286
184	0x3b00a39e	0.0019628773
185	0x3d5201c0	0.0512712
186	0x3da61c47	0.08110862
187	0xbc1a7891	-0.009428159
188	0xbd7ad20b	-0.06123547
189	0xbbc94aa7	-0.0061429325
190	0x3d7d4246	0.06183078
191	0x3d8a3bc8	0.067496836
192	0x3d032c83	0.03202487
193	0xbd24d112	-0.040238447
194	0x3db28684	0.08717063
195	0xbd193771	-0.03740639
196	0xbd4eca05	-0.05048563
197	0xbd1ae2d5	-0.03781398
198	0xbd407285	-0.046984214
199	0xbd562ebe	-0.05229067
200	0xbd4677e1	-0.04845417
201	0x3db57c3c	0.088615865
202	0xbd494b42	-0.049144037
203	0xbd23628c	-0.039888903
204	0x3d858fdc	0.065215796
205	0x3d79de97	0.061003294
206	0x3cb95f13	0.022628343
207	0x3da62af0	0.081136584
208	0xbc657b11	-0.014006392
209	0x3cd90cb7	0.02649532
210	0x3c513605	0.012769227
211	0xbac1df0d	-0.0014791206
212	0xbd8b6dcc	-0.068080515
213	0x3d4129fd	0.047159184
214	0x3dc8ab06	0.09798245
215	0x3db09b9b	0.086234294
216	0x3d09a747	0.033606794
217	0x3ccef42d	0.025262916
218	0xbcdfb1e4	-0.027306505
219	0x3d6b10df	0.057389136
220	0x3d7c7ff2	0.061645456
221	0x3d3b2ee6	0.045699023
222	0xbb68f234	-0.0035544755
223	0xbd51b329	-0.05119625
224	0x3da9e6b1	0.08295954
225	0x3c8938d5	0.016750732
226	0x3dbcb199	0.092135616
227	0x3d9b878a	0.075942114
228	0xbd72f296	-0.05931338
229	0x3d402820	0.046913266
230	0xbd8b3dd8	-0.06798905
231	0xbd02cd29	-0.031933937
232	0xbd00da27	-0.031458046
233	0x3d9c9c2b	0.07646974
234	0xbcf00ac8	-0.029302016
235	0x3d4a5ad9	0.049403045
236	0xbcf48b13	-0.029851472
237	0x3c895cfa	0.016767967
238	0xbc1d0065	-0.009582614
239	0xbc90debd	-0.017684335
240	0x3d61b946	0.05510833
241	0x3c85583f	0.01627743
242	0x3d104cc8	0.035229474
243	0xbd2ba537	-0.041905608
244	0xbd42249e	-0.047398202
245	0x3d8db786	0.0691977
246	0x3d3d1988	0.046166927
247	0x3dc6b410	0.09702313
248	0xbd33c3f7	-0.04388806
249	0xbd3f7087	-0.046738174
250	0xbd9505d9	-0.07276506
251	0x3dab7c25	0.08373288
252	0x3d1f8858	0.038948387
253	0xbd88bd59	-0.0667674
254	0xbd7e6f54	-0.06211789
255	0xbce33db9	-0.027739393
