results/Heartbeat_DLinear_sl_96/1/checkpoint.pth (torch, 124198 bytes, 6 tensors)

Linear_Seasonal.weight f4 [96, 96]
0	0x3a58efe4	0.00082754926
1	0xbb9c51cd	-0.0047704936
2	0x3b2d8bf1	0.0026481117
3	0x3c18c9c7	0.009325451
4	0x3c11c85f	0.00889787
5	0x3cbea102	0.023270134
6	0x3cff4d73	0.03116486
7	0x3ce11dbe	0.027480002
8	0x3caeb00b	0.021324178
9	0x3cc8bb3d	0.024503345
10	0x3ceacbe2	0.028661672
11	0x3c9e6cdd	0.01933902
12	0xbb4b3d5d	-0.0031011917
13	0xba36e290	-0.00069765095
14	0x3a6ea100	0.00091029704
15	0xba0af747	-0.00053011294
16	0x3bf683f9	0.0075230566
17	0x3caf71f6	0.021416645
18	0x3d12dfc9	0.03585795
19	0x3cfaf235	0.030633071
20	0x3ce4639a	0.027879525
21	0x3c85c4f6	0.01632927
22	0x3c13fe75	0.009032835
23	0x3c9a1390	0.018808156
24	0x3c95b3a3	0.018274134
25	0x3c9e0c7c	0.019293062
26	0x3c34c9c9	0.011034437
27	0x3c0a5b1d	0.008444575
28	0x3c289e0f	0.01029159
29	0x3c913a9b	0.01772814
30	0x3bebcd76	0.0071961237
31	0x3c12df59	0.008964383
32	0x3c50a3ba	0.012734348
33	0x3bdacf10	0.006677516
34	0x3b7a926c	0.0038234247
35	0x3adeb74c	0.0016991883
36	0xbb13f3a3	-0.0022575639
37	0xbb0f358a	-0.002185198
38	0x36f5d2eb	7.326123e-06
39	0x3c55b012	0.013042467
40	0x3cf2cc45	0.029638419
41	0x3c820bab	0.015874704
42	0x3cff8687	0.031192077
43	0x3cd3cb25	0.025853703
44	0x3c972934	0.018452264
45	0x3cbc8d20	0.023016512
46	0x3c55f0fd	0.013057944
47	0x3c88ff79	0.016723381
48	0x3c749745	0.014928644
49	0x3ab18ecd	0.0013546586
50	0x3c8462d9	0.016160415
51	0x3c999306	0.018746864
52	0x3c265060	0.010150999
53	0x3c77b041	0.015117706
54	0x3cd4557b	0.025919667
55	0x3d0e4126	0.0347301
56	0x3cebd3d6	0.028787535
57	0x3ca7edfd	0.020499224
58	0x3c48536f	0.012226923
59	0x393feb63	0.00018302868
60	0xbc3c498a	-0.011492142
61	0xbb32208b	-0.0027180042
62	0x3b0b5dab	0.0021265547
63	0x3be2ae00	0.006917715
64	0x3bbcd70a	0.0057629393
65	0xba05eba5	-0.0005108661
66	0xbb616bc3	-0.0034396506
67	0x3beead8a	0.007283871
68	0x3cc4b539	0.024012195
69	0x3d12dc47	0.035854604
70	0x3cf5285e	0.029926475
71	0x3c7607b7	0.015016488
72	0x3c20222d	0.009773773
73	0xbb3e1193	-0.0029002174
74	0xbb976dff	-0.004621267
75	0xbc99c304	-0.018769749
76	0xbc71e02c	-0.014762919
77	0x3c775fa4	0.015098486
78	0x3ca52797	0.02016048
79	0x3bd4b48a	0.0064912485
80	0x3c94276f	0.01808521
81	0x3c9ec1aa	0.019379456
82	0x3cd77d3f	0.02630484
83	0x3c9d5d41	0.019209506
84	0x3cab9f93	0.020950114
85	0x3cb385aa	0.021914322
86	0x3b9c47c8	0.004769299
87	0x39290631	0.00016119402
88	0x3ae78384	0.0017663096
89	0x3bfb221e	0.007663979
90	0xbc0ac028	-0.008468665
91	0xbb1e164a	-0.0024122172
92	0x3c66fd5c	0.0140984915
93	0x3d0842c1	0.033266786
94	0x3cccbd37	0.024992568
95	0x3c119a51	0.00888689
96	0x3c8dc359	0.017305063
97	0x3d000bfb	0.031261425
98	0x3c999323	0.018746918
99	0x3ba18377	0.004929002
100	0xbb82ee97	-0.0039957273
101	0xbba89160	-0.005144283
102	0xba294300	-0.0006456822
103	0x3b2c3118	0.002627438
104	0x3be9dad4	0.007136682
105	0x3c2794ec	0.010228377
106	0x3c081838	0.008306555
107	0x3b58bd89	0.0033071956
108	0x3c2dd6c0	0.010610282
109	0x3cdc183c	0.026867025
110	0x3cdbbfd1	0.026824864
111	0x3cab0457	0.020876093
112	0x3b36d4a1	0.0027897733
113	0x3ba07e6a	0.004897882
114	0x3becdbee	0.007228366
115	0x3b50537b	0.003178804
116	0x3a99b5bf	0.0011727138
117	0x3b9b9333	0.004747772
118	0x3c8218a6	0.015880894
119	0x3c248880	0.01004231
120	0x3bd9ffd6	0.0066528125
121	0x3c72ada5	0.014811908
122	0x3c9682a8	0.018372849
123	0x3c8d33ab	0.017236551
124	0x3cc2eedf	0.023795543
125	0x3cfdf216	0.030999225
126	0x3c556a1a	0.013025785
127	0xbacb8a83	-0.0015528951
128	0x3c082563	0.008309695
129	0x3c65e079	0.014030569
130	0x3c43a188	0.0119403675
131	0x3c424818	0.011858009
132	0x3cb36609	0.02189924
133	0x3cd9bb49	0.026578562
134	0x3c61df53	0.013786155
135	0x3ba4d83b	0.0050306595
136	0xbbfc3c50	-0.0076976195
137	0xbb29c46b	-0.0025904428
138	0xbaee7539	-0.0018192894
139	0xba995933	-0.0011699557
140	0xbaed06b5	-0.0018083664
141	0x3b3ef436	0.002913726
142	0x3bac6394	0.005260894
143	0x3c8e07d1	0.017337712
144	0x3c6b6eb4	0.014369655
145	0x3cf17dd9	0.029478954
146	0x3d139fc3	0.036041033
147	0x3d038d52	0.032117195
148	0x3cb3c765	0.021945665
149	0x3c9b1b17	0.018933816
150	0x3c6fc93a	0.0146353785
151	0x3adbc21e	0.0016766225
152	0x3c324d94	0.010882754
153	0x3b8622c1	0.0040934985
154	0xba85a884	-0.0010197316
155	0x3bd0be02	0.006370307
156	0x3c00ae86	0.00785411
157	0x3c7982cc	0.015228938
158	0x3c6e6ebb	0.014552767
159	0x3bc96c71	0.0061469604
160	0x3c06a37c	0.008217689
161	0x3c56b1a4	0.013103876
162	0x3c974c5f	0.018469034
163	0x3bfccc9a	0.00771482
164	0xbaa4580a	-0.0012538445
165	0xbabeb064	-0.0014548418
166	0xbb0a60cb	-0.0021114822
167	0xba7b0250	-0.0009575235
168	0x3ba3752f	0.0049883346
169	0x3cb0345c	0.021509342
170	0x3cb3e51d	0.021959836
171	0x3cd22c04	0.025655754
172	0x3c86bcf1	0.016447516
173	0x3c09f9a6	0.008421337
174	0x3c4b2312	0.012398498
175	0x3c93b24d	0.018029356
176	0x3c1ef9b5	0.0097030895
177	0x3b36a0ff	0.0027866957
178	0xbbc74cf5	-0.006082172
179	0x3c5976c7	0.013272948
180	0x3c701933	0.014654445
181	0x3c62f78e	0.013852967
182	0x3d0a544e	0.033771805
183	0x3cf7e690	0.030261308
184	0x3ce3f655	0.027827421
185	0x3cab2f7a	0.020896662
186	0x3caa1412	0.020761523
187	0x3c9a5200	0.018837929
188	0x3b855386	0.0040687947
189	0xbcadf106	-0.021233093
190	0xbb6ada86	-0.0035835817
191	0xbb31165f	-0.002702139
192	0x3b966cbd	0.0045905993
193	0x3c44b4b0	0.01200597
194	0x3c80f2b2	0.015740726
195	0x3c34f8d9	0.011045658
196	0x3b61de76	0.0034464872
197	0xbb0518bd	-0.0020308935
198	0x3a7f8efd	0.0009748785
199	0x3c4218db	0.011846746
200	0x3c814e14	0.0157843
201	0x3cafac8d	0.021444583
202	0x3c82b8ca	0.015957255
203	0x3c249e2a	0.010047475
204	0x3c2e4e4c	0.010638785
205	0x3ce2e469	0.027696805
206	0x3cb73fdd	0.02236932
207	0x3c87e5d9	0.016589092
208	0x3bef451c	0.0073019397
209	0x3c28a08b	0.010292183
210	0x3c628e47	0.013827867
211	0x3c0d4338	0.008621983
212	0xb9ddddde	-0.0004231771
213	0xbb565a38	-0.0032707583
214	0x3b127c43	0.0022351898
215	0x3c256043	0.010093751
216	0x3c02dac9	0.007986733
217	0x3c70d650	0.014699534
218	0x3c9ef167	0.019402219
219	0x3c6706a0	0.014100701
220	0x3c80d8cb	0.015728375
221	0x3c7ab730	0.015302464
222	0x3c1cf416	0.009579679
223	0x3b01df1f	0.0019816828
224	0x3c059420	0.0081529915
225	0x3a043a78	0.0005044113
226	0x3b2e7d55	0.0026624997
227	0x3bfa543e	0.007639437
228	0x3cc02902	0.023457054
229	0x3cbf72fb	0.023370257
230	0x3c1e54ad	0.009663743
231	0x3c2c9af6	0.010534992
232	0x3ad43d3f	0.0016192569
233	0x3b514c37	0.0031936297
234	0x3bd9acb4	0.0066429023
235	0x3b9cce70	0.0047853515
236	0x398d2f34	0.00026928785
237	0x3b714a62	0.0036818017
238	0x3a213b4e	0.00061504997
239	0x3ca375cf	0.019953636
240	0x3ca4b4f9	0.020105826
241	0x3cfb31ca	0.03066339
242	0x3d0fea72	0.035135694
243	0x3d019987	0.031640556
244	0x3cd7539a	0.026284982
245	0x3cc0486b	0.023472032
246	0x3cb87ce4	0.02252049
247	0x3c9c12fd	0.019052023
248	0x3c4de0fa	0.012565846
249	0x3bfd5c9b	0.0077319867
250	0x3a083eb5	0.00051973324
251	0xbc239708	-0.009984739
252	0xbc6334b7	-0.013867549
253	0x3911a2b5	0.0001388889
254	0x3c1b3bc6	0.0094747
255	0x3c06facc	0.008238506

Linear_Seasonal.bias f4 [96]
0	0x3cf09b27	0.029370857
1	0xbd89786e	-0.06712423
2	0xbb8970dc	-0.004194362
3	0xbdaad465	-0.08341292
4	0xbd98688f	-0.07441818
5	0x3d594d69	0.05305234
6	0x3d8f43af	0.069953315
7	0x3d91ea9c	0.07124826
8	0x3c9dd1c0	0.019265056
9	0xbcc82c76	-0.024435263
10	0x3ccc825a	0.0249645
11	0x3d1dc703	0.03851987
12	0xbd1b0a0d	-0.037851382
13	0x3d288418	0.0411416
14	0xbcf48e48	-0.029853001
15	0x3cee8ff7	0.029121382
16	0x3d6d62d8	0.057955593
17	0x3c78d025	0.015186344
18	0x3c0e8002	0.008697512
19	0x3d51ae00	0.05119133
20	0x3d2f7479	0.042835686
21	0xbda4cb5e	-0.08046602
22	0xbda27afd	-0.079336144
23	0x3c6ffa55	0.014647086
24	0xba8d0242	-0.0010758119
25	0xbdb48e59	-0.08816213
26	0xbd2baefa	-0.041914918
27	0xbd6dbe14	-0.0580426
28	0xbd24fec9	-0.040282045
29	0xbc0640b1	-0.008194135
30	0x3dad14f2	0.084512606
31	0xbda813d9	-0.08206911
32	0x3b62f086	0.0034628226
33	0xbd098e6b	-0.033583086
34	0xbc3b4373	-0.011429655
35	0x3b992352	0.0046734
36	0xbd7066d2	-0.058691807
37	0xbd7d0bca	-0.06177882
38	0xbd608d3c	-0.05482219
39	0xbd9443e7	-0.07239514
40	0xbd91ae89	-0.07113368
41	0xbdb7d60d	-0.08976374
42	0x3cd4ef08	0.025992885
43	0xbd0b40d3	-0.033997368
44	0xbdb0a804	-0.086257964
45	0xbdb315d8	-0.08744401
46	0xbc780532	-0.015137957
47	0x3cea59e8	0.028607324
48	0xbdb27cbd	-0.08715198
49	0x3d344a7b	0.044016343
50	0xbd5eff46	-0.054442666
51	0xbcc31437	-0.02381335
52	0xbd8d3d61	-0.06896473
53	0xbd873feb	-0.06603988
54	0xbc8148ba	-0.015781749
55	0xbdb44269	-0.08801729
56	0x3dc2bf86	0.095091864
57	0xbcdd583f	-0.027019618
58	0x3dca799c	0.098864764
59	0xbd5fffd4	-0.054687336
60	0x3d209bd4	0.03921111
61	0x3db68af7	0.08913224
62	0xb9ac9655	-0.00032918403
63	0x3d8b5e01	0.06805039
64	0x3aa8c706	0.0012876696
65	0xbc88bc8f	-0.016691474
66	0x3cb317b1	0.021861883
67	0x3d946d11	0.07247365
68	0x3db6c1fd	0.08923719
69	0x3d34cdeb	0.04414169
70	0x3dc715df	0.097209685
71	0x3d6f861b	0.058477502
72	0x3d730a86	0.059336208
73	0x3d80de50	0.06292403
74	0xbcc4aa30	-0.024006933
75	0xbd98025a	-0.074223235
76	0x3bb53787	0.005530301
77	0x3dc8859e	0.097911105
78	0xbd9cbb0b	-0.07652863
79	0x3cd57bb3	0.026059961
80	0x3d726231	0.059175674
81	0x3db36565	0.08759574
82	0x3bf59a03	0.0074951663
83	0x3d51ba6a	0.05120317
84	0xbd8ae26c	-0.06781468
85	0x3d2c3606	0.04204371
86	0x3db49348	0.08817154
87	0x3dd44622	0.10364939
88	0x3d707ee8	0.058714777
89	0xbdb1141f	-0.08646416
90	0xbcbd9772	-0.023143504
91	0xbc9db82a	-0.019252855
92	0xbd5cc157	-0.05389532
93	0xbc8aa33a	-0.016923536
94	0xbc7c3d8f	-0.015395536
95	0xbd8e9798	-0.06962508

Linear_Trend.weight f4 [96, 96]
0	0x3b2b060d	0.0026096136
1	0x3b1ad42c	0.0023625
2	0x3b00c532	0.0019648788
3	0x3ad0d374	0.0015932159
4	0x3ac0c59b	0.0014707329
5	0x3ad21535	0.0016028049
6	0x3b098009	0.0020980856
7	0x3b279db3	0.0025576174
8	0x3b43316e	0.00297841
9	0x3b4d52ae	0.0031329799
10	0x3b4b2a3e	0.003100052
11	0x3b541849	0.0032363108
12	0x3b5ae658	0.0033401456
13	0x3b64563c	0.0034841439
14	0x3b5e07a5	0.0033879068
15	0x3b72e47e	0.0037062461
16	0x3b835c87	0.004008833
17	0x3b930263	0.0044863685
18	0x3b8dc43d	0.004326372
19	0x3b69067e	0.0035556848
20	0x3b4f7b88	0.0031659324
21	0x3b41f120	0.0029593185
22	0x3b1d2315	0.002397721
23	0x3aa2011c	0.001235995
24	0xb900b2fc	-0.00012273708
25	0xba51bd5f	-0.0008000936
26	0xba41baac	-0.0007390182
27	0xb946838c	-0.00018931756
28	0x3a4d4f47	0.00078319426
29	0x3a593d39	0.0008287016
30	0x3a8df5a0	0.0010830648
31	0x3a08f291	0.00052241335
32	0xb7c29435	-2.3195616e-05
33	0x381f4731	3.7974856e-05
34	0x397bc9d5	0.00024012414
35	0x3a1bfe57	0.00059506804
36	0x3a1f0700	0.0006066412
37	0x39b6b82b	0.0003485096
38	0x39cebfab	0.00039434186
39	0x3a4533f3	0.00075226947
40	0x3a7311de	0.0009272377
41	0x3a90c4b7	0.0011044954
42	0x3ab96ee1	0.0014147424
43	0x3b14c44a	0.0022700005
44	0x3b5e1203	0.0033885248
45	0x3b9dd6c0	0.00481686
46	0x3c080e60	0.0083042085
47	0x3c1071ba	0.008816177
48	0x3c15d070	0.009143934
49	0x3c36abca	0.011149356
50	0x3c592a3e	0.0132547
51	0x3c699004	0.014255527
52	0x3c6b736c	0.01437078
53	0x3c5568f4	0.013025511
54	0x3c46c0e6	0.0121309515
55	0x3c3817b9	0.011236125
56	0x3c34f2fb	0.011044259
57	0x3c3b25dd	0.0114226015
58	0x3c3a164d	0.011357856
59	0x3c37b30e	0.011212124
60	0x3c2d72f5	0.01058649
61	0x3c1b9d5e	0.0094979685
62	0x3c10b36b	0.008831839
63	0x3be92d19	0.0071159718
64	0x3b6d2469	0.0036185032
65	0x3b5f451a	0.0034068287
66	0x3b549184	0.0032435367
67	0x3b24e303	0.0025159724
68	0x3b062b2a	0.0020472505
69	0x3ade347e	0.00169529
70	0x3ac2c70c	0.0014860346
71	0x3ab7cbdd	0.0014022548
72	0x3af4c8c9	0.0018675561
73	0x3b31604e	0.0027065459
74	0x3b42a1ac	0.0029698415
75	0x3b5265ef	0.0032104214
76	0x3b52d4dd	0.0032170333
77	0x3bb027b2	0.005375826
78	0x3bbb022a	0.005707045
79	0x3bd513e9	0.0065026176
80	0x3be0b444	0.006857427
81	0x3be81c69	0.007083465
82	0x3bcf22ff	0.0063213105
83	0x3bb77527	0.0055986824
84	0x3bbe6925	0.005810874
85	0x3bd47efc	0.0064848643
86	0x3bfe2160	0.0077554435
87	0x3c14d569	0.009084084
88	0x3c339c23	0.010962519
89	0x3c4a73d5	0.012356718
90	0x3c4e1db2	0.012580322
91	0x3c4c8599	0.012483024
92	0x3c514cb4	0.012774635
93	0x3c4d3cf1	0.012526737
94	0x3c48093c	0.012209233
95	0x3c418572	0.011811601
96	0xbc052987	-0.008127577
97	0xbc00581c	-0.007833507
98	0xbbf72026	-0.007541674
99	0xbbf37273	-0.007429415
100	0xbbf7204b	-0.0075416914
101	0xbbf41883	-0.007449211
102	0xbbf271bf	-0.0073988135
103	0xbbf9b9d3	-0.007621029
104	0xbc00e629	-0.007867374
105	0xbc02177a	-0.007940168
106	0xbc00b419	-0.007855439
107	0xbc00e747	-0.007867641
108	0xbc022eb1	-0.007945702
109	0xbbf875b3	-0.00758239
110	0xbbdb2083	-0.0066872253
111	0xbbc78811	-0.0060892184
112	0xbbbed1e1	-0.0058233594
113	0xbba822e6	-0.0051311133
114	0xbb91070b	-0.0044258884
115	0xbb81fe7a	-0.0039671035
116	0xbb54de46	-0.0032481118
117	0xbb27339c	-0.002551294
118	0xbb055ede	-0.0020350735
119	0xbaaa543b	-0.0012995073
120	0x394ae14c	0.00019348151
121	0x3ac7868e	0.0015222596
122	0x3adda6cd	0.0016910672
123	0x3ac19bf5	0.001477121
124	0x3a8b3006	0.001061917
125	0x3a9cdf7e	0.0011968461
126	0x3aacf03f	0.0013194158
127	0x3ac1399f	0.0014741904
128	0x3adc63bb	0.001681439
129	0x3af24cd7	0.0018486035
130	0x3b00b444	0.0019638697
131	0x3b20f9e5	0.0024563011
132	0x3b4af0f5	0.0030966375
133	0x3b82f8e5	0.0039969557
134	0x3b954010	0.004554756
135	0x3b92b278	0.0044768415
136	0x3b8812cd	0.004152632
137	0x3b862b6a	0.004094531
138	0x3b77ae65	0.0037793156
139	0x3b655572	0.0034993556
140	0x3b746081	0.0037288966
141	0x3b6aaa6b	0.0035807143
142	0x3b4eaac4	0.003153489
143	0x3b41338a	0.0029480183
144	0x3b372130	0.0027943365
145	0x3b01b74a	0.0019793087
146	0x3a6db1f3	0.0009067349
147	0x39bc6cfd	0.00035939357
148	0x39622c16	0.00021569463
149	0x3a3e298a	0.00072541146
150	0x3aab9cad	0.0013092958
151	0x3b6db9a6	0.0036273985
152	0x3b609081	0.0034265819
153	0x3b3e35bd	0.002902373
154	0x3b1ef3c9	0.0024254194
155	0x3b0ca853	0.0021462634
156	0x3aa5f98e	0.0012662874
157	0x3a2ec3f2	0.00066667714
158	0xbb1143ad	-0.0022165582
159	0xbb42e43b	-0.0029738087
160	0xbb79f5ff	-0.003814101
161	0xbb91c452	-0.004448452
162	0xbba0eef3	-0.0049112975
163	0xbba5a85a	-0.0050554695
164	0xbba7779d	-0.0051106946
165	0xbbb2393c	-0.005438952
166	0xbbbc8c32	-0.0057540173
167	0xbbb77490	-0.005598612
168	0xbbb7c861	-0.005608604
169	0xbbbb4fa1	-0.0057162796
170	0xbbbab972	-0.0056983763
171	0xbbbefeae	-0.0058287
172	0xbbbe3136	-0.0058042062
173	0xbbc0fb3a	-0.0058893235
174	0xbbccdb36	-0.006251718
175	0xbbe2899c	-0.006913377
176	0xbbf6328c	-0.00751335
177	0xbc05eff8	-0.008174889
178	0xbc0c8241	-0.008575977
179	0xbc11c77c	-0.008897658
180	0xbc18993c	-0.009313878
181	0xbc1dad9c	-0.009623911
182	0xbc279d7d	-0.010230419
183	0xbc3647f0	-0.01112555
184	0xbc4534c6	-0.012036508
185	0xbc4bc9cd	-0.01243825
186	0xbc4b9c86	-0.012427455
187	0xbc4d5c1f	-0.01253417
188	0xbc503b32	-0.012709426
189	0xbc4fb8fd	-0.012678382
190	0xbc4d800e	-0.012542738
191	0xbc49f469	-0.012326338
192	0xbb558bfb	-0.0032584656
193	0xbb4489e3	-0.0029989413
194	0xbb3babe3	-0.0028636388
195	0xbb415608	-0.0029500742
196	0xbb4efb4a	-0.0031582885
197	0xbb4de9aa	-0.0031419792
198	0xbb44a052	-0.0030002785
199	0xbb4f285a	-0.0031609745
200	0xbb6c14fa	-0.0036023245
201	0xbb859036	-0.004076029
202	0xbb8ee41a	-0.004360688
203	0xbb92d804	-0.0044813175
204	0xbb974454	-0.0046162996
205	0xbb912d54	-0.0044304524
206	0xbb8755b8	-0.0041300915
207	0xbb82bb77	-0.0039896327
208	0xbb78c5c5	-0.0037959677
209	0xbb55b01f	-0.0032606197
210	0xbb36cfc7	-0.002789484
211	0xbb1c6f6d	-0.0023870126
212	0xbb0000a0	-0.0019531623
213	0xbaf396d9	-0.0018584385
214	0xbb0070f8	-0.0019598585
215	0xbaff1a50	-0.0019462798
216	0xba9cb282	-0.0011955055
217	0xb9ea74dd	-0.00044719028
218	0xba0b5e24	-0.0005316457
219	0xb9daf48f	-0.0004176241
220	0xb993eeb2	-0.00028215867
221	0x392ece73	0.00016670841
222	0x3a3919bb	0.0007061024
223	0x3a75bfd6	0.0009374594
224	0x3a963a69	0.0011461499
225	0x3ad89f1a	0.0016526908
226	0x3b10e724	0.0022110427
227	0x3b67c058	0.0035362449
228	0x3b9ccebe	0.004785388
229	0x3bc913c9	0.006136392
230	0x3be60de5	0.0070206993
231	0x3bf3f36d	0.00744479
232	0x3bfc36cc	0.007696962
233	0x3c04287b	0.008066292
234	0x3c093cdb	0.0083763255
235	0x3c0e4ef8	0.00868582
236	0x3c14c1dc	0.009079423
237	0x3c16b1ce	0.009197665
238	0x3c176434	0.009240199
239	0x3c37451d	0.0111859115
240	0x3c115f38	0.0088728
241	0x3c07c870	0.008287534
242	0x3bfc17c4	0.007693263
243	0x3bf6870f	0.0075234245
244	0x3bf3653a	0.0074278386
245	0x3bf8a83b	0.007588414
246	0x3bfb4aaf	0.007668815
247	0x3bedbd94	0.0072552655
248	0x3bd95e90	0.006633587
249	0x3bc63973	0.006049329
250	0x3bb0a926	0.005391258
251	0x3ba34e9c	0.004983736
252	0x3b7cbcef	0.0038564762
253	0x3b2cbe13	0.002635841
254	0x3aa806c1	0.0012819396
255	0x39224f3c	0.00015479041

Linear_Trend.bias f4 [96]
0	0x3d7036ff	0.0586462
1	0x3bfa23a1	0.007633642
2	0xbda4b48f	-0.08042251
3	0x3d32332f	0.043505844
4	0x3dbdbc36	0.09264414
5	0xbdb1bd1b	-0.08678647
6	0x3c703006	0.014659887
7	0xbd9ed020	-0.077545404
8	0x3d095cf0	0.033535898
9	0xbd9a0827	-0.07521086
10	0xbcfd624a	-0.030930657
11	0xbd4a0cea	-0.049328722
12	0x3d00f080	0.03147936
13	0x3db14c79	0.08657164
14	0x3d7267ab	0.059180897
15	0xbd1b19c5	-0.037866373
16	0x3c96a617	0.018389745
17	0xbca2a79f	-0.019855319
18	0xbd65ba51	-0.05608589
19	0xbd87ee04	-0.06637195
20	0xbcc9e952	-0.024647389
21	0xbd2807e9	-0.04102317
22	0xbd17059b	-0.03687058
23	0xbdc46b45	-0.095907725
24	0x3dc175c7	0.09446292
25	0xbda5b055	-0.08090273
26	0xbcc30acb	-0.023808857
27	0xbd17997a	-0.0370116
28	0x3db9fb93	0.09081187
29	0xbd6449da	-0.055734493
30	0xbd3a413d	-0.045472372
31	0xbd80f246	-0.0629621
32	0xbc58c59f	-0.01323071
33	0x3cf68c38	0.030096158
34	0x3c04ded4	0.008109767
35	0x3d2c8ba4	0.04212536
36	0xbdaf4b9a	-0.08559342
37	0xbbf087c7	-0.0073404047
38	0xbc63fde3	-0.013915512
39	0xbcc99bb0	-0.02461037
40	0xbd111420	-0.035419583
41	0xbd95b4f5	-0.073099054
42	0xbcf4d695	-0.029887477
43	0x3cd059d1	0.025433453
44	0x3d4d4218	0.05011186
45	0x3c3bac31	0.011454628
46	0xbcf5f295	-0.030022899
47	0xbdb219b0	-0.08696306
48	0x3db61576	0.08890812
49	0x3dbfe59c	0.093699664
50	0xbcd0f335	-0.025506595
51	0x3d7dbe90	0.061949313
52	0x3d02dcbb	0.031948786
53	0x3d14f8b1	0.036369983
54	0x3d07d8a6	0.033165596
55	0x3ca6a082	0.020340208
56	0x3d8275fa	0.063701585
57	0x3da5bb5d	0.08092377
58	0x3d9a9332	0.075476065
59	0xbd8913ff	-0.06693267
60	0x3ca36da4	0.019949742
61	0xbc977d3a	-0.01849233
62	0x3d4074f7	0.046986546
63	0x3c9ca0c9	0.019119637
64	0xbce12ccd	-0.027487183
65	0x3da2c24e	0.07947217
66	0x3ce1156c	0.027476035
67	0x3d914397	0.0709297
68	0x3ca833d1	0.02053252
69	0xbd275676	-0.04085394
70	0xbce0b1ec	-0.02742859
71	0xbd95911c	-0.07303068
72	0x3c98a387	0.018632663
73	0xbb0d0d4e	-0.0021522823
74	0xbdab0ef3	-0.08352461
75	0x3d8513e3	0.06497934
76	0xbd29d9e6	-0.04146757
77	0xbbf3001b	-0.007415784
78	0xbd7046ce	-0.058661275
79	0xbcf0bb46	-0.029386174
80	0x3dcd62eb	0.10028633
81	0x3d44980c	0.047996566
82	0xbc6b05e3	-0.014344665
83	0x3dc2b933	0.0950798
84	0xbb710e45	-0.0036782187
85	0x3cabb35e	0.020959552
86	0x3dc36b12	0.095419064
87	0x3c99829f	0.018739043
88	0x3db4f6fe	0.088361725
89	0x3da08eec	0.0783976
90	0x3d28b730	0.041190326
91	0xbd7b2440	-0.061313868
92	0x3dd77926	0.10521154
93	0xbd5ce52a	-0.053929485
94	0xbdb95c38	-0.090507925
95	0x3dd1e2a6	0.10248308

projection.weight f4 [2, 5856]
0	0x3c1b5345	0.009480302
1	0x3c76179c	0.015020277
2	0x398bd3eb	0.00026670037
3	0x3c663409	0.014050492
4	0xba35eb62	-0.0006939677
5	0xbb3af9ee	-0.0028530317
6	0xbc2352bd	-0.009968457
7	0x3c46232f	0.012093349
8	0xbb2a3dfe	-0.0025976892
9	0xbb9f58bd	-0.0048628733
10	0x3c88429a	0.01663332
11	0xbc2728d6	-0.010202607
12	0x3b4f5d12	0.0031641168
13	0x3c2757c2	0.010213794
14	0x3bd3ea4f	0.0064671407
15	0x3c58dfc8	0.013236947
16	0xbb9452b8	-0.0045264624
17	0xbb4f2f08	-0.0031613726
18	0xbbd6405e	-0.006538435
19	0xbc1b4bc3	-0.009478512
20	0xbbfc43b6	-0.0076985015
21	0x3bdcda4f	0.0067398916
22	0xbc3387de	-0.010957686
23	0xbc4682e1	-0.012116165
24	0xbc5f452c	-0.013627332
25	0xbaf88385	-0.0018960094
26	0x3c2e1b5a	0.010626638
27	0xba13e254	-0.00056413305
28	0xbb34c6c8	-0.0027584303
29	0x3c3628bd	0.011118111
30	0xbc13cff2	-0.009021746
31	0xbaab6dff	-0.0013079046
32	0xbb8fb6be	-0.0043857982
33	0x3bcf30bc	0.0063229483
34	0x3c17ae71	0.009257899
35	0x3c833b0f	0.016019372
36	0xbbbb3fe0	-0.0057144016
37	0xba534aea	-0.00080601743
38	0x3b022bbb	0.0019862491
39	0xbc2dc43c	-0.010605868
40	0xba04bddd	-0.0005063692
41	0x3c60fc60	0.013732046
42	0x3c7e22b0	0.0155112
43	0xbbafb171	-0.005361729
44	0xbba69a30	-0.0050842986
45	0x3c86c101	0.016449453
46	0x39ea5651	0.0004469627
47	0x3c5c64f9	0.013451808
48	0x3b3ca697	0.0028785819
49	0xbc28058d	-0.01025523
50	0xbc405565	-0.01173911
51	0x3bd16f35	0.0063914307
52	0x3c057560	0.00814566
53	0xbbb0a5e1	-0.005390868
54	0xba75c962	-0.00093760167
55	0xbc1a8cc0	-0.0094329715
56	0x3b0a767b	0.0021127749
57	0xbb577860	-0.0032878146
58	0xbc7fac7f	-0.015605091
59	0xbc8fd7f0	-0.017559022
60	0xbc9eb0c4	-0.019371398
61	0x3c0fa951	0.0087683955
62	0xbbf61c4e	-0.0075106984
63	0x3c4a7417	0.01235678
64	0xbc3dfe35	-0.011596252
65	0xbbb3c55c	-0.0054861736
66	0xbc31651c	-0.010827329
67	0x3a060bf1	0.0005113474
68	0xbb69603b	-0.0035610336
69	0x3c45c1bf	0.012070118
70	0x3b38c21a	0.0028191865
71	0xbbc5ca3f	-0.0060360725
72	0xb70a1585	-8.230451e-06
73	0xbb1dd788	-0.0024084765
74	0xbc12f250	-0.008968905
75	0x3c3ee9ca	0.011652419
76	0x3b9541da	0.0045549693
77	0xbc010ce6	-0.00787661
78	0xbc492fc9	-0.012279459
79	0x3c023903	0.007948163
80	0x3b2a5357	0.0025989616
81	0xbc1bec30	-0.009516761
82	0xbc69c3e9	-0.0142679
83	0x3aedb4e3	0.0018135573
84	0x3ae9e2a6	0.0017844036
85	0xbc5b9824	-0.013402972
86	0xbc6000f2	-0.0136721
87	0xbc88ae3e	-0.016684648
88	0xbc70e0b7	-0.014702014
89	0xbb7a7488	-0.003821643
90	0xbc68d30a	-0.014210472
91	0xbc1aa958	-0.009439789
92	0xbc6d7466	-0.014493084
93	0xbc6a3f4f	-0.0142973205
94	0x3a636e2c	0.00086757797
95	0xbbdec9b0	-0.0067989454
96	0xbbafd935	-0.0053664693
97	0x3b627fb7	0.0034560987
98	0x3b958cdd	0.0045639114
99	0x394890a5	0.0001912737
100	0x3be2ecf0	0.006925218
101	0xbb0e8fbb	-0.002175315
102	0xbc10d6f4	-0.008840311
103	0x3c267351	0.0101593295
104	0xbb79859c	-0.0038074022
105	0x3b3a6f4a	0.002844768
106	0x3b13af1d	0.0022534796
107	0xb911792d	-0.00013873419
108	0xbac7b7cf	-0.0015237274
109	0xbc06922a	-0.008213559
110	0x3bbe5603	0.0058085932
111	0xbbda9eaf	-0.0066717486
112	0x3c4376f8	0.01193022
113	0x3b9ab196	0.004720877
114	0x3c1d4f2d	0.0096013965
115	0x3bf17c37	0.007369544
116	0x3c294482	0.010331275
117	0xbc5aa7b1	-0.013345645
118	0xbc332dfd	-0.010936257
119	0x3bf4a342	0.007465751
120	0x3c6fe95c	0.01464304
121	0x3c64e99e	0.013971714
122	0x394a1a40	0.00019274
123	0x3bd0b486	0.0063691763
124	0xbc07cb94	-0.008288283
125	0x38832d82	6.255043e-05
126	0xbb0c8a5b	-0.002144477
127	0xba520fe9	-0.0008013235
128	0x3a8a1b34	0.0010536672
129	0xbc4acfb0	-0.012378618
130	0x3c2c1d0c	0.010504972
131	0x3c02e406	0.007988935
132	0x3ba947d9	0.0051660356
133	0x3baa34a0	0.0051942617
134	0xbb62f2c9	-0.0034629575
135	0x3c3d0cdd	0.011538711
136	0xbb9cc130	-0.004783772
137	0x3c391b01	0.011297942
138	0xbc127712	-0.008939521
139	0x3c13b24b	0.009014676
140	0xbc500774	-0.012697089
141	0xbc0835ae	-0.0083135795
142	0x3a586d1d	0.0008256005
143	0xbc5cbd89	-0.013472923
144	0xbc89579b	-0.016765406
145	0xbc6ec9d9	-0.014574491
146	0xbbcc3db3	-0.006232941
147	0xbc815b5e	-0.015790638
148	0xbc8d9ab1	-0.017285677
149	0x3b309ff2	0.0026950804
150	0x3b112b59	0.0022151081
151	0xba23b374	-0.0006244697
152	0x3b68abdf	0.0035502834
153	0x3c09b50c	0.008404981
154	0x3ae0759f	0.0017124898
155	0xbbc8d3be	-0.0061287573
156	0x3b7feb19	0.0039050041
157	0xbb88d7a3	-0.0041760965
158	0xbc53f8ca	-0.012937734
159	0xbc113ef2	-0.008865105
160	0x3ac25a5d	0.0014827956
161	0x3b6dbad5	0.003627469
162	0x3c16bcbd	0.009200272
163	0xbb4f40f3	-0.0031624406
164	0x3b9458bd	0.00452718
165	0xba566fd6	-0.0008180117
166	0x3c0ddf6b	0.008659224
167	0x3baadc7d	0.0052142725
168	0x3c05f848	0.008176871
169	0xb9a4ac65	-0.00031408962
170	0x3c37c618	0.011216663
171	0x3bd9803f	0.0066376026
172	0xb9cc5bdb	-0.0003897835
173	0x3c31ad08	0.0108444765
174	0x3c18a97a	0.00931775
175	0x3c3ec133	0.011642742
176	0x3c4c089d	0.012453225
177	0xbb821a6f	-0.0039704363
178	0x3be01c14	0.0068392847
179	0xbbe206f2	-0.0068978006
180	0xbc648e36	-0.013949921
181	0xbc1263c5	-0.00893492
182	0x3c5f5636	0.013631394
183	0x3b219a6a	0.0024658688
184	0xbb8078e3	-0.003920661
185	0xbc23f78e	-0.010007752
186	0x3c32b0c9	0.010906407
187	0x3c53c341	0.01292497
188	0xbbd392d0	-0.0064567104
189	0x3c0c8cf8	0.008578531
190	0x3c1ee0db	0.009697164
191	0xbb6e8aaf	-0.003639858
192	0xbc0ded3c	-0.008662518
193	0x3be22e37	0.006902482
194	0xbadd6151	-0.0016889964
195	0xbb8a3b7e	-0.004218518
196	0x3b0359df	0.002004258
197	0x3c056cf0	0.0081436485
198	0xbbb3c576	-0.0054861857
199	0x3bf25781	0.007395685
200	0x3c088529	0.008332529
201	0xbbf17cb7	-0.0073696035
202	0xbc48a6ce	-0.012246801
203	0x3b656fdc	0.00350093
204	0xbc5b0d2d	-0.013369841
205	0x3bb009b2	0.0053722495
206	0xbc406019	-0.0117416615
207	0x3b4b95ac	0.0031064553
208	0xbc4b1ba0	-0.012396723
209	0x3bcb2db2	0.0062005157
210	0xbb546d0a	-0.0032413625
211	0x3c2c1d13	0.010504979
212	0xbc0ac469	-0.008469679
213	0xbbec4d7b	-0.007211385
214	0xbbe98059	-0.007125896
215	0x3b0a3077	0.0021086016
216	0x3bcd562e	0.006266377
217	0x3abeb35b	0.0014549302
218	0xbc113c91	-0.008864538
219	0xbc079821	-0.008276016
220	0xbc17d3fc	-0.00926685
221	0x3c4180cc	0.011810493
222	0x3bc211cd	0.005922532
223	0xbb52f13b	-0.0032187242
224	0xbb989b31	-0.004657172
225	0x3b300b77	0.0026862302
226	0x3be0ac87	0.0068565044
227	0x3a646de8	0.0008713887
228	0x3c5a8517	0.013337395
229	0x3b43fc4b	0.0029905017
230	0xbc09867e	-0.008393882
231	0x3b554858	0.003254434
232	0xb9461043	-0.0001888881
233	0x3c04171f	0.008062153
234	0xbc32bd49	-0.010909387
235	0x3c20a0d2	0.009803968
236	0xbc4e11cd	-0.012577486
237	0xba295b81	-0.00064604735
238	0xbc85acaf	-0.016317694
239	0xbc2686b4	-0.010163952
240	0x3b98a56e	0.0046583926
241	0x3c55df34	0.013053704
242	0x3b426c06	0.0029666438
243	0x3c5e1433	0.013554621
244	0xbb9d7677	-0.004805382
245	0xbb1562cd	-0.0022794486
246	0xbb413387	-0.0029480176
247	0x3bd952ff	0.0066322084
248	0x3b630c93	0.0034644946
249	0x3c277b8f	0.01022233
250	0xbc39b9b9	-0.011335784
251	0x3b400866	0.002930188
252	0x3c1409e3	0.00903556
253	0x3be84fd3	0.007089594
254	0xbbaaf569	-0.0052172435
255	0x3bdde29a	0.006771398

projection.bias f4 [2]
0	0x3c8993fd	0.0167942
1	0x390891e8	0.00013024325
